unit_tests_workloads/conv3_1x1_C_256_K_64-1x1_C_64_K_64-1x1_C_64_K_64_workload.onnx (onnx, 99102 bytes, 3 tensors)

conv1.weight f4 [64, 256, 1, 1]
0.04668366 0.044110708 -0.05482897 0.0046180636 -0.041683152 0.032988198 -0.038329244 -0.061258502
0.040369764 -0.04386308 0.038861997 -0.0104787275 0.041651294 -0.038386054 0.033680916 -0.05529251
0.04840613 -0.025485553 0.022965357 0.041363902 -0.03372039 -0.018295623 -0.040669166 -0.048918016
0.023061104 0.018891923 -0.046191044 -0.020991646 -0.06238036 0.0400886 -0.0020728558 -0.044994935
-0.025287785 -0.005627215 0.007031612 0.056819968 0.05289665 0.00032378733 0.019191891 0.042035602
-0.030422635 0.060782976 -0.051533267 0.05676002 -0.039641745 -0.040820174 -0.05666589 0.008591838
-0.05627317 0.018945523 -0.02100195 0.031103931 -0.028375566 0.035265647 0.00027236342 -0.02798514
0.034496315 -0.056755103 -0.027686357 -0.05377955 -0.028859764 -0.05561889 0.049006253 -0.0056645945
-0.033585154 -0.031641133 -0.0124280155 0.030416198 0.030150078 0.047986783 -0.004387997 0.020550273
0.018648975 0.0055609867 0.010666072 0.058337636 0.0065717325 0.012895539 -0.021630518 -0.027274877
0.015485406 -0.013412155 0.023423396 -0.06135883 -0.009866059 0.025585778 0.056635626 0.014453627
-0.002154857 0.00520505 0.02464147 -0.030158915 0.056703456 -0.03842117 0.04838551 -0.05475869
0.00051890314 -0.0086831525 -0.025983334 -0.009963281 -0.020806931 -0.058269843 0.037368573 0.0074507
0.049775213 -0.022648774 -0.060879767 0.0054431856 0.028935984 0.03902381 0.014847338 0.012322195
-0.00209219 0.01608494 -0.00904087 0.060471423 0.032394193 0.055659242 0.030448683 -0.016596787
0.046389297 0.011339724 -0.0057880655 -0.046750277 0.024604805 -0.039749496 -0.00885535 -0.057774268
-0.040893055 0.027412586 0.0028977692 -0.042334676 -0.029831432 -0.03304875 -0.010732211 0.024623163
0.038185187 -0.04309237 0.050317608 0.046373583 -0.00784567 0.027315512 0.004287593 -0.03141871
-0.058589138 -0.059070937 -0.05079685 -0.016537227 -0.059547402 0.019979395 0.05909454 0.05163785
-0.013330728 -0.0038069934 0.028961904 0.058832794 0.014477022 -0.007992104 0.05841572 -0.005144961
-0.0053841025 0.0049970224 -0.020241573 0.024726734 0.028446093 0.02572906 -0.055107877 -0.04240299
-0.0028447136 -0.017565593 -0.05350642 0.05715762 0.031483985 -0.050817296 -0.05404301 0.0025299937
0.05934993 -0.023403823 0.015547842 -0.034120426 -0.022655532 0.037004136 -0.0052251294 0.024916962
0.009958282 0.050916575 -0.011358134 -0.025718473 -0.01356294 -0.024735838 -0.027019404 0.022016287
0.030575037 0.005385563 0.057118565 -0.0434103 0.01475358 -0.018183991 0.014103025 0.0070828125
0.031880833 0.013557121 0.049556173 -0.04686457 -0.03507714 0.042649247 0.027541846 0.0020371974
0.0033691823 0.0061881617 -0.056430668 -0.022597685 0.053718835 -0.030315392 -0.009969465 -0.040465675
0.016913809 0.009828389 0.051988073 0.019924186 0.017584987 -0.043246202 0.021938361 -0.023980439
-0.052481525 -0.030411609 0.05660584 0.018755041 0.046815887 0.050556526 -0.033518724 -0.009017818
0.05398354 0.019463979 -0.054594353 -0.052841187 -0.021817982 -0.029689156 -0.027840242 0.011470497
0.03132557 -0.02713269 -0.04170972 0.02077537 -0.017379291 0.03699065 -0.018886633 -0.017492197
-0.00044725835 -0.024236344 -0.010044828 -0.04827889 0.0027768463 -0.025438324 -0.008800864 0.036965236
00000000: 5e37 3f3d 6ead 343d 5894 60bd 2053 973b
00000010: f4bb 2abd a21e 073d 20ff 1cbd 32ea 7abd
00000020: c45a 253d c6a9 33bd c22d 1f3d f8ae 2bbc
00000030: 8c9a 2a3d b23a 1dbd 00f5 093d 667a 62bd
00000040: 8245 463d 14c7 d0bc d821 bc3c 326d 293d
00000050: 641e 0abd b4e0 95bc b694 26bd 425e 48bd
00000060: a4ea bc3c 3cc3 9a3c d232 3dbd acf6 abbc
00000070: 8c82 7fbd f233 243d c0d8 07bb 9c4c 38bd
00000080: 5428 cfbc 8064 b8bb 7069 e63b 0ebc 683d
00000090: 28aa 583d 00c2 a939 5038 9d3c 862d 2c3d
000000a0: e438 f9bc 92f7 783d 8c14 53bd 327d 683d
000000b0: 625f 22bd 0e33 27bd 7e1a 68bd c8c4 0c3c
000000c0: b27e 66bd a433 9b3c 480c acbc accd fe3c
000000d0: e073 e8bc b672 103d 00cc 8e39 1841 e5bc
000000e0: 024c 0d3d 0a78 68bd 80ce e2bc f247 5cbd
000000f0: 506b ecbc a2d0 63bd c8ba 483d 109e b9bb
00000100: 9690 09bd 229a 01bd e09e 4bbc 642b f93c
00000110: 4cfd f63c ca8d 443d 30c9 8fbb 0c59 a83c
00000120: bcc5 983c f038 b63b c0c0 2e3c 72f3 6e3d
00000130: b057 d73b d047 533c 7c32 b1bc 906f dfbc
00000140: 80b6 7d3c a8be 5bbc 6ce2 bf3c 6653 7bbd
00000150: 40a5 21bc 4499 d13c c2fa 673d e8ce 6c3c
00000160: 8038 0dbb 208f aa3b e8dc c93c d40f f7bc
00000170: e241 683d 845f 1dbd e22f 463d a64a 60bd
00000180: 0007 083a c843 0ebc 00db d4bc 083d 23bc
00000190: 4c73 aabc 5cac 6ebd ca0f 193d 0025 f43b
000001a0: 18e1 4b3d ec89 b9bc 105d 79bd c05c b23b
000001b0: 280b ed3c 6ed7 1f3d 4042 733c 08e3 493c
000001c0: 201d 09bb 90c4 833c 2820 14bc e2b0 773d
000001d0: c6af 043d f2fa 633d 846f f93c fcf5 87bc
000001e0: b402 3e3d 40ca 393c d0a9 bdbb 387d 3fbd
000001f0: 0490 c93c 5ed0 22bd 0816 11bc b6a4 6cbd
00000200: 7a7f 27bd 5c90 e03c 80e8 3d3b 2067 2dbd
00000210: 0c61 f4bc 205e 07bd 28d6 2fbc 84b6 c93c
00000220: 1268 1c3d a081 30bd d619 4e3d 3af2 3d3d
00000230: 208b 00bc c8c4 df3c f07e 8c3b e8b0 00bd
00000240: 2afb 6fbd 5ef4 71bd 5c10 50bd 1479 87bc
00000250: fae7 73bd d4ab a33c 1e0d 723d 3682 533d
00000260: 2069 5abc c07e 79bb 8441 ed3c a8fa 703d
00000270: 0831 6d3c 50f1 02bc 5245 6f3d 1097 a8bb
00000280: 206d b0bb 10be a33b a8d1 a5bc b88f ca3c
00000290: c807 e93c c0c5 d23c ccb8 61bd c2ae 2dbd
000002a0: 606e 3abb b8e5 8fbc 8c29 5bbd 1c1e 6a3d
000002b0: 5af5 003d cc25 50bd 345c 5dbd 40ce 253b
000002c0: ea18 733d 60b9 bfbc 60bc 7e3c dcc1 0bbd
000002d0: 1898 b9bc a691 173d 9037 abbb a81e cc3c
000002e0: 1028 233c e68d 503d 7817 3abc 8caf d2bc
000002f0: 1837 5ebc d0a2 cabc cc57 ddbc 805b b43c
00000300: 8078 fa3c 6079 b03b 28f5 693d 00cf 31bd
00000310: 00b9 713c 98f6 94bc 6010 673c f016 e83b
00000320: 7a95 023d b01e 5e3c 6afb 4a3d 10f5 3fbd
00000330: 0cad 0fbd fab0 2e3d 709f e13c 8082 053b
00000340: 80cd 5c3b 10c6 ca3b d823 67bd c81e b9bc
00000350: 4808 5c3d fc57 f8bc f856 23bc 56bf 25bd
00000360: d48e 8a3c 4007 213c 72f1 543d 0c38 a33c
00000370: 640e 903c ee22 31bd 14b8 b33c a072 c4bc
00000380: def6 56bd c421 f9bc 86db 673d 2ca4 993c
00000390: 04c2 3f3d 5c14 4f3d ee4a 09bd 78bf 13bc
000003a0: d81d 5d3d ec72 9f3c 549e 5fbd 0070 58bd
000003b0: a0bb b2bc ac36 f3bc 3811 e4bc c0ee 3b3c
000003c0: 3e4f 003d 6045 debc d0d7 2abd 1c31 aa3c
000003d0: 045f 8ebc 8283 173d 24b8 9abc cc4b 8fbc
000003e0: 007e eab9 4c8b c6bc 1093 24bc 16c0 45bd
000003f0: c0fb 353b 0864 d0bc 8031 10bc dc68 173d

conv2.weight f4 [64, 64, 1, 1]
0.095851734 0.11393544 -0.059759587 -0.005291879 -0.0889187 -0.045380652 -0.032565206 -0.09483273
0.08756919 0.044018194 -0.07666114 0.11653279 0.034524336 -0.09030396 -0.091137305 -0.06565434
-0.019597143 -0.042229444 -0.05665922 -0.03317593 0.07753877 0.11330131 0.11666775 -0.018637046
-0.10447574 0.021752775 0.06562626 -0.07603516 0.0050685853 -0.0056161135 0.109671384 -0.11770603
0.10596679 0.006581679 -0.09393872 0.09417082 -0.081998035 -0.09269908 -0.107186735 0.10546014
-0.07922383 -0.01902908 0.0929503 0.0015106648 -0.06616515 -0.10373497 -0.02043061 -0.11241144
0.114831805 -0.026357502 -0.04667069 -0.025685266 0.08865371 0.029455498 0.091404065 -0.05135946
-0.032917514 -0.11820726 0.09810254 0.040581077 -0.12221511 0.039160028 -0.0034895837 0.0933778
0.027241379 0.059365973 0.031107202 -0.038631275 -0.10900846 0.041809738 0.05118464 0.007827222
0.07333091 -0.11145128 0.103461295 0.0027561635 0.11154139 0.060998246 0.099165484 0.07038762
-0.0998458 -0.018916339 0.054332674 -0.007169053 0.11682117 -0.068390235 0.02984199 -0.078967914
-0.016036227 0.10114089 -0.06793295 -0.04092984 -0.0801502 -0.082187444 -0.087512776 0.107641414
0.0886555 -0.002728954 0.080075204 0.10500868 -0.07945669 0.08961469 -0.11628115 0.038521588
-0.085548714 0.06537028 -0.085795015 -0.094786316 -0.08990002 0.12430009 -0.07110809 -0.005743444
-0.008036017 -0.08419451 -0.07815522 0.036406234 0.1216435 -0.020862326 -0.015227079 0.12209304
0.006733477 -0.044274345 0.07796921 -0.07889511 -0.0837505 -0.05242665 0.059987575 0.06945251
-0.06610635 0.019143611 0.015609428 -0.11580202 0.076519325 -0.02477388 0.0852046 -0.03640069
-0.093372 -0.08698943 -0.07301521 -0.10023311 0.11467427 0.08147347 0.085485026 -0.117407724
-0.09348889 -0.057726353 0.08662747 0.04656081 -0.06235899 -0.103762165 -0.094310686 0.057614
-0.04454565 -0.10899323 0.112949595 0.031889394 -0.0923323 -0.002022937 0.026570186 0.032052517
0.08180761 0.0541379 0.04730603 -0.065727666 -0.081480876 -0.06923436 -0.07747151 9.87947e-05
0.0897319 -0.03141707 -0.09364803 -0.037757054 -0.07955541 0.05688493 -0.015129566 0.020960867
-0.08603588 0.044599995 0.04165779 -0.022626951 -0.0039652884 -0.10082963 0.023623869 0.0051138997
-0.094425425 0.057859704 0.068506 -0.0021466315 -0.121561244 -0.08616787 -0.01774989 -0.06394121
-0.056058526 0.0949135 -0.08176319 -0.004115507 -0.057538897 -0.07242419 -0.0069377124 -0.09059599
0.052219227 -0.009933457 0.016789258 0.06193596 0.06455743 0.0322015 0.10109192 0.059934303
0.11048207 -0.052777097 -0.0051491857 -0.0015627146 -0.036014408 -0.07763535 -0.10687585 0.09556973
-0.07561579 -0.05506535 -0.072546914 0.1124417 0.0715815 0.0434293 -0.047269523 0.071071744
0.05772464 0.05163765 -0.061260983 -0.06494336 0.07506375 -0.09633757 -0.027763829 0.03671539
-0.028991506 -0.033105075 0.016479492 -0.085131004 0.09946905 0.06883299 0.12024234 -0.083561614
0.070387125 0.0068034977 0.020502344 -0.07843603 0.011602581 -0.08193652 -0.11024772 0.1246185
-0.009963393 0.036309645 0.09334381 0.101897344 -0.054393664 0.07959439 -0.011268362 -0.10037589
00000000: ea4d c43d fc56 e93d 78c6 74bd 8067 adbb
00000010: 021b b6bd 10e1 39bd 1863 05bd aa37 c2bd
00000020: 7a57 b33d 6c4c 343d 8400 9dbd bea8 ee3d
00000030: 6469 0d3d 48f1 b8bd 32a6 babd c875 86bd
00000040: 308a a0bc c8f8 2cbd 8013 68bd 7ce3 07bd
00000050: a6cc 9e3d 840a e83d 80ef ee3d b8ac 98bc
00000060: 60f7 d5bd e032 b23c 1067 863d 52b8 9bbd
00000070: 6016 a63b 6007 b8bb 649b e03d dc0f f1bd
00000080: 1e05 d93d 20ab d73b f262 c0bd a2dc c03d
00000090: 96ee a7bd 04d9 bdbd b884 dbbd 7cfb d73d
000000a0: 1a40 a2bd e0e2 9bbc ba5c be3d 8001 c63a
000000b0: 9881 87bd 0073 d4bd 185e a7bc f837 e6bd
000000c0: f02c eb3d b0eb d7bc c429 3fbd e869 d2bc
000000d0: 1490 b53d a84c f13c 0e32 bb3d 4c5e 52bd
000000e0: 84d4 06bd a616 f2bd fce9 c83d 5838 263d
000000f0: ea4b fabd 4466 203d 80b1 64bb dc3c bf3d
00000100: 5029 df3c bc29 733d 88d4 fe3c d43b 1ebd
00000110: d43f dfbd b040 2b3d fca6 513d c03d 003c
00000120: 842e 963d 9240 e4bd 84e3 d33d c0a0 343b
00000130: d06f e43d 4cd9 793d 4617 cb3d 6227 903d
00000140: f47b ccbd 70f6 9abc f08b 5e3d 60ea eabb
00000150: f03f ef3d 2e10 8cbd 3077 f43c eeb9 a1bd
00000160: 685e 83bc f422 cf3d 6e20 8bbd 0ca6 27bd
00000170: ca25 a4bd e451 a8bd e639 b3bd 1a73 dc3d
00000180: 0491 b53d 40d8 32bb 78fe a33d ca0e d73d
00000190: 30ba a2bd e887 b73d d024 eebd d0c8 1d3d
000001a0: 2a34 afbd dae0 853d 4cb5 afbd 541f c2bd
000001b0: 801d b8bd 0c91 fe3d 1ea1 91bd 8033 bcbb
000001c0: 80a9 03bc 2c6e acbd d80f a0bd b41e 153d
000001d0: 3a20 f93d 78e7 aabc 007b 79bc ea0b fa3d
000001e0: 80a4 dc3b 0459 35bd 52ae 9f3d c293 a1bd
000001f0: 6285 abbd 54bd 56bd 88b5 753d 1e3d 8e3d
00000200: c462 87bd 10d3 9c3c b0be 7f3c 9c29 edbd
00000210: 2ab6 9c3d 98f2 cabc c07f ae3d e418 15bd
00000220: d239 bfbd 8427 b2bd 0089 95bd 0447 cdbd
00000230: 58da ea3d 90db a63d c612 af3d 7673 f0bd
00000240: 1a77 bfbd 7872 6cbd be69 b13d 8cb6 3e3d
00000250: 246c 7fbd 4281 d4bd f625 c1bd a8fc 6b3d
00000260: 8075 36bd d837 dfbd 1e52 e73d 749e 023d
00000270: b818 bdbd 4093 04bb b8a9 d93c 8049 033d
00000280: c08a a73d b4bf 5d3d f8c3 413d 3a9c 86bd
00000290: 72df a6bd beca 8dbd 62a9 9ebd 0030 cf38
000002a0: 5cc5 b73d 30af 00bd 8aca bfbd 24a7 1abd
000002b0: f2ed a2bd 2c00 693d 00e2 77bc 20b6 ab3c
000002c0: 9433 b0bd 7cae 363d 5ca1 2a3d 285c b9bc
000002d0: 40ef 81bb c47f cebd d886 c13c 8092 a73b
000002e0: 1e62 c1bd 4cfe 6c3d e04c 8c3d 80ae 0cbb
000002f0: 1af5 f8bd c878 b0bd 3868 91bc 9cf3 82bd
00000300: a09d 65bd 0262 c23d 7673 a7bd 60db 86bb
00000310: e8ad 6bbd 2253 94bd c055 e3bb 648a b9bd
00000320: d4e3 553d f0bf 22bc a089 893c 90b0 7d3d
00000330: b036 843d b8e5 033d 4809 cf3d ac7d 753d
00000340: 6c44 e23d cc2c 58bd 80ba a8bb 00d4 ccba
00000350: d883 13bd 48ff 9ebd bae1 dabd 10ba c33d
00000360: 74dc 9abd 348c 61bd 7a93 94bd d647 e63d
00000370: 5299 923d ece2 313d b09d 41bd 108e 913d
00000380: ac70 6c3d 0082 533d ccec 7abd 0601 85bd
00000390: 06bb 993d a24c c5bd f870 e3bc e062 163d
000003a0: 987f edbc 3099 07bd 0000 873c 2a59 aebd
000003b0: 6eb6 cb3d 50f8 8c3d 9e41 f63d 5a22 abbd
000003c0: 2027 903d e0ef de3b 88f4 a73c 12a3 a0bd
000003d0: c018 3e3c 56ce a7bd 8ec9 e1bd fc37 ff3d
000003e0: 803d 23bc 6cb9 143d 0a2b bf3d 8eaf d03d
000003f0: e4cb 5ebd 6202 a33d f09e 38bc e091 cdbd

conv3.weight f4 [64, 64, 1, 1]
-0.04955767 0.04289159 -0.03757499 0.042210475 -0.05460204 -0.07708512 -0.028310537 -0.041066602
-0.038769826 0.080388606 0.075286776 0.030458823 0.04695961 -0.032694057 -0.0038451701 0.08466458
0.09530096 -0.010788545 -0.008238763 -0.119184956 -0.107102394 0.07475065 -0.025909245 0.026962414
0.06514466 -0.069549695 -0.11546151 -0.10502368 -0.112638935 -0.001717627 -0.001545012 0.011276931
0.09719801 0.11040178 -0.04446569 0.11471155 -0.1065913 -0.0903351 -0.03166601 0.0067230016
0.05632709 -0.036715567 -0.0703654 0.05622278 0.076173574 -0.042802155 -0.00043326616 0.10163194
-0.018917516 0.102801114 -0.009658337 -0.075483695 -0.11072454 0.0964175 0.09104541 0.04084541
-0.021943063 0.075060084 -0.055789277 0.03206785 0.007522255 0.084475085 0.07613161 0.0160653
-0.076385364 -0.06618714 0.06671065 -0.08893049 -0.124682754 0.05457002 0.103808 0.10090026
0.0030421466 -0.059785604 0.093354255 0.07027005 -0.071489796 0.09910753 0.03155081 0.12117204
-0.07807474 -0.03249255 -0.02571486 0.07947837 -0.08501592 -0.008167461 0.11169036 -0.10999538
-0.026660591 -0.082347736 0.06267966 -0.04266885 0.101246715 0.041238114 -0.07293515 0.11255507
-0.100077674 -0.10265766 0.017299727 -0.0022107363 -0.03931871 -0.09444909 -0.05625388 0.08383691
-0.059941918 -0.058411792 -0.034955606 -0.013836592 -0.035934195 0.044407338 0.074836165 -0.021576196
0.10608663 -0.0396035 -0.07546477 0.08165768 0.05822797 0.109470114 -0.01122728 0.01065892
0.022943273 0.022824317 0.044105574 -0.05877848 -0.018037125 -0.00093372166 -0.0196089 -0.040072694
0.026064128 -0.024488106 0.056928918 -0.10871896 -0.07050446 0.1137692 0.116738796 0.006748289
-0.058119386 0.098894864 -0.046142176 0.06233485 0.045969367 -0.01888901 0.0081226975 0.12430821
-0.072005644 0.055723205 0.11487092 0.043002248 0.08978242 -0.07930234 0.024958283 0.027851418
0.046909258 0.05599998 0.034977436 0.11364624 0.122121826 0.0013816804 0.09778847 0.07398918
-0.113398686 0.066542715 0.09674154 -0.035320625 0.067797825 -0.042962372 -0.053461686 0.0040240884
0.09099427 0.031912863 0.04263191 -0.117364004 -0.10261884 -0.11126128 -0.0591819 0.050844535
-0.10194397 0.0002284199 0.08064696 -0.02011986 -0.069952935 -0.0781675 -0.1093934 0.08140227
-0.04404019 -0.08834933 0.020250276 0.030513868 -0.07416722 0.0399542 -0.101948515 -0.052592486
-0.046740085 -0.03457591 0.020663515 -0.11910069 0.018666208 0.08467105 -0.0609667 0.06375852
-0.037290573 -0.11454886 0.120547354 -0.100939274 -0.017846942 -0.09106423 -0.016427726 0.016947165
-0.11431599 0.111039504 0.03604421 -0.006747812 -0.024681568 0.089420855 0.07347098 0.121765286
-0.08888222 -0.0522635 -0.08005594 0.09417786 0.0126553625 0.04955317 -0.0018564314 0.025109828
-0.026290193 0.08463007 0.013093501 -0.10372026 -0.009660736 0.06402056 -0.0018969774 -0.042185962
0.060760304 -0.052243873 0.09266923 0.05115086 0.019922212 0.10725388 -0.060526237 0.09229562
0.03264311 0.040059745 -0.04453677 -0.015905753 -0.08738102 0.04811652 -0.08770184 0.09332876
-0.055804074 0.09508072 -0.0097052455 0.056346208 0.005374849 -0.00390999 0.03542033 0.017940491
00000000: fcfc 4abd 18af 2f3d 3ce8 19bd e4e4 2c3d
00000010: 64a6 5fbd cede 9dbd 80eb e7bc 7435 28bd
00000020: 1ccd 1ebd c8a2 a43d f42f 9a3d c884 f93c
00000030: b858 403d 34ea 05bd 40ff 7bbb a064 ad3d
00000040: 262d c33d 70c2 30bc e0fb 06bc 3e17 f4bd
00000050: 8058 dbbd de16 993d a03f d4bc 48e0 dc3c
00000060: 906a 853d 1270 8ebd 1677 ecbd a816 d7bd
00000070: 3eaf e6bd 0022 e1ba 0082 caba e0c2 383c
00000080: c00f c73d 541a e23d a821 36bd e4ed ea3d
00000090: 8a4c dabd 9c01 b9bd 38b4 01bd a04c dc3b
000000a0: 3cb7 663d 1063 16bd bc1b 90bd dc49 663d
000000b0: e400 9c3d 5051 2fbd 0028 e3b9 6824 d03d
000000c0: e8f8 9abc 6489 d23d 003e 1ebc 3297 9abd
000000d0: 8cc3 e2bd 8a76 c53d 0476 ba3d 844d 273d
000000e0: f0c1 b3bc 1ab9 993d 4c83 64bd 9459 033d
000000f0: 407d f63b 4601 ad3d e4ea 9b3d 609b 833c
00000100: ee6f 9cbd 208d 87bd 989f 883d 3021 b6bd
00000110: ac59 ffbd d084 5f3d 4a99 d43d cca4 ce3d
00000120: c05e 473b c0e1 74bd 8430 bf3d bee9 8f3d
00000130: 3e69 92bd e4f8 ca3d 6c3b 013d 0c29 f83d
00000140: a6e5 9fbd e816 05bd f8a7 d2bc 8ec5 a23d
00000150: d41c aebd d0d0 05bc eabd e43d 4245 e1bd
00000160: 5067 dabc eea5 a8bd 325e 803d 88c5 2ebd
00000170: 705a cf3d 4ce9 283d 065f 95bd 4683 e63d
00000180: 86f5 ccbd 2e3e d2bd 28b8 8d3c 00e2 10bb
00000190: a80c 21bd 866e c1bd 786a 66bd b0b2 ab3d
000001a0: a885 75bd 3441 6fbd 9c2d 0fbd e0b2 62bc
000001b0: bc2f 13bd 78e4 353d b443 993d 90c0 b0bc
000001c0: f243 d93d 4837 22bd 468d 9abd 243c a73d
000001d0: 7480 6e3d de31 e03d a0f2 37bc c0a2 2e3c
000001e0: 88f3 bb3c 10fa ba3c 0ca8 343d b4c1 70bd
000001f0: 98c2 93bc 00c5 74ba d8a2 a0bc 4423 24bd
00000200: 7084 d53c 489b c8bc 4c2e 693d 0ca8 debd
00000210: a464 90bd d4ff e83d c014 ef3d c020 dd3b
00000220: 980e 6ebd 6489 ca3d 94ff 3cbd d452 7f3d
00000230: 604a 3c3d 20bd 9abc 1015 053c 4e95 fe3d
00000240: b277 93bd 043e 643d 7241 eb3d 2023 303d
00000250: d8df b73d 4469 a2bd 5075 cc3c a828 e43c
00000260: ec23 403d 3c60 653d 8044 0f3d 5cbf e83d
00000270: 021b fa3d 8019 b53a 5245 c83d a487 973d
00000280: 923d e8bd 8c47 883d 6e20 c63d 5cac 10bd
00000290: 96d9 8a3d 50f9 2fbd a4fa 5abd 80dc 833b
000002a0: 345b ba3d 10b7 023d cc9e 2e3d 8a5c f0bd
000002b0: d429 d2bd f4dc e3bd b868 72bd 5c42 503d
000002c0: 00c8 d0bd 0084 6f39 3c2a a53d 68d2 a4bc
000002d0: 7c43 8fbd 4816 a0bd a609 e0bd 3cb6 a63d
000002e0: 7c63 34bd 7ef0 b4bd e8e3 a53c 38f8 f93c
000002f0: fce4 97bd 04a7 233d 62ca d0bd 386b 57bd
00000300: 8872 3fbd 789f 0dbd 8846 a93c 10eb f3bd
00000310: e0e9 983c 0468 ad3d 38b8 79bd d493 823d
00000320: 00be 18bd 9898 eabd 88e1 f63d 40b9 cebd
00000330: c033 92bc e27f babd 7093 86bc c8d4 8a3c
00000340: 801e eabd ae68 e33d 18a3 133d c01c ddbb
00000350: 0031 cabc 4822 b73d f477 963d 1460 f93d
00000360: e207 b6bd 4012 56bd 5ef4 a3bd 52e0 c03d
00000370: 7058 4f3c 44f8 4a3d 8053 f3ba 20b3 cd3c
00000380: 885e d7bc 8852 ad3d 2086 563c 4a6b d4bd
00000390: 1048 1ebc 361d 833d 00a4 f8ba 30cb 2cbd
000003a0: ccdf 783d acfd 55bd 5ec9 bd3d 9083 513d
000003b0: e833 a33c eca7 db3d 5cea 77bd 7c05 bd3d
000003c0: c8b4 053d b015 243d 306c 36bd c84c 82bc
000003d0: d2f4 b2bd d415 453d 069d b3bd 2623 bf3d
000003e0: d092 64bd aeb9 c23d c002 1fbc 48cb 663d
000003f0: 801f b03b 601f 80bb e814 113d f0f7 923c
