unit_tests_workloads/conv1_1x1_workload.onnx (onnx, 65822 bytes, 1 tensors)

conv1.weight f4 [64, 256, 1, 1]
0	0x3d4b4de0	0.049634814
1	0xbb37bb40	-0.0028035194
2	0x3d3de5c6	0.046361707
3	0xbce2e038	-0.027694806
4	0x3d3958a2	0.045250542
5	0x3d40bdb2	0.047055908
6	0x3d0b8cf2	0.034069963
7	0xbd04bbd8	-0.032405704
8	0x3c9f7e0c	0.019469284
9	0xbd7f49e6	-0.062326334
10	0x3d6f2d8e	0.058393054
11	0xbc90e494	-0.01768712
12	0xbd4d662e	-0.050146274
13	0xbd4c425a	-0.049867965
14	0xbd6ed596	-0.05830916
15	0xbd74cb98	-0.059764475
16	0x3d4fbb30	0.050715625
17	0x3d29d448	0.041462213
18	0x3d3c44d0	0.045964062
19	0x3d7d0574	0.06177278
20	0x3a02a400	0.00049835443
21	0x3d4cdb54	0.050013855
22	0xbd4536ac	-0.048147842
23	0xbd480860	-0.048836112
24	0xbd25a848	-0.04044369
25	0x3d162a7c	0.03666161
26	0x3cc83f08	0.024444118
27	0x3d6d08d8	0.057869762
28	0x3d3ec544	0.046574846
29	0xbaab4600	-0.0013067126
30	0x3bf3e460	0.007442996
31	0x3d50f062	0.051010497
32	0x3cf7612c	0.030197702
33	0xbd430b3e	-0.047618143
34	0xbbebb020	-0.0071926266
35	0x3c9cf1c0	0.019158244
36	0xbc9a1604	-0.018809326
37	0xbd3f001a	-0.046630956
38	0x3d363870	0.044487417
39	0xbd1a2bce	-0.03763943
40	0x3cce5820	0.025188506
41	0xbd7e2608	-0.06204799
42	0x3cfad17c	0.030617468
43	0x3d26ecf6	0.040753327
44	0x3d657a44	0.056024805
45	0x3c750e48	0.014957018
46	0x3d55b698	0.052176088
47	0xbd0f9b30	-0.035060108
48	0x3d37a126	0.044831418
49	0x3c6d8468	0.0144969
50	0xbd7661e6	-0.060151957
51	0xbcb48ac0	-0.022038817
52	0xbd18e69a	-0.037329294
53	0xbcfbb71c	-0.030726962
54	0xbd006b32	-0.03135223
55	0x3bf38980	0.0074321628
56	0x3d4e6f34	0.05039902
57	0xbd1eea42	-0.038797624
58	0x3d7d98d4	0.061913326
59	0x39a5b400	0.00031605363
60	0xbca14cc8	-0.019689932
61	0xbd4531f8	-0.048143357
62	0xbb344ba0	-0.0027510896
63	0xbb659900	-0.0035033822
64	0x3d7ef82a	0.062248386
65	0xbc904764	-0.017612167
66	0xbd7926c2	-0.060827978
67	0xbd7b0550	-0.061284363
68	0xbd0183ae	-0.03161972
69	0x3d4e17cc	0.050315663
70	0x3cce90d0	0.025215536
71	0x3d321330	0.04347533
72	0xbadb3380	-0.0016723722
73	0x3cdb2ef8	0.026755795
74	0x3bb69c70	0.005572848
75	0xbc10eed0	-0.008846
76	0xbd046550	-0.03232318
77	0x3b3f1ec0	0.0029162616
78	0x3d298448	0.04138592
79	0x3c0578f8	0.008146517
80	0xbd7dd704	-0.061972633
81	0x3d5186e2	0.051154025
82	0xbcba93b4	-0.022775508
83	0xbc6e4080	-0.014541745
84	0xbc73caf0	-0.014879927
85	0xbd2cd454	-0.04219468
86	0x3d129216	0.03578385
87	0xbd3520e2	-0.044220813
88	0xbcbe26c0	-0.023211837
89	0xbbb2a240	-0.0054514706
90	0x3d13f696	0.036123835
91	0xbc420b28	-0.01184348
92	0x3d5b24f6	0.053502046
93	0xbd38f776	-0.045157872
94	0xbbd375f0	-0.006453268
95	0xbca545ac	-0.020174824
96	0xbd67645e	-0.056492202
97	0x3ca47f78	0.020080313
98	0x3d639d86	0.055570148
99	0x3d161954	0.03664525
100	0x3d3f60ac	0.046723053
101	0x3d16c260	0.036806464
102	0x3d3b130e	0.04567247
103	0xbd561cb4	-0.052273467
104	0x3d49446a	0.04913751
105	0x3d39d852	0.045372315
106	0x3d51814a	0.05114869
107	0x3d51ce10	0.051221907
108	0x3c825e7c	0.015914194
109	0x3d40002c	0.046875164
110	0x3c96834c	0.018373154
111	0xbd30754e	-0.04308062
112	0xbd594282	-0.053041942
113	0x3d609af2	0.054835267
114	0x3c0aa280	0.008461595
115	0xbcd6539c	-0.026162915
116	0x3bec8b70	0.0072187707
117	0xbc5117e0	-0.01276204
118	0xbbc3dbf0	-0.0059771463
119	0xb94bce00	-0.0001943633
120	0xbcc03cfc	-0.02346658
121	0x3d71c71c	0.059027776
122	0xbd6ae7de	-0.057350032
123	0xbd2cdd82	-0.042203434
124	0x3d7459e2	0.05965603
125	0xbd28b7ac	-0.04119079
126	0xbccb45c8	-0.024813548
127	0x3d119844	0.035545602
128	0xbbe7f8d0	-0.0070792213
129	0x3c797e60	0.015227884
130	0xbc525510	-0.012837663
131	0xbb0cbfe0	-0.002147667
132	0x3d3a1b3a	0.04543612
133	0x3b92eaa0	0.004483536
134	0xbd22f596	-0.03978499
135	0xbc9325e0	-0.017962396
136	0xba890580	-0.001045391
137	0xbbe66b20	-0.0070318133
138	0x3bd3cae0	0.0064633936
139	0x3d59e1da	0.053193904
140	0xbd32447a	-0.043522336
141	0x3c156788	0.009118922
142	0x3d0524fe	0.03250598
143	0xbc83120c	-0.015999816
144	0x3d25a9b8	0.04044506
145	0xbd31e462	-0.043430693
146	0xbc506008	-0.012718208
147	0xbd77a7b2	-0.06046266
148	0x3ac2cfc0	0.001486294
149	0x3d7a1c04	0.061061874
150	0x3cffc3bc	0.031221263
151	0xbd58f9d2	-0.052972622
152	0xba6e3b00	-0.0009087771
153	0x3c76e2f8	0.015068762
154	0xbb966540	-0.0045897067
155	0x3d451762	0.048118003
156	0xbd55991a	-0.052147962
157	0x3d4e7386	0.05040314
158	0x3cbd5954	0.023113884
159	0x3d33d104	0.043900505
160	0xbc855ee8	-0.016280606
161	0x3c6cb770	0.014448032
162	0xbb9e8040	-0.004837066
163	0x3d3c9e96	0.046049677
164	0x3c1626d8	0.0091645345
165	0x3d7a7a64	0.061151877
166	0xbd15fc9a	-0.036617853
167	0x3d353ccc	0.044247434
168	0x3be5a6e0	0.0070084184
169	0xbd5cc0f8	-0.053894967
170	0xbb49fdc0	-0.0030821413
171	0x3d19adb2	0.037519164
172	0x3cf2710c	0.02959492
173	0x3c9245b0	0.017855495
174	0x3ce46df8	0.027884468
175	0xbd422f9c	-0.047408685
176	0x3be59c10	0.0070071295
177	0x3d59f126	0.053208493
178	0xbd78aaf0	-0.060709894
179	0xbbcae210	-0.0061914995
180	0x3d457ec8	0.04821661
181	0x3ce624c0	0.028093696
182	0xbd00a08c	-0.03140311
183	0x3d0c6f48	0.034285814
184	0xbcca32c0	-0.024682403
185	0x3cb2f174	0.02184365
186	0xbd1e178e	-0.038596682
187	0x3d4d33fa	0.050098397
188	0xbce9de8c	-0.028548501
189	0xbc03dc60	-0.008048147
190	0x3d692ff6	0.056930505
191	0xbd76d540	-0.060261965
192	0xbb93f950	-0.0045158044
193	0x3cb425f8	0.021990761
194	0xbd78ac84	-0.0607114
195	0xbd08a55e	-0.03336083
196	0x3cfe1384	0.031015165
197	0xbd46087a	-0.048347928
198	0xbc36c258	-0.011154734
199	0x3d4e16f8	0.050314873
200	0xbd4de55a	-0.050267555
201	0xbd57c782	-0.0526805
202	0x3d2ad312	0.0417052
203	0xbc316ea0	-0.010829598
204	0xbd423838	-0.047416896
205	0xbcede868	-0.029041484
206	0x3d697716	0.056998335
207	0x3c209b80	0.009802699
208	0x3d7c1e1e	0.06155216
209	0x3d6aa4f8	0.057286233
210	0xbd52dc86	-0.05147984
211	0xbbf21f60	-0.007388994
212	0xbc011970	-0.0078796
213	0x3b9209d0	0.004456736
214	0x3af13ec0	0.0018405542
215	0xbd303284	-0.043016925
216	0xbc937d04	-0.018003948
217	0xbba74bc0	-0.0051054657
218	0x3cc9cf3c	0.02463495
219	0xbcfe3318	-0.031030223
220	0xbcbd7f28	-0.023131922
221	0x3c4b9ee0	0.0124280155
222	0x3d72994e	0.059228234
223	0x3d590640	0.052984476
224	0x3d0e6888	0.034767658
225	0x3c013c10	0.007887855
226	0x3aad4180	0.0013218373
227	0x3a4a0b80	0.0007707402
228	0xbd78604e	-0.06063872
229	0xbd3e4fbc	-0.04646276
230	0x3cd5e938	0.026112184
231	0x3d3cf764	0.046134368
232	0x3d3e5e54	0.046476677
233	0xbc438230	-0.011932895
234	0x3d28e536	0.041234218
235	0xbc85297c	-0.016255133
236	0xbd132c40	-0.035930872
237	0xbd773244	-0.06035067
238	0x3c5bf900	0.013426065
239	0x3cccfa18	0.025021598
240	0xbd7fb134	-0.062424853
241	0xbaef29c0	-0.0018246695
242	0x3c02fcd8	0.007994853
243	0xbd2135e6	-0.039358042
244	0xbd786ffe	-0.06065368
245	0x3d671b6e	0.056422643
246	0x3ce919c4	0.028454669
247	0xbbac7ca0	-0.00526388
248	0xbd3cace6	-0.046063326
249	0xbc9764e0	-0.018480718
250	0xbca7c280	-0.020478487
251	0xbd3e6594	-0.04648359
252	0x3c2157d8	0.009847604
253	0x3cc79c74	0.024366595
254	0xbd2a55ee	-0.041585855
255	0xbd10389e	-0.035210244
