unit_tests_workloads/conv3_1x1_C_256_K_64-3x3_C_64_K_64-3x3_C_64_K_64_workload.onnx (onnx, 361246 bytes, 3 tensors)

conv1.weight f4 [64, 256, 1, 1]
0.013962172 0.049634807 0.020277008 0.046727516 0.02710174 -0.016904935 0.0033914074 -0.031253435
-0.056238562 -0.044278577 0.044981457 0.042668343 0.050671116 0.03898626 -0.008165725 -0.0022745356
0.039381906 0.027741171 0.03978301 0.0209921 0.027929053 -0.004473038 -0.028331421 0.048657842
0.053305313 0.040867984 -0.026622988 -0.0204219 0.052424453 0.017672874 -0.061207257 0.052080512
0.0142309815 -0.036827683 -0.023345627 -0.043940783 -0.053524084 -0.020647049 0.06052912 -0.004458599
0.0061395466 0.04844731 0.0486596 0.012870401 -9.905547e-05 0.052509293 -0.0041452944 0.045672007
-0.04275822 -0.020522349 0.002206996 -0.005440578 -0.05397115 0.019237094 -0.051356703 0.014562428
-0.020149902 0.021226428 -0.061804168 0.017428234 0.027367584 0.033889808 -0.017838858 0.038664125
0.041081004 0.006961897 0.024004258 0.022189312 -0.021384522 -0.047939144 -0.000411205 -0.016632408
0.030442499 -0.052867778 0.03339444 -0.005684808 0.0378638 0.039928854 0.046148136 0.019092873
-0.062480524 0.03617473 0.048569746 0.03308264 0.034272462 0.000639379 0.060697675 -0.035125725
0.038681783 -0.048046403 0.060793214 0.061091565 -0.02768585 -0.047402255 0.00011020154 -0.01297538
-0.0449996 -0.011294819 -0.03432153 0.01071576 -0.05053126 -0.04368908 -0.04835941 0.0055707917
0.06243673 0.053099766 -0.04428892 -0.018134966 0.034328856 -0.056113273 -0.05611583 0.01989124
0.050986364 -0.046959914 -0.030270569 0.040554464 -0.050974637 0.01584784 0.061810985 -0.022037745
-0.044687025 -0.047847375 0.027908467 0.021513432 0.06098549 -0.026404716 -0.0144752115 -0.05353015
-0.035751253 0.04899198 -0.057088517 0.0039676055 0.046085693 0.008062206 -0.051245384 -0.032081336
-0.010064714 -0.02024167 -0.019866556 -2.8245151e-05 -0.020850524 -0.05074925 -0.015773423 0.0049999803
0.052521974 0.04808025 0.02334895 -0.006144017 0.01909504 -0.046161987 -0.039842434 -0.009834856
-0.05068975 0.012208745 -0.01111953 0.021841615 -0.040654577 0.031086408 -0.0320417 0.03094291
0.013182431 -0.002600342 0.04426445 0.033981442 0.02346266 0.0029800013 -0.05273906 0.028619133
-0.0035044327 -0.010457605 0.04899043 0.0030418485 -0.007901058 -0.048133783 -0.006419733 0.059656978
-0.020916216 -0.032340728 0.020357557 -0.010852672 -0.014360115 0.0051615164 -0.053421713 -0.032102242
-0.01051604 0.029634438 0.019426912 -0.017106704 0.0053989664 0.061326645 0.043243393 -0.031357095
-0.04554089 0.020446219 0.03858369 -0.00085360557 0.032149434 0.055783935 0.043519706 -0.03615129
-0.041872405 -0.02003377 -0.029742189 0.04948721 -0.0027257204 -0.059945792 -0.005104184 0.010475203
0.04764297 -0.0086615905 0.061205953 -0.030195296 0.05803152 0.03590425 -0.045246564 0.026292622
0.038827814 0.055414684 -0.03203875 0.0483948 0.03218612 0.0041427165 -0.022658601 0.0027927458
0.05489198 0.01281441 0.030451491 0.006767109 0.01446633 0.022599831 -0.045124836 0.055779614
-0.037807435 0.02904927 0.045740686 -0.038196184 -0.027075171 -0.04823546 0.040820785 0.041335978
-0.05361484 -0.056720816 0.012556098 0.0060642883 0.057394445 0.048418067 0.019317344 0.050000004
0.025210015 0.055340417 -0.062194042 -0.012102269 0.054704852 0.037621275 -0.060751893 -0.027235188
00000000: 98c1 643c de4d 4b3d f81b a63c 5a65 3f3d
00000010: 7804 de3c 387c 8abc 6042 5e3b 9a03 00bd
00000020: 685a 66bd 745d 35bd 7a3e 383d 00c5 2e3d
00000030: 848c 4f3d 0eb0 1f3d 88c9 05bc 6010 15bb
00000040: ec4e 213d 7441 e33c 82f3 223d a0f7 ab3c
00000050: 78cb e43c 9092 92bb 4c17 e8bc 724d 473d
00000060: ac56 5a3d 3065 273d 7418 dabc d44b a7bc
00000070: 06bb 563d b4c6 903c 76b4 7abd 6052 553d
00000080: 1029 693c a0d8 16bd 543f bfbc 40fb 33bd
00000090: 123c 5bbd 0024 a9bc 62ed 773d 7019 92bb
000000a0: 402e c93b b070 463d 4a4f 473d 60de 523c
000000b0: 00bc cfb8 fc13 573d 40d5 87bb 9212 3b3d
000000c0: 3e23 2fbd 7c1e a8bc 40a3 103b e046 b2bb
000000d0: da10 5dbd 1c97 9d3c 685b 52bd 4097 6e3c
000000e0: 6811 a5bc 0ce3 ad3c 5e26 7dbd a8c5 8e3c
000000f0: fc31 e03c 0ad0 0a3d cc22 92bc 465e 1e3d
00000100: 8e44 283d a020 e43b 94a4 c43c 5cc6 b53c
00000110: 982e afbc d65b 44bd 0097 d7b9 b040 88bc
00000120: 8c62 f93c e28b 58bd 9cc8 083d a047 babb
00000130: 1217 1b3d 708c 233d d405 3d3d a868 9c3c
00000140: 94eb 7fbd f42b 143d 12f1 463d aa81 073d
00000150: 4861 0c3d 009c 273a 209e 783d fedf 0fbd
00000160: ca70 1e3d 4ecc 44bd 4e02 793d 263b 7a3d
00000170: 70cd e2bc de28 42bd 001c e738 b096 54bc
00000180: 8051 38bd e80d 39bc bc94 0cbd 2891 2f3c
00000190: def9 4ebd 52f3 32bd 8414 46bd 308b b63b
000001a0: a8bd 7f3d 247f 593d 4c68 35bd c88f 94bc
000001b0: 6a9c 0c3d 08d7 65bd b6d9 65bd f4f2 a23c
000001c0: 14d7 503d 0a59 40bd fcf9 f7bc 701c 263d
000001d0: c8ca 50bd 54d3 813c 842d 7d3d 8088 b4bc
000001e0: be09 37bd 9cfb 43bd 4ca0 e43c f03c b03c
000001f0: eccb 793d b44e d8bc 7029 6dbc 6e42 5bbd
00000200: e86f 12bd d0ab 483d a6d5 69bd b002 823b
00000210: 5ac4 3c3d 5817 043c aee6 51bd b867 03bd
00000220: 78e6 24bc dcd1 a5bc 30bf a2bc 00f0 ecb7
00000230: b8ce aabc 72de 4fbd 4437 81bc e0d6 a33b
00000240: 4821 573d ccef 443d 4c46 bf3c c053 c9bb
00000250: 346d 9c3c 5a14 3dbd d231 23bd 6022 21bc
00000260: 0ea0 4fbd 3007 483c b02e 36bc 30ed b23c
00000270: 6a85 26bd eca8 fe3c 283e 03bd fc7b fd3c
00000280: 20fb 573c 806a 2abb a44e 353d 2030 0b3d
00000290: c434 c03c 204c 433b ea04 58bd ac72 ea3c
000002a0: a0aa 65bb 6056 2bbc 30aa 483d c059 473b
000002b0: 7073 01bc ee27 45bd a05c d2bb e05a 743d
000002c0: 7c58 abbc b677 04bd e4c4 a63c 68cf 31bc
000002d0: b046 6bbc f021 a93b bad0 5abd a47d 03bd
000002e0: 784b 2cbc ecc3 f23c 3025 9f3c 5c23 8cbc
000002f0: d0e9 b03b a631 7b3d fc1f 313d 4c70 00bd
00000300: 1689 3abd d47e a73c ee09 1e3d 80c4 5fba
00000310: 20af 033d b27d 643d b841 323d 6013 14bd
00000320: 6682 2bbd dc1d a4bc e4a5 f3bc 1ab3 4a3d
00000330: 00a2 32bb b889 75bd 0041 a7bb 30a0 2b3c
00000340: 4625 433d 58e9 0dbc 18b3 7a3d 205c f7bc
00000350: 76b2 6d3d 5610 133d 7654 39bd a063 d73c
00000360: ea09 1f3d 82fa 623d 103b 03bd a039 463d
00000370: 98d5 033d a0bf 873b 889e b9bc 8006 373b
00000380: 6ad6 603d 88f3 513c 6875 f93c a0be dd3b
00000390: 3004 6d3c 4823 b93c d2d4 38bd 2a79 643d
000003a0: f8db 1abd bcf8 ed3c 965a 3b3d 9a73 1cbd
000003b0: c0cc ddbc 8c92 45bd b233 273d ea4f 293d
000003c0: 3c9b 5bbd 1654 68bd 18b8 4d3c f0b6 c63b
000003d0: 7016 6b3d 0652 463d 683f 9e3c cecc 4c3d
000003e0: 3c85 ce3c a2ac 623d 2ebf 7ebd 9848 46bc
000003f0: 3212 603d c418 1a3d fad6 78bd 541c dfbc

conv2.weight f4 [64, 64, 3, 3]
-0.016026875 0.011878948 -0.03770631 -0.016544497 -0.01182951 0.010965481 -0.011817142 0.02061088
-0.019774199 0.027735751 -0.032049462 -0.017904263 -0.040746965 0.021701723 -0.014153361 -0.008212155
-0.020845309 0.022194525 -0.02064006 0.038643144 0.014072041 0.035565935 -0.039297696 -0.03271608
-0.021395594 -0.026702335 0.024728354 0.006310761 -0.004650916 -0.024290845 -0.021649059 -0.0073526404
0.035225585 -0.015748119 -0.017155092 -0.011439244 0.029447233 0.03498758 -0.027511772 -0.008090248
0.028878387 0.029633876 -0.0352045 0.040968727 -0.022124236 -0.015787294 -0.0025746576 -0.041190293
-0.012129327 -0.018195188 -0.022623938 0.0069818697 -0.041300267 -0.02166376 -0.0067516416 0.021768942
-0.038390405 0.03280836 -0.0090628965 0.031628974 -0.04131771 0.03364232 -0.04096123 -0.0125673115
-0.02555962 0.005493338 0.0051284633 -0.029573869 0.0073052696 -0.014407879 -0.013392156 0.033039868
-0.03189717 0.025404235 0.039791103 -0.0072668246 0.0066355467 -0.024584657 0.033598125 -0.0015801837
-0.016333228 0.02904227 -0.038269754 0.0071796626 -0.02553179 0.0379294 -0.01458016 -0.004134044
-0.031849172 -0.00747857 -0.035291515 -0.026461994 -0.011822885 0.03557153 -0.005544489 -0.02207924
0.004652977 0.018311337 -0.016930899 0.024645444 0.035527937 -0.027615618 0.015753021 0.027210018
0.03548938 0.027501032 0.040092863 0.007776355 0.0043639243 -0.022290519 0.017014911 -0.0034644753
-0.024559319 -0.023799405 0.036224633 -0.003228133 0.034927096 0.002148519 0.030063605 0.005486205
0.0186794 -0.027178884 0.0055028303 0.0026778034 -0.035381675 -0.0098596215 0.0069597415 0.008657983
-0.0031525344 -0.012640104 0.025969451 -0.020093735 -0.013518741 -0.013324618 0.034293946 -0.012472138
0.03728464 -0.009270832 -0.03600466 0.03452715 -0.012387827 -0.020041838 -0.00032464167 -0.028815117
-0.037600577 -0.025022035 0.039237197 0.040985405 0.013742234 -0.011790723 -0.014246474 -0.009550929
-0.040667392 -0.0034857146 0.0133479 -0.02538262 -0.007791996 -0.032847937 -0.0014684449 -0.0061607314
-0.013439844 -0.028008204 0.025831496 -0.04148708 -0.02132624 -0.012303218 0.015602848 0.018537745
-0.020385131 0.029586777 0.025106912 0.03993511 -0.013623889 -0.020233994 -0.028246945 -0.036739536
-0.0177488 0.0016535422 -0.023168352 0.04045702 -0.021016499 -0.029402122 -0.03457918 0.036303148
0.03454481 0.040172786 -0.021067023 0.0102280285 0.0011053085 -0.00062306726 -0.03001031 -0.02541332
0.030986276 -0.007998681 0.04144652 0.039160352 -0.02968902 -0.037914008 0.01098223 -0.03969889
-0.013485402 0.041484885 -0.03830833 -0.020883283 0.003238092 0.031331405 -0.029045671 -0.0018660973
-0.029985186 -0.035284963 0.03505729 0.014052014 -0.0134651465 0.028862506 -0.03347417 0.0055249436
-0.033610757 -0.0043511144 -0.024744248 0.017817369 -0.03369195 -0.0005457203 -0.012539024 -0.03443964
0.025525412 -0.00644736 -0.0062679052 0.019445002 0.036128335 -0.013596485 -0.03476549 0.040251255
-0.034726024 -0.0032426964 0.020815914 0.006607145 0.037427764 -0.0004491508 0.039642897 -0.02492283
-0.03757396 -0.034763258 -0.017680313 0.014200832 0.0034122567 0.005776803 -0.035626583 -0.032599583
0.0037382543 0.020662159 -0.004273355 -0.021526938 -0.03826031 0.038658556 0.0070027113 -0.012611574
00000000: cb4a 83bc eb9f 423c ef71 1abd 5388 87bc
00000010: 90d0 41bc 90a8 333c b09c 41bc 26d8 a83c
00000020: 80fd a1bc 1636 e33c 4c46 03bd f6ab 92bc
00000030: 4ae6 26bd d0c7 b13c 80e3 67bc 468c 06bc
00000040: c8c3 aabc 4bd1 b53c 5815 a9bc 4648 1e3d
00000050: 6b8e 663c 96ad 113d 9ff6 20bd 4c01 06bd
00000060: d045 afbc dbbe dabc 1e93 ca3c 80ca ce3b
00000070: b666 98bb 98fd c6bc 5e59 b1bc 6bee f0bb
00000080: b448 103d 3302 81bc d688 8cbc ab6b 3bbc
00000090: 533b f13c 234f 0f3d 5e60 e1bc f68c 04bc
000000a0: 5e92 ec3c bec2 f23c 9832 10bd d3ce 273d
000000b0: e33d b5bc 5b54 81bc 96bb 28bb 27b7 28bd
000000c0: 16ba 46bc 130e 95bc d655 b9bc 2bc8 e43b
000000d0: 782a 29bd 3378 b1bc e03c ddbb c854 b23c
000000e0: 423f 1dbd 0f62 063d 8b7c 14bc 628d 013d
000000f0: c23c 29bd 88cc 093d f6c6 27bd 20e7 4dbc
00000100: 6862 d1bc 7601 b43b ab0c a83b e644 f2bc
00000110: 0b61 ef3b 060f 6cbc c66a 5bbc d054 073d
00000120: 9ba6 02bd 8b1c d03c fffb 223d 8b1e eebb
00000130: 006f d93b c365 c9bc 309e 093d 2b1e cfba
00000140: 43cd 85bc 0eea ed3c bfc0 1cbd 6043 eb3b
00000150: 0b28 d1bc dc5b 1b3d a0e1 6ebc e076 87bb
00000160: 4774 02bd cb0e f5bb d68d 10bd d3c6 d8bc
00000170: c6b4 41bc 74b3 113d 8bae b5bb 86df b4bc
00000180: 0078 983b a801 963c abb2 8abc 3ee5 c93c
00000190: be85 113d 263a e2bc 7b0c 813c 8be7 de3c
000001a0: 505d 113d d849 e13c 6a38 243d cbd0 fe3b
000001b0: 40ff 8e3b 9b9a b6bc db62 8b3c 400c 63bb
000001c0: a030 c9bc f8f6 c2bc 4860 143d 168f 53bb
000001d0: b70f 0f3d 2bce 0c3b f347 f63c a0c5 b33b
000001e0: 8b05 993c 40a6 debc 1651 b43b 167e 2f3b
000001f0: 60ec 10bd 408a 21bc 8b0e e43b 36da 0d3c
00000200: c09a 4ebb 7018 4fbc e3bd d43c 9e9b a4bc
00000210: b67d 5dbc 804f 5abc cf77 0c3d f057 4cbc
00000220: c7b7 183d b0e4 17bc 9f79 13bd 576c 0d3d
00000230: 50f6 4abc c82e a4bc ab34 aab9 ae0d ecbc
00000240: 1003 1abd 03fb ccbc 2fb7 203d 50e0 273d
00000250: 1b27 613c e02d 41bc 0b6a 69bc 807b 1cbc
00000260: da92 26bd 9670 64bb 26b1 5a3c 36ef cfbc
00000270: 0054 ffbb 8f8b 06bd d678 c0ba f6df c9bb
00000280: cb32 5cbc 7671 e5bc 939c d33c 5bee 29bd
00000290: 5eb4 aebc 7093 49bc 16a3 7f3c 78dc 973c
000002a0: b8fe a6bc f85f f23c 03ad cd3c ff92 233d
000002b0: bb36 5fbc c3c1 a5bc 2366 e7bc 327c 16bd
000002c0: ee65 91bc abbb d83a 8ecb bdbc 43b6 253d
000002d0: cb2a acbc b8dc f0bc e6a2 0dbd 9cb2 143d
000002e0: dc7e 0d3d 388c 243d c094 acbc 7693 273c
000002f0: 00e0 903a 5655 23ba 2ed8 f5bc 982f d0bc
00000300: eed6 fd3c e60c 03bc d3c3 293d 9b66 203d
00000310: 6336 f3bc b84b 1bbd d0ee 333c 4e9b 22bd
00000320: e0f1 5cbc 0eec 293d 32e9 1cbd 6b13 abbc
00000330: 2b36 543b 5c55 003d 30f1 edbc d697 f4ba
00000340: 7ea3 f5bc f786 10bd 3c98 0f3d 6b3a 663c
00000350: eb9c 5cbc 1071 ec3c 361c 09bd 960a b53b
00000360: 6fab 09bd cb93 8ebb 73b4 cabc bbf5 913c
00000370: 9200 0abd ab0e 0fba 7b70 4dbc 9410 0dbd
00000380: ab1a d13c 6044 d3bb 0063 cdbb 204b 9f3c
00000390: 4efb 133d cbc3 5ebc 4266 0ebd 80de 243d
000003a0: e03c 0ebd 6b83 54bb 2386 aa3c c080 d83b
000003b0: db4d 193d 007c ebb9 9760 223d f62a ccbc
000003c0: 27e7 19bd eb63 0ebd 4ed6 90bc 9baa 683c
000003d0: 2ba0 5f3b 564b bd3b 2eed 11bd 2487 05bd
000003e0: 80fd 743b b043 a93c 8007 8cbb 4359 b0bc
000003f0: d8b6 1cbd 6f58 1e3d 0077 e53b c6a0 4ebc

conv3.weight f4 [64, 64, 3, 3]
0.018941686 0.0038902909 0.03711191 0.025233429 0.0034607153 0.031642403 0.012780806 0.017932698
0.010714049 -0.024112027 0.03551021 -0.022342553 0.020762604 0.021433756 0.011260982 0.0355508
0.027928647 0.022341218 0.032772154 -0.02511732 0.02011384 -0.0018202912 0.006014516 0.0046073943
0.029070538 0.029114908 -0.0015033981 -0.032288812 0.03879431 -0.02335406 -0.008923869 -0.03878916
0.009588356 0.030518856 -0.039489653 0.017861173 -0.0008300742 0.02842559 -0.0077758036 0.004260858
0.006728451 -0.0020163357 -0.03462496 -0.024200559 -0.03649362 0.041572586 -0.024401512 -0.017564919
-0.034774274 0.040697552 -0.01229839 -0.026278611 0.012924021 0.016770076 -0.028095564 -0.012317265
-0.026953697 -0.037348088 -0.011037737 0.008942857 -0.034697764 0.04034943 -0.034555443 -0.0025213659
-0.024910565 0.01060314 0.024567734 -0.014620801 -0.023758035 -0.008841346 -0.027460918 -0.01869917
0.025775328 0.029186314 -0.013119942 0.0128349215 0.036130987 -0.0067045046 -0.023734054 0.0124043375
0.0030205846 0.028912207 -0.021971624 -0.03717383 -0.0066473684 -0.0017914723 -0.018352266 -0.0014015039
0.014442325 -0.0013456743 0.0063010803 -0.00345546 0.001951625 -0.009316917 0.032632615 -0.035892807
-0.0049007386 -0.011783829 -0.019393599 0.0058642877 -0.026953187 -0.03634701 -0.023678716 -0.03666912
-0.032936197 -0.008069977 0.0032714705 -0.016592845 0.010246744 -0.033511095 0.023220614 0.03435965
-0.040575586 -0.039377242 0.022385746 -0.032448195 -0.006650423 -0.0025952857 -0.03776698 -0.0077972263
0.032299243 -0.033958852 -0.033672445 -0.04007971 0.023284605 -0.03714955 0.01539213 -0.011917408
-0.023888916 0.014763152 -0.03792546 -0.018199733 -0.013344249 0.023410048 0.024917906 0.02164571
-0.012840137 0.04137277 0.033503406 0.036392495 0.0048163785 -0.025154492 0.005023753 0.020988088
-0.035474565 -0.016538084 -0.02479232 -0.008568446 0.0024153541 -0.019920763 0.032702174 -0.030487001
0.035641637 0.03340862 0.0042367233 -0.024223402 0.010066162 -0.021146908 -0.018721353 -0.027089309
-0.0049918643 -0.007412836 -0.009375861 -0.022718167 -0.02083984 0.009890015 -0.0009230624 0.038781848
-0.03373702 0.014850846 -0.0056419275 -0.027761977 0.036428716 -0.027869862 0.032256644 -0.016189035
0.022145992 0.01854541 -0.005096992 -0.02119368 -0.011784117 -0.028253725 0.0054758443 0.022670656
0.022216057 0.0074405624 -0.025935024 -0.033559717 -0.035487257 -0.0044906093 -0.012921497 0.03216387
0.0014362286 -0.018879548 0.003349955 0.02107763 -0.036405295 -0.024977714 -0.01796965 0.0040438725
-0.026508238 -0.036296006 -0.0110939 0.0054198406 0.0334098 -0.0068189255 0.012886822 0.0040231347
0.023783203 -0.032833733 0.035745528 -0.00071452063 -0.032207355 -0.03877154 0.0067346743 0.011722004
0.021918109 0.0038671296 0.016315203 0.03253938 0.0055569164 0.008807585 0.022981858 -0.0152109815
0.024351716 -0.03228061 0.038698982 0.04165518 0.00017110507 0.028436854 0.013288021 0.041610315
0.027238768 -0.03118818 0.018366352 0.01937007 0.03247746 0.026811501 -0.016454011 -0.028240621
-0.008482422 0.0057387254 -0.0059268377 0.015268102 -0.005525043 -0.017858967 0.023287624 -0.015549928
-0.00116162 -0.0052654147 -0.020454582 -0.03954574 0.030675009 -0.0043643713 0.026310697 0.0039551063
00000000: 982b 9b3c 40f4 7e3b a802 183d 56b6 ce3c
00000010: 2bcd 623b 779b 013d 9666 513c 98e7 923c
00000020: fb89 2f3c 9686 c5bc 2773 113d bb07 b7bc
00000030: 5616 aa3c d895 af3c fb7f 383c b79d 113d
00000040: 9eca e43c ee04 b73c 183c 063d d6c2 cdbc
00000050: c8c5 a43c d696 eeba 6b15 c53b a0f9 963b
00000060: 5625 ee3c 6382 ee3c ab0d c5ba 4641 04bd
00000070: c8e6 1e3d 0351 bfbc 6b35 12bc 62e1 1ebd
00000080: 7b18 1d3c ae02 fa3c e7bf 21bd 9851 923c
00000090: 5699 59ba c8dc e83c 2bcc febb ab9e 8b3b
000000a0: 567a dc3b 8024 04bb e7d2 0dbd 4040 c6bc
000000b0: 567a 15bd 0448 2a3d aee5 c7bc 4ee4 8fbc
000000c0: 786f 0ebd 7ab2 263d 307f 49bc 3e46 d7bc
000000d0: 46bf 533c 6661 893c ab28 e6bc 5bce 49bc
000000e0: 00ce dcbc 4ffa 18bd a0d7 34bc 1085 123c
000000f0: 3e1f 0ebd 7245 253d 028a 0dbd 803d 25bb
00000100: 3e11 ccbc cbb8 2d3c 4642 c93c 168c 6fbc
00000110: 36a0 c2bc 4bdb 10bc b8f5 e0bc 002f 99bc
00000120: c826 d33c 2318 ef3c 06f5 56bc 9049 523c
00000130: 16fe 133d 76b1 dbbb eb6d c2bc 903b 4b3c
00000140: 00f5 453b 4bd9 ec3c d6fd b3bc 9643 18bd
00000150: 2bd2 d9bb d6cf eaba 7e57 96bc abb2 b7ba
00000160: 809f 6c3c 5661 b0ba 4b79 ce3b 0075 62bb
00000170: abcd ff3a fba5 18bc c7a9 053d 5604 13bd
00000180: 6096 a0bb f610 41bc 53df 9ebc 3629 c03b
00000190: eecc dcbc 9ae0 14bd def9 c1bc 5c32 16bd
000001a0: 1be8 06bd f037 04bc 2b66 563b b8ed 87bc
000001b0: f6e1 273c ee42 09bd 2839 be3c b4bc 0c3d
000001c0: 9632 26bd 084a 21bd 5062 b73c 66e8 04bd
000001d0: cbeb d9bb ab15 2abb 8cb1 1abd e07f ffbb
000001e0: 364c 043d 7018 0bbd 1eec 09bd 9f2a 24bd
000001f0: 5bbf be3c 202a 18bd 462f 7c3c 3b41 43bc
00000200: b0b2 c3bc 26e1 713c ba57 1bbd 9b17 95bc
00000210: d6a1 5abc 6ec6 bf3c a320 cc3c 5852 b13c
00000220: 705f 52bc 7e76 293d de3a 093d 4c10 153d
00000230: b6d2 9d3b cb10 cebc 4b9e a43b 36ef ab3c
00000240: c74d 11bd e07a 87bc 4319 cbbc ab62 0cbc
00000250: eb4a 1e3b de30 a3bc b7f2 053d e0bf f9bc
00000260: f7fc 113d 7ad7 083d 36d4 8a3b 2870 c6bc
00000270: 8bec 243c 483c adbc 865d 99bc 66ea ddbc
00000280: cb92 a3bb 60e7 f2bb 369d 19bc 731b babc
00000290: 50b8 aabc bb09 223c abf9 71ba b7d9 1e3d
000002a0: d42f 0abd f650 733c ebdf b8bb 166d e3bc
000002b0: 4736 153d 564f e4bc 8b1f 043d de9e 84bc
000002c0: 836b b53c 8bec 973c ab04 a7bb 5e9e adbc
000002d0: 2b12 41bc 5b74 e7bc b66e b33b d0b7 b93c
000002e0: 73fe b53c f6cf f33b b075 d4bc ea75 09bd
000002f0: 165b 11bd f625 93bb b0b4 53bc 43be 033d
00000300: d63f bc3a 48a9 9abc eb8a 5b3b feaa ac3c
00000310: b81d 15bd 109e ccbc 1635 93bc 7682 843b
00000320: ce27 d9bc 1fab 14bd 30c3 35bc eb98 b13b
00000330: b7d8 083d 4b71 dfbb 4023 533c 80d4 833b
00000340: fed4 c23c aa7c 06bd e769 123d ab4e 3bba
00000350: dceb 03bd e8ce 1ebd 8bae dc3b a60d 403c
00000360: 9b8d b33c ab6f 7d3b 76a7 853c 0348 053d
00000370: cb16 b63b b04d 103c 7344 bc3c 7b37 79bc
00000380: 407d c73c ac38 04bd d382 1e3d 9f9e 2a3d
00000390: ab6a 3339 68f4 e83c 00b6 593c 946f 2a3d
000003a0: d623 df3c 5b7e ffbc 0875 963c fbad 9e3c
000003b0: 1607 053d cba3 db3c 90ca 86bc e058 e7bc
000003c0: dbf9 0abc eb0b bc3b eb35 c2bb 1027 7a3c
000003d0: 6b0b b5bb f84c 92bc b0c5 be3c 20c5 7ebc
000003e0: 8041 98ba 8089 acbb 5e90 a7bc b7fa 21bd
000003f0: 284a fb3c 0003 8fbb 8889 d73c d699 813b
