unit_tests_workloads/conv3_1x1_C_256_K_64-1x1_C_64_K_64-1x1_C_64_K_256_workload.onnx (onnx, 148256 bytes, 3 tensors)

conv1.weight f4 [64, 256, 1, 1]
0	0x3d778252	0.060427018
1	0x3d5c4824	0.053779736
2	0xbc7894b8	-0.015172176
3	0xbcb94b18	-0.022618815
4	0x3ca72590	0.020403653
5	0x3d7cbbb6	0.061702453
6	0xbcbbb3f8	-0.022912964
7	0x3d2a8ae4	0.041636363
8	0x3a693d00	0.00088973343
9	0x3d7f99e6	0.06240263
10	0x3cc07420	0.023492873
11	0x3d69adc6	0.05705049
12	0xbd522d3a	-0.051312663
13	0x3c5af180	0.013363242
14	0x3d4349aa	0.047677673
15	0xbd57e188	-0.052705318
16	0xbcd94ac4	-0.026524909
17	0xbd266810	-0.040626585
18	0x3d79ef88	0.06101945
19	0xbd4d296c	-0.05008833
20	0x3c546ba8	0.01296512
21	0x3d636f2c	0.055525944
22	0xba57fd00	-0.0008239299
23	0xbba6c070	-0.0050888583
24	0xbd29477a	-0.04132793
25	0x3bf502c0	0.0074771345
26	0xbd04b8b8	-0.032402724
27	0xbbc4c3e0	-0.0060047954
28	0xbd2fe296	-0.0429407
29	0x3b38cac0	0.002819702
30	0x3d7d3902	0.061821945
31	0x3d0be034	0.034149364
32	0x3bbce430	0.0057645068
33	0xbc6f6da0	-0.014613539
34	0x3d5ded28	0.054181248
35	0x3d09a9e0	0.03360927
36	0x3ccdbd28	0.02511461
37	0xbd0b19c4	-0.03396012
38	0xbd2229da	-0.039590694
39	0xbd781998	-0.060571283
40	0xbc50a830	-0.0127354115
41	0xbd4a8734	-0.049445346
42	0xbc63f928	-0.013914384
43	0xbd14db16	-0.03634175
44	0xbd06b9fc	-0.032892212
45	0xbd78c158	-0.060731262
46	0xbcbf3b9c	-0.023343854
47	0xbcee5dec	-0.02909752
48	0xbd1af552	-0.037831612
49	0x3c8304e4	0.015993543
50	0xbcba804c	-0.022766255
51	0x3d2007de	0.039070003
52	0xbd1df682	-0.038565166
53	0x3d65a0ba	0.056061484
54	0xbd6f3f3c	-0.058409914
55	0x3d24cac2	0.040232427
56	0xbd7b7240	-0.061388254
57	0xbd0dff92	-0.03466756
58	0xbb211ca0	-0.0024583712
59	0xbbc54070	-0.0060196444
60	0xbc97a97c	-0.018513434
61	0x3c1ea140	0.009682
62	0xbca6067c	-0.020266764
63	0x3d7f810a	0.06237892
64	0x39900200	0.0002746731
65	0xbd77f132	-0.060532756
66	0xbca79f84	-0.020461805
67	0x3bfc97f0	0.007708542
68	0x3b856400	0.004070759
69	0xbd49be0a	-0.0492535
70	0xbd747ec8	-0.05969122
71	0x3c43e8b0	0.0119573325
72	0x3b814c10	0.003945835
73	0x3d729e4c	0.059232995
74	0x3d3d001e	0.04614269
75	0x3d1242bc	0.035708174
76	0xbd1f81ea	-0.038942255
77	0x3c3012f8	0.01074671
78	0x3ccd9ff0	0.025100678
79	0x3d62f052	0.05540497
80	0x3c2fb558	0.010724388
81	0x3c9791b0	0.018502086
82	0xbca292ec	-0.019845448
83	0xbd3c130c	-0.045916602
84	0x3cc5cc8c	0.024145387
85	0x3d3bf874	0.04589124
86	0xbd0b2d02	-0.03397847
87	0xbc9db544	-0.019251473
88	0x3bcbca90	0.0062192157
89	0x3d733754	0.059378937
90	0xbcb241b4	-0.021759845
91	0x3c1935b8	0.009351186
92	0x3c84c3f8	0.016206726
93	0xbca13c4c	-0.019682072
94	0xbc038e18	-0.008029483
95	0x3cb29c4c	0.021803044
96	0xbcf92f04	-0.030417927
97	0x3d14d55c	0.036336288
98	0x3d1b9c16	0.037990652
99	0xbc9a8d28	-0.018866137
100	0x3c3f05c8	0.011659093
101	0xbc972e3c	-0.018454663
102	0x3b768e60	0.0037621483
103	0x3d359088	0.04432729
104	0x3cf529d8	0.02992718
105	0xbd04212a	-0.03225819
106	0x3b44dfa0	0.0030040517
107	0xbd666048	-0.056244165
108	0x3d6eb2d4	0.058276013
109	0xbbf95410	-0.007608898
110	0xbd1635ba	-0.03667233
111	0x3d6813ba	0.056659438
112	0xbd597b14	-0.053095892
113	0xbcb92cc8	-0.022604361
114	0x3ce3a7f0	0.02779004
115	0x3cc54884	0.02408243
116	0x3c2f5f60	0.0107038915
117	0x3d613e6c	0.05499117
118	0x3d4a0fa6	0.04933133
119	0xbd413412	-0.0471688
120	0x3c6f62a8	0.014610924
121	0xbbee65e0	-0.007275328
122	0xbd1dc1b4	-0.038514808
123	0x3cd4b584	0.02596546
124	0xbd3d547a	-0.04622314
125	0x3936be00	0.00017427653
126	0x3d7e1c28	0.06203857
127	0x3ba55000	0.005044937
128	0xbd4bb95a	-0.049737312
129	0x3d23b6b8	0.039969176
130	0x3d7fdd7c	0.062467083
131	0x3c9e0f2c	0.019294344
132	0x3d13a3bc	0.03604482
133	0x3cd01ba0	0.025403798
134	0x3abffd80	0.0014647692
135	0xbcdda668	-0.027056888
136	0x3d7e6900	0.062111855
137	0xbc6bdaf8	-0.014395468
138	0xbd2ebdae	-0.04266136
139	0xbd2d4c7e	-0.042309277
140	0xbb317980	-0.0027080476
141	0xbd4dbee2	-0.05023087
142	0xbce81274	-0.028329112
143	0xbcab88bc	-0.020939223
144	0xbc48cbf0	-0.012255654
145	0xba50b000	-0.00079607964
146	0x3d46aef0	0.048506677
147	0x3d6ba91a	0.057534315
148	0x3d6ea610	0.05826384
149	0x3d528f56	0.051406227
150	0x3d4f2c7c	0.050579533
151	0x3c5c91b8	0.013462476
152	0xbd4042dc	-0.046938762
153	0x3cd5b924	0.026089258
154	0xbc64d9e8	-0.0139679685
155	0x3cd04f28	0.02542837
156	0xbcc2f164	-0.023796745
157	0x3c05f3f8	0.008175842
158	0x3d370a84	0.044687763
159	0xbcd699fc	-0.026196472
160	0x3d4bc1a2	0.04974521
161	0xbd6838e4	-0.05669488
162	0x3c5464f8	0.012963526
163	0xbd58f10e	-0.052964263
164	0xbc0759a0	-0.008261114
165	0x3d46c4fc	0.048527703
166	0x3d67a5ba	0.056554534
167	0xbd0cf9a6	-0.03441777
168	0xbc17ded8	-0.009269439
169	0xbd61fb8e	-0.055171542
170	0xbd419f36	-0.047270976
171	0xbd468976	-0.048470937
172	0xbb154ae0	-0.0022780225
173	0xbd284c98	-0.04108867
174	0xbd2b8f7a	-0.041884877
175	0xbcb51a54	-0.02210728
176	0x3c8bb1b0	0.017052501
177	0x3d3de802	0.046363838
178	0xbcd2483c	-0.02566921
179	0xbb05ff60	-0.0020446405
180	0xbaa44280	-0.0012532026
181	0x3d2da0da	0.042389728
182	0x3d375bb2	0.04476518
183	0xbc7ada38	-0.0153108165
184	0x3cfd64e8	0.030931905
185	0x3cc671a0	0.024224102
186	0xbcf109d8	-0.02942364
187	0xbd143fe4	-0.036193743
188	0x3d69bfd6	0.057067715
189	0xbd38874c	-0.045050904
190	0x3d154176	0.03643938
191	0x3d49a0e6	0.04922571
192	0xbd1cd1fe	-0.0382862
193	0x3ccaa4dc	0.024736814
194	0xbd58f028	-0.052963406
195	0xbaa71b00	-0.0012749135
196	0xbc0035e8	-0.007825352
197	0x3d6e8daa	0.05824057
198	0xbc554f98	-0.013019465
199	0xbd5a29d6	-0.053262554
200	0xbb0cf040	-0.0021505505
201	0xbb6734e0	-0.0035279319
202	0xbc59c298	-0.013291024
203	0x3ccc4644	0.024935849
204	0x3cbdbde4	0.023161836
205	0x3d600f88	0.05470231
206	0x3b4233c0	0.0029632896
207	0x3d054896	0.032539926
208	0xbd579eba	-0.052641608
209	0xbd5e6086	-0.05429127
210	0xbd5453d4	-0.051837757
211	0xbccf952c	-0.025339685
212	0x3cbf726c	0.02336999
213	0x3c80a350	0.015702873
214	0xbd27ff14	-0.041014746
215	0x3cd82530	0.02638492
216	0xbd6ae822	-0.057350285
217	0x3c052f28	0.008128919
218	0x3d07715e	0.0330671
219	0x3d158ffa	0.03651426
220	0x39c3d500	0.00037351996
221	0x3d77b844	0.060478464
222	0xbd451cd4	-0.048123196
223	0x3a177780	0.0005778
224	0x3b7a9340	0.003823474
225	0x3d0cb534	0.034352496
226	0x3a555180	0.00081374496
227	0xbc769218	-0.01504948
228	0xbc219c08	-0.009863861
229	0x3d53cc06	0.051708244
230	0xbc641098	-0.013919972
231	0xbd0b5990	-0.03402096
232	0x3d07e0d8	0.033173412
233	0xbd557c5e	-0.05212056
234	0xbd2ad9f0	-0.041711748
235	0x3d00073e	0.031256907
236	0x3c6ba0a8	0.014381565
237	0x3b9388c0	0.004502386
238	0x3b015a00	0.0019737482
239	0xbd0f225e	-0.034944884
240	0xbd29c4d2	-0.041447468
241	0x3bcb7d20	0.0062099844
242	0x3c9e9064	0.01935596
243	0x3c4e40d0	0.012588695
244	0xbbaae450	-0.0052152053
245	0xbd7d0f20	-0.061782002
246	0xbca40be0	-0.020025194
247	0x3d579e88	0.05264142
248	0x3cb3be9c	0.021941476
249	0x3d6dccb8	0.058056563
250	0x3d3aa166	0.045564078
251	0x3c8d4560	0.017244995
252	0xbb1fc260	-0.002437733
253	0xbc012060	-0.007881254
254	0x3a6b7800	0.000898242
255	0x3d05c0ea	0.03265468

conv2.weight f4 [64, 64, 1, 1]
0	0x3ca04250	0.01956287
1	0xbd480500	-0.048832893
2	0x3a869580	0.0010267943
3	0xbd9c0d78	-0.076197565
4	0xbd93c5cc	-0.07215461
5	0xbc7b08b0	-0.0153218955
6	0x3df0760c	0.11741266
7	0xbd4fdc28	-0.050747067
8	0xb91ee000	-0.000151515
9	0xbdcfc794	-0.101454884
10	0x3c54ea90	0.012995377
11	0xbdc5f8fa	-0.09666629
12	0x3d4d87e8	0.05017844
13	0xbd9c9d1e	-0.07647155
14	0xbadece80	-0.0016998798
15	0x3d963d8a	0.073359564
16	0x3d917bd8	0.071036994
17	0x3daaeeaa	0.08346303
18	0x3d815e62	0.0631683
19	0x3bb8f700	0.005644679
20	0x3ddbc81a	0.10731526
21	0xbdbfc78e	-0.09364234
22	0x3d9c3d5c	0.07628891
23	0xbd3e39d4	-0.046441868
24	0x3dba5434	0.09098092
25	0xbdc2a132	-0.09503402
26	0xbdf9c018	-0.12194842
27	0xbc7e5a20	-0.015524417
28	0xbdb08aa8	-0.086201966
29	0xbdff3e32	-0.12463035
30	0x3d63fb24	0.05565943
31	0xbdc0c1d4	-0.0941197
32	0xbdffa9b0	-0.12483537
33	0x3de2ddee	0.11077486
34	0xbdefb258	-0.11703938
35	0x3da6db74	0.08147326
36	0xbdbcfb36	-0.09227602
37	0x3b63f5c0	0.003478393
38	0xbdb723ea	-0.08942397
39	0xbd36cf68	-0.04463139
40	0x3d81f008	0.063446105
41	0x3dfda508	0.12384993
42	0xbdf5141c	-0.11966726
43	0x3dd6341c	0.10459158
44	0xbdd3daf4	-0.10344496
45	0x3cc19ff8	0.02363585
46	0x3dedf206	0.11618428
47	0x3dd21c9e	0.102593645
48	0x3d5c6c70	0.05381435
49	0xbc1304f0	-0.008973345
50	0xbdb24a52	-0.08705582
51	0x3d3b6fc0	0.04576087
52	0x3c519ff0	0.01279448
53	0xbd845444	-0.06461385
54	0x3dd83572	0.10557069
55	0xbdf32360	-0.118719816
56	0xbcf91288	-0.030404344
57	0xbd83d970	-0.06437957
58	0xbdceb1be	-0.100924954
59	0x3df25e0e	0.11834346
60	0xbda9e792	-0.08296122
61	0x3dd4d184	0.103915244
62	0xbdfc776c	-0.123274654
63	0x3ca33398	0.019922063
64	0xbd5e03ec	-0.05420296
65	0x3d84ce4c	0.064846605
66	0xbdccd430	-0.10001409
67	0x3d90890c	0.070573896
68	0xbda1f256	-0.0790755
69	0xbde59b92	-0.11211313
70	0x3d9662d6	0.0734307
71	0xbc669460	-0.014073461
72	0x3bb58380	0.0055393577
73	0xbcfa0be8	-0.030523255
74	0xbad0a600	-0.0015918612
75	0xbd9892c4	-0.07449868
76	0xbca2ad88	-0.019858137
77	0x3df65a90	0.12028992
78	0xbb75edc0	-0.0037525743
79	0x3d99f37a	0.075171426
80	0xbd9e8d9e	-0.07741855
81	0x3ddee456	0.108833954
82	0x3cede5b8	0.029040202
83	0xbc4c1520	-0.0124562085
84	0x3ca91598	0.02064018
85	0xbd083518	-0.03325376
86	0x3d74f4f4	0.059803918
87	0x3d3da5d8	0.04630074
88	0xbdfc3392	-0.12314524
89	0x3d4c3118	0.049851507
90	0xbd2e6a14	-0.042581633
91	0x3ca99240	0.02069962
92	0xbdf6cd9c	-0.120509356
93	0xbc7de3f0	-0.015496239
94	0x3d34f91c	0.04418288
95	0xbd91b80c	-0.07115182
96	0xbdbcde82	-0.092221275
97	0xbdbbdc50	-0.09172881
98	0x3deeface	0.11668931
99	0x3db50a18	0.08839816
100	0xbcaca370	-0.021074027
101	0xbde64db2	-0.11245288
102	0xbd6b85e4	-0.057500735
103	0x3db6d3c6	0.08927111
104	0xbdba07b8	-0.090835035
105	0xbcc4e500	-0.024034977
106	0x3ce9d068	0.028541759
107	0xbdbba872	-0.09162988
108	0xbd47177c	-0.04860638
109	0x3ddd4096	0.108033344
110	0xbdcd9db0	-0.10039842
111	0xbdab3bce	-0.08361016
112	0xbd09f5c0	-0.03368163
113	0x3c67d340	0.014149487
114	0x3c932118	0.017960116
115	0xbc7163b0	-0.01473324
116	0xbd33e144	-0.043916002
117	0x3d9249da	0.07142992
118	0x3d4f31d8	0.050584644
119	0xbb7a1a40	-0.003816262
120	0x3d2ac85c	0.041694984
121	0xbdec2480	-0.11530399
122	0xbd2ae3dc	-0.04172121
123	0xbd87b27c	-0.0662584
124	0x3d71ba88	0.05901578
125	0xbdfeec66	-0.12447433
126	0xbd21c998	-0.039498895
127	0x3db5f492	0.08884539
128	0x3d203494	0.039112642
129	0xbdaca408	-0.08429724
130	0x3d8fc1dc	0.070193976
131	0xbdb7dd08	-0.08977705
132	0x3ddfb544	0.109232455
133	0xbd9b427e	-0.07581042
134	0x3d9fba70	0.07799232
135	0xbc681f80	-0.014167666
136	0xbd279174	-0.0409102
137	0x3dce76fc	0.10081288
138	0xbc8462d8	-0.016160414
139	0xbdc8eb6c	-0.09810528
140	0x3d972792	0.07380594
141	0xbcd22e70	-0.025656909
142	0x3d50ccd4	0.05097659
143	0xbca97638	-0.020686254
144	0x3db70808	0.08937079
145	0xbdc0e856	-0.094193146
146	0xbdf39a82	-0.118947044
147	0x3ddcfe5e	0.10790704
148	0x3df9849c	0.12183496
149	0xbd406158	-0.046967834
150	0x3d501734	0.05080338
151	0x3d96ec0a	0.0736924
152	0x3ded8368	0.115973294
153	0xbd99a350	-0.075018525
154	0x3df706e2	0.1206186
155	0x3ded2612	0.11579527
156	0x3dbff1c2	0.093722835
157	0x3d5233d4	0.05131896
158	0xbc4544b0	-0.012040302
159	0x3ccf4298	0.025300309
160	0x3d18d61c	0.037313566
161	0xbd1d8728	-0.038458973
162	0xbc328580	-0.010896087
163	0xbc7e9510	-0.015538469
164	0xbd42f6e4	-0.047598734
165	0xbd525310	-0.051348746
166	0xbc6727d0	-0.014108613
167	0x3b900a00	0.0043957233
168	0x3c8af050	0.016960293
169	0xbd2d5a18	-0.04232225
170	0xbdad003a	-0.08447309
171	0x3d536868	0.05161324
172	0x3d872eda	0.06600733
173	0xbcf79df0	-0.030226678
174	0x3d799fd8	0.060943455
175	0xbdcb6a7c	-0.0993242
176	0x3de99500	0.114053726
177	0xbc07cf50	-0.008289173
178	0xbda96566	-0.08271293
179	0xba034100	-0.0005006939
180	0xbd74a264	-0.05972518
181	0x3dc7e3b4	0.09760228
182	0xbc883760	-0.016627967
183	0x3cbb4a58	0.022862598
184	0x3d1d0100	0.03833103
185	0xbda7246c	-0.08161244
186	0x3db5c390	0.08875191
187	0x3caf9698	0.021434113
188	0x3d6b8bf8	0.05750653
189	0x3dbd280c	0.09236154
190	0x3db39cba	0.087701276
191	0x3d2952b0	0.041338623
192	0x3de22298	0.110417545
193	0x3da280e4	0.0793474
194	0x3dfa0d6a	0.1220959
195	0x3c8aaa10	0.016926795
196	0xbdf80186	-0.121096656
197	0xbdf0249c	-0.11725733
198	0xbd5f3f4c	-0.054503724
199	0xbdcdb416	-0.10044114
200	0xbd1c77c4	-0.038200155
201	0xbca9fe18	-0.020751044
202	0x3d01f3ac	0.031726524
203	0xbb557c80	-0.0032575428
204	0xbd1311a8	-0.03590551
205	0xbd0abd38	-0.03387186
206	0x3d9bcd8a	0.07607563
207	0xbbb108e0	-0.0054026693
208	0x3c68a1e0	0.01419875
209	0x3d3ad6a8	0.04561487
210	0x3de4dfbc	0.111754864
211	0x3d4d1a7c	0.050074086
212	0xbbb78880	-0.005600989
213	0x3df8beac	0.12145743
214	0x3d61f6f4	0.055167153
215	0x3d9f6770	0.07783401
216	0xbc035930	-0.008016869
217	0x3d032e34	0.032026485
218	0x3d5b6d74	0.05357118
219	0xbdc1c896	-0.09462087
220	0xbd8208d8	-0.06349343
221	0xbdbd6102	-0.092470184
222	0x3d975a50	0.073902726
223	0x3c147520	0.009061128
224	0x3cca6ed8	0.024711058
225	0xbd485ed0	-0.048918545
226	0x3df8afc0	0.12142897
227	0xbdec772e	-0.11546169
228	0xbcc32c00	-0.023824692
229	0x3d48ad98	0.048993677
230	0xbdbcd836	-0.092209265
231	0xbc990748	-0.01868023
232	0x3cc65e50	0.024214894
233	0x3df4f3e6	0.119605824
234	0x3d9188b4	0.07106152
235	0xbdb87d60	-0.090082884
236	0x3d747ee0	0.05969131
237	0x3c2b8dd0	0.010470822
238	0x3d5cbd84	0.053891674
239	0xbd9f5b0a	-0.07781036
240	0x3dabefda	0.083953574
241	0x3df936ae	0.121686324
242	0x3c86c1b0	0.01644978
243	0x3da03c7e	0.07824038
244	0xbd7449ec	-0.05964081
245	0x3db4fbe2	0.08837105
246	0x3dbe8dd4	0.09304395
247	0xbd504fc4	-0.05085732
248	0xbc9f0ae8	-0.01941438
249	0x3c133390	0.008984461
250	0xbdd7e4c8	-0.105416834
251	0xbc841c30	-0.016126722
252	0x3deadcf0	0.11467922
253	0x3d778934	0.06043358
254	0xbdae566e	-0.08512579
255	0x3d33fe64	0.043943778

conv3.weight f4 [256, 64, 1, 1]
0	0xbdcad6ae	-0.09904228
1	0xbb519100	-0.0031977296
2	0xbde66566	-0.11249809
3	0xbdae0a10	-0.08498013
4	0x3d415290	0.04719788
5	0xbd62f40c	-0.055408522
6	0xbd256288	-0.04037717
7	0x3d81f420	0.06345391
8	0xbbdc5c40	-0.0067248642
9	0x3de43218	0.11142367
10	0x3dc5d9d8	0.09660691
11	0x3d2a1760	0.0415262
12	0xbd59769c	-0.05309163
13	0x3d4bb99c	0.049737558
14	0xbd870eb6	-0.06594603
15	0x3d23c2f4	0.039980844
16	0x3ddc1b80	0.10747433
17	0x3bc8d7e0	0.00612925
18	0xbd0d6d04	-0.034527794
19	0xbd74c894	-0.0597616
20	0x3dc1a2f0	0.09454906
21	0xbd03f360	-0.032214522
22	0x3c6577f0	0.014005646
23	0x3dfa28a6	0.12214784
24	0x3dd6fa66	0.104969785
25	0x3d6b24bc	0.05740808
26	0x3cfd6418	0.030931517
27	0x3df93ab8	0.12169403
28	0xbd41cad4	-0.047312573
29	0x3d6d7eb4	0.05798216
30	0xbc040510	-0.008057848
31	0xbde98698	-0.11402625
32	0x3d04f640	0.032461405
33	0x3c84e6d8	0.016223356
34	0xbd4f7a74	-0.05065389
35	0x3c11ae10	0.008891597
36	0xbb9f1700	-0.0048550367
37	0x3cc11900	0.023571491
38	0x3cce33a0	0.025171101
39	0x3cd98090	0.026550561
40	0xbdffbc9e	-0.12487148
41	0x3df6c488	0.12049204
42	0xbba10200	-0.0049135685
43	0x3d85878a	0.06519993
44	0x3daf14f0	0.085489154
45	0x3bd56f20	0.0065134913
46	0xbd2c3d1c	-0.042050466
47	0x3d5e764c	0.054312035
48	0xbd8cc192	-0.06872858
49	0xbdde172e	-0.10844265
50	0x3dda3578	0.106547296
51	0xbd81915e	-0.06326555
52	0xbd5edabc	-0.05440782
53	0xbdd4d2ac	-0.10391745
54	0x3c6f5340	0.014607251
55	0x3c10ac10	0.008830085
56	0xbc7090e0	-0.014682978
57	0xbdd6c4e0	-0.1048677
58	0xbc148330	-0.009064481
59	0x3c364f00	0.0111272335
60	0x3c0b8e50	0.008517817
61	0xbd5a50f4	-0.05329986
62	0x3c9dc020	0.019256651
63	0x3d2d6ce8	0.04234019
64	0xbd085e18	-0.03329286
65	0x3ce91f20	0.028457224
66	0x3d610bf0	0.054943025
67	0x3dd6c81a	0.10487385
68	0xbd528428	-0.051395565
69	0xbd707da8	-0.058713585
70	0xbddeb38a	-0.10874088
71	0xbc911500	-0.017710209
72	0xbd948ddc	-0.0725362
73	0x3dfc2414	0.12311569
74	0x3d1511d8	0.03639397
75	0xbd3d0bbc	-0.04615377
76	0x3d067180	0.032823086
77	0x3d296b4c	0.041362092
78	0xbd81b880	-0.06334019
79	0x3cd06160	0.025437057
80	0x3dec5350	0.11539328
81	0xbdfbbabc	-0.12291476
82	0x3da981d0	0.08276713
83	0x3de23766	0.11045723
84	0xbc1694d0	-0.009190753
85	0x3d58a3bc	0.052890524
86	0x3d6e0ef8	0.058119744
87	0xbdb49292	-0.088170186
88	0x3d7d09b0	0.061776817
89	0xbcd88a10	-0.02643302
90	0xbdc34b22	-0.09535815
91	0xbdd62baa	-0.10457547
92	0xbdec4d14	-0.11538139
93	0xbd118394	-0.035525873
94	0xbdef910c	-0.11697587
95	0xbd304fe0	-0.043044925
96	0x3db439b0	0.088000655
97	0x3dbe8ab4	0.09303799
98	0xbd9280aa	-0.07153447
99	0x3d930ccc	0.07180175
100	0x3dd52afc	0.10408589
101	0x3dc7c01e	0.0975344
102	0x3d88ae62	0.06673886
103	0x3da215fc	0.079143494
104	0xbc9d9e70	-0.019240588
105	0x3d354d08	0.044262916
106	0x3ddd0220	0.10791421
107	0x3c23b580	0.009992003
108	0xbd46e890	-0.048561633
109	0xbda5d530	-0.08097303
110	0x3de8a3aa	0.113593414
111	0x3cb06f58	0.021537468
112	0xb8ee0800	-0.000113502145
113	0x3c77b490	0.015118733
114	0xbd962cce	-0.073327646
115	0x3d067720	0.03282845
116	0x3db72bfe	0.08943938
117	0x3d8d44a4	0.06897858
118	0x3d935722	0.07194354
119	0x3de2c516	0.110727474
120	0xbd80956c	-0.062785
121	0x3db82ff2	0.0899352
122	0x3d964d32	0.073389426
123	0xbdc9964e	-0.098431215
124	0x3d9ce736	0.076612875
125	0x3df8790c	0.12132463
126	0xbccaf220	-0.024773657
127	0x3d6f36f8	0.05840203
128	0xbd153384	-0.036426082
129	0xbd539b8c	-0.051662013
130	0x3db09c20	0.086235285
131	0x3ddca9e0	0.107745886
132	0xbde0822c	-0.10962328
133	0xbdcdee8e	-0.10055266
134	0x3cb866b8	0.022509918
135	0xbc65b1b0	-0.014019415
136	0x3dda15b8	0.10648674
137	0xbdc49f02	-0.09600641
138	0xbbb030a0	-0.0053768903
139	0x3c86ec10	0.016469985
140	0x3d11db6c	0.035609648
141	0xbd57a0e8	-0.052643687
142	0x3dfeb344	0.12436536
143	0x3d4999e4	0.049219027
144	0x3d1edefc	0.038786873
145	0xbc6cf420	-0.014462501
146	0x3c8dbd08	0.017302051
147	0x3d70e6c0	0.05881381
148	0xbc816030	-0.015792936
149	0x3ccf57f8	0.025310501
150	0x3d9094e2	0.07059647
151	0xbddbec3c	-0.107384175
152	0x3ce7c570	0.028292388
153	0xbd70f9b4	-0.058831885
154	0xbdf66942	-0.12031795
155	0xbd9584e2	-0.07300736
156	0x3de056c6	0.10954051
157	0xbd972372	-0.073798075
158	0xbdfddaba	-0.123952344
159	0x3d63ed30	0.05564612
160	0x3be6f6a0	0.007048443
161	0x3c011ff0	0.00788115
162	0x3ce1bc20	0.027555525
163	0x3bfea3e0	0.0077710003
164	0xbdf99a36	-0.121876165
165	0x3dcbbe3a	0.09948392
166	0x3d0faed8	0.035078853
167	0x3b9cf8e0	0.0047904104
168	0x3dbf421e	0.09338783
169	0x3cebadd0	0.028769404
170	0xbdf6ff4c	-0.12060413
171	0xbbc7d220	-0.006098047
172	0xbdd2ffdc	-0.103027076
173	0x3de05d96	0.1095535
174	0xbd8a3f36	-0.06750338
175	0x3d42eec8	0.047591
176	0x3c07e2f0	0.008293852
177	0xbdc43414	-0.095802456
178	0x3ded581e	0.11589073
179	0xbd3294d4	-0.043598965
180	0xbceceee8	-0.028922513
181	0xbd9a00f2	-0.075197116
182	0xbd94775c	-0.072493285
183	0x3d83d390	0.06436837
184	0xbd1bfd80	-0.038083553
185	0x3dd5bc40	0.104362965
186	0xbd279ad4	-0.04091914
187	0x3cd140c8	0.025543585
188	0x3dfc60f8	0.12323183
189	0xbdfff566	-0.12497978
190	0x3dc53582	0.096293464
191	0xbdbf167e	-0.09330462
192	0xbdbcd292	-0.092198506
193	0x3d730278	0.059328526
194	0x3c110090	0.008850232
195	0x3d54406c	0.05181925
196	0xbd66abac	-0.056316063
197	0x3c953cb0	0.018217415
198	0x3dc3e816	0.09565751
199	0x3dd2c2be	0.102910504
200	0xbc6e46f0	-0.01454328
201	0x3cd53390	0.026025563
202	0x3dc0632c	0.093939155
203	0xbc1ab280	-0.009441972
204	0xbdf6d800	-0.120529175
205	0x3a710000	0.00091934204
206	0x3a04dc00	0.0005068183
207	0x3d9fa11c	0.07794401
208	0x3d267134	0.040635303
209	0x3c1bcbf0	0.009509072
210	0x3de8361a	0.11338444
211	0x3d7b96dc	0.061423168
212	0xbd8cb53a	-0.06870504
213	0x3da73236	0.08163874
214	0xbdf85a2c	-0.12126574
215	0x3d83b054	0.06430116
216	0xbd0a1504	-0.03371145
217	0x3d72e130	0.059296787
218	0xbd3c02d8	-0.04590115
219	0x3cb3b140	0.021935105
220	0xbdecf37c	-0.115698785
221	0xbdb19c54	-0.08672395
222	0xbd9357c4	-0.07194474
223	0x3d261668	0.040548712
224	0x3d278698	0.040899843
225	0xbd5eb140	-0.054368258
226	0x3d44b1f4	0.04802127
227	0xbdc5a1f8	-0.09650034
228	0xbd4a75c8	-0.04942873
229	0x3c3bce90	0.011462823
230	0xbcf9c128	-0.030487612
231	0x3dde7c9c	0.10863611
232	0xbce458d0	-0.02787438
233	0xbcbab128	-0.022789553
234	0x3d944d9c	0.07241365
235	0x3d17aef8	0.037032098
236	0x3bbdece0	0.00579606
237	0xbdec46e2	-0.11536957
238	0xbdaebc3a	-0.08531995
239	0x3d4b33a8	0.04960981
240	0xbc215dc0	-0.009849012
241	0xbd08801c	-0.0333253
242	0xbda62936	-0.08113329
243	0xbd7b0d08	-0.061291724
244	0x3dfc9eda	0.12334986
245	0xbd550594	-0.052007273
246	0xbc7fe2f0	-0.015618071
247	0x3c450f60	0.0120275915
248	0x3d72ef90	0.059310496
249	0x3d00e3d8	0.03146729
250	0x3d5686fc	0.052374825
251	0xbdb05f36	-0.0861191
252	0xbd122e88	-0.035688907
253	0xbd83fa68	-0.064442456
254	0x3d234e1c	0.039869413
255	0xbdd84d42	-0.10561611
