unit_tests_workloads/conv1_1x1_C_256_K_64_workload.onnx (onnx, 65822 bytes, 1 tensors)

conv1.weight f4 [64, 256, 1, 1]
-0.010050923 -0.059241466 -0.061021313 0.021840915 0.031177282 -0.020021833 -0.0003528297 0.021665908
0.041896887 0.014331326 -0.049691707 -0.03854853 0.04260528 0.035265848 -0.0062712952 0.058012
-0.04679101 -0.016474195 0.024779841 0.044377998 0.050390385 0.036108866 0.009216614 -0.013738729
-0.010465525 0.020530432 0.011839174 0.026269719 0.02021975 0.045716517 0.021289133 0.028242752
0.029308401 0.02152913 0.05944042 -0.033067398 -0.03251221 -0.00394357 -0.047361046 0.056919374
-0.0037265122 -0.06007509 -0.024611585 -0.05429163 0.020804986 0.01721035 -0.051339895 0.010096207
-0.029084757 0.024865076 -0.045643434 -0.04408986 0.057011373 -0.0024455935 0.021810971 -0.02182383
-0.027745195 0.014280036 0.038052827 -0.01483506 0.0012902915 0.02469515 -0.056244887 -0.042533465
-0.028616332 0.058793776 0.04730495 -0.0060040057 -0.049047567 -0.047370568 0.0011539236 -0.027878962
-0.050872542 0.006929755 -0.032966487 0.013362192 -0.0061747804 0.028141193 0.037806056 0.026051939
0.046911404 -0.03790006 0.015168704 0.05619517 0.021965168 -0.05001945 0.027351528 0.004746601
0.0069853887 0.0029289573 -0.005442299 -0.020904943 -0.038902618 0.022595294 -0.017419957 0.01043468
0.03480219 -0.048330426 0.023959175 -0.008323491 0.007009551 0.025480323 -0.0538178 -0.037412256
-0.0058621317 -0.014121108 -0.02753245 0.053409375 -0.051550627 0.008676842 0.013846666 0.005079031
-0.046666622 0.037611015 -0.025749631 -0.035613216 0.005151175 -0.042937003 -0.033463396 0.04743538
0.032988437 -0.005666591 0.043539777 0.038346298 -0.008356884 -0.05554886 0.0038155168 -0.0035246909
-0.024754204 0.006918013 0.028631747 0.04678745 -0.03826692 0.016366541 -0.037684686 0.035844825
0.059987262 -0.0058012605 0.03128583 0.014421374 0.040989287 -0.021958433 0.042832106 -0.056488946
0.05663497 -0.030567609 0.0023585036 0.046553805 -0.013001062 0.028469719 -0.023710318 -0.050595812
0.047416314 -0.038689956 0.0054330006 0.035895556 -0.0012373626 -0.022951223 -0.04744208 0.05637364
0.0038990602 0.0038315654 -0.017690137 -0.033641115 0.052074067 0.05488243 0.03929531 -0.030502543
0.0027975887 0.054523066 -0.0045202672 -0.060845368 -0.030593172 -0.0060949847 0.047202 0.04850947
0.023585781 -0.0012600198 -0.01630319 -0.050153583 0.03875777 0.018896565 0.027067266 -0.016038008
0.014655501 0.009520575 0.034169056 -0.026646666 -0.015196562 -0.0110735 -0.047385775 0.061252944
-0.022745818 -0.00961408 0.024006799 -0.011268325 0.05990895 -0.02442184 -0.023284592 -0.02936878
-0.04719132 -0.061474912 -0.029481329 0.06000618 -0.032922767 -0.02995076 0.048201397 0.056789078
0.0396192 0.02362717 -0.012261495 0.044867694 -0.0010775551 -0.02215419 -0.013889059 0.057735436
0.024392307 -0.045405187 -0.030313358 -0.061172254 -0.0580706 0.017540589 -0.004034631 -0.046392016
-0.033866048 0.0077010244 0.021057941 -0.03493645 -0.0040902346 -0.008206099 0.011688709 -0.025143161
-0.017127067 0.058519296 -0.020743005 -0.05514787 0.020745896 0.0106481165 -0.061986722 -0.006104201
-0.035483353 0.02811686 0.0018472672 -0.035577975 0.059032917 0.015450232 0.053089283 0.02534981
-0.04348307 -0.019621767 0.05281277 -0.03086713 -0.061547287 0.011937544 -0.026863366 -0.028958194
00000000: a0ac 24bc 2ea7 72bd 7cf1 79bd b8eb b23c
00000010: 8067 ff3c d404 a4bc 00fc b8b9 b47c b13c
00000020: 129c 2b3d f0cd 6a3c 8889 4bbd 10e5 1dbd
00000030: e082 2e3d ec72 103d 707f cdbb fe9d 6d3d
00000040: eea7 3fbd e4f4 86bc 18ff ca3c b4c5 353d
00000050: 2666 4e3d e4e6 133d 4801 173c 6818 61bc
00000060: 9877 2bbc 702f a83c 18f9 413c 9833 d73c
00000070: e4a3 a53c 3e41 3b3d 8c66 ae3c 585d e73c
00000080: 2c18 f03c dc5d b03c cc77 733d ae71 07bd
00000090: 862b 05bd 1039 81bb a8fd 41bd 4a24 693d
000000a0: 8038 74bb 4c11 76bd 3c9e c9bc e660 5ebd
000000b0: 386f aa3c b8fc 8c3c c849 52bd 906a 253c
000000c0: 2843 eebc d8b1 cb3c 9cf4 3abd 9297 34bd
000000d0: c284 693d 4046 20bb ecac b23c e4c7 b2bc
000000e0: e449 e3bc d0f6 693c 48dd 1b3d c00e 73bc
000000f0: 001f a93a 7c4d ca3c 0a61 66bd 9237 2ebd
00000100: cc6c eabc bed1 703d d6c2 413d 40bd c4bb
00000110: 1ae6 48bd a407 42bd 403f 973a 6c62 e4bc
00000120: ba5f 50bd 0013 e33b de07 07bd 18ed 5a3c
00000130: d055 cabb 5c88 e63c 86da 1a3d e06a d53c
00000140: 2c26 403d 183d 1bbd 2886 783c e82c 663d
00000150: 4cf0 b33c 32e1 4cbd 5010 e03c 6089 9b3b
00000160: b0e5 e43b c0f3 3f3b 5055 b2bb d840 abbc
00000170: 5a58 1fbd c419 b93c 4cb4 8ebc 38f6 2a3c
00000180: be8c 0e3d 20f6 45bd 0846 c43c 405f 08bc
00000190: 60b0 e53b 1cbc d03c 0e70 5cbd 983d 19bd
000001a0: 2017 c0bb 385c 67bc bc8b e1bc cac3 5a3d
000001b0: c026 53bd 5029 0e3c 20dd 623c 006e a63b
000001c0: 8025 3fbd 020e 1a3d e4f0 d2bc 2adf 11bd
000001d0: 30cb a83b b6de 2fbd ea10 09bd 9a4b 423d
000001e0: e21e 073d d0ae b9bb c456 323d 0211 1d3d
000001f0: 50eb 08bc 3487 63bd c00d 7a3b 80fe 66bb
00000200: 54c9 cabc 80b0 e23b 208d ea3c 32a4 3f3d
00000210: c6bd 1cbd 2013 863c 425b 1abd 06d2 123d
00000220: 34b5 753d 8018 bebb 9225 003d a047 6c3c
00000230: 62e4 273d 2ce2 b3bc b870 2f3d f460 67bd
00000240: 12fa 673d ec68 fabc 2091 1a3b 34af 3e3d
00000250: 6802 55bc 5439 e93c 243c c2bc 8e3d 4fbd
00000260: 9c37 423d 5c79 1ebd 5007 b23b 3807 133d
00000270: 002f a2ba 3404 bcbc a052 42bd 0ce8 663d
00000280: 6087 7f3b 001b 7b3b e8ea 90bc 44cb 09bd
00000290: 9e4b 553d 66cc 603d 1ef4 203d 78e0 f9bc
000002a0: c057 373b 9453 5f3d c01e 94bb fe38 79bd
000002b0: 889e fabc 70b8 c7bb e256 413d deb1 463d
000002c0: f836 c13c 4027 a5ba 448e 85bc d86d 4dbd
000002d0: 78c0 1e3d f8cc 9a3c 2cbc dd3c 2462 83bc
000002e0: a01d 703c 30fc 1b3c daf4 0b3d 1c4a dabc
000002f0: 00fb 78bc a06d 35bc 9617 42bd 5ee4 7a3d
00000300: 7055 babc 6084 1dbc e8a9 c43c c89e 38bc
00000310: 1663 753d 5010 c8bc 54bf bebc cc96 f0bc
00000320: b04b 41bd 1ecd 7bbd d482 f1bc 0ac9 753d
00000330: 06da 06bd 4c5b f5bc d46e 453d aa9b 683d
00000340: be47 223d c48d c13c 70e4 48bc 30c7 373d
00000350: c03c 8dba b47c b5bc f08e 63bc fe7b 6c3d
00000360: 60d2 c73c cafa 39bd b853 f8bc c28f 7abd
00000370: 70db 6dbd 48b1 8f3c f034 84bb 8e05 3ebd
00000380: 20b7 0abd e058 fc3b b481 ac3c 8619 0fbd
00000390: 6007 86bb e072 06bc 0082 3f3c 08f9 cdbc
000003a0: 104e 8cbc eeb1 6f3d 3ced a9bc bce2 61bd
000003b0: 4cf3 a93c 7075 2e3c cae5 7dbd c005 c8bb
000003c0: fe56 11bd 5455 e63c 0020 f23a 36ba 11bd
000003d0: 80cc 713d f822 7d3c 2674 593d 68aa cf3c
000003e0: 4e1b 32bd d4bd a0bc 3452 583d 10dd fcbc
000003f0: 0219 7cbd b095 433c 9010 dcbc bc39 edbc
