unit_tests_workloads/conv1_3x3_C_256_K_64_workload.onnx (onnx, 590110 bytes, 1 tensors)

conv1.weight f4 [64, 256, 3, 3]
00000000: 5639 bdb9 988d 533c 3c49 a73c c80e a83c
00000010: 306e 113c f6c9 4abc a717 a33c 43c8 67bc
00000020: 9e92 623c d262 a23c 4ef4 45bc 36a2 62bc
00000030: 98b9 40bc 96c2 91bc e4c7 9f3c 2b1b e5bb
00000040: d00e abbb c6bf 2a3c df5e 98bc a031 5a3b
00000050: 00ba 0d39 a090 35bc cb54 8fbb aeb4 8d3c
00000060: d69c 20bb 6b2e db3a 2b09 87bb 3039 5b3c
00000070: 86aa e9bb 164c e4ba 56d6 a93a ae6b 083c
00000080: 3c8b 94bc 86e7 8bbc 4b50 8dbb 886a 74bc
00000090: 624c 85bc 63cb 393c 4878 1fbc 5764 a83c
000000a0: 2e16 5dbc 38ca 8a3c 4aa8 853c 9b02 503c
000000b0: 4c0e aa3c 3bc2 cdbb 16f2 e33b fc26 98bc
000000c0: 5b74 b6bb 8e87 5c3c 7bb5 dcbb db58 403c
000000d0: baba 8dbc 10e7 9f3c 0679 fe3b 565d 50b9
000000e0: 2665 343c cb15 653b 4bb3 633c a0f7 8c3c
000000f0: ee94 643c 3050 6bbc 0e4b 97bc ebac a7bb
00000100: 4059 68bb 9b2b 953b 6f6c a4bc d60c 6f3b
00000110: a0ea a0bb e2b9 9e3c 9223 8d3c 4bbf 8e3c
00000120: 00fa ab3b a071 413c 100e a6bc 6bdf 573b
00000130: 2fbf 823c a693 4bbc c0bb 723c bb23 7bbc
00000140: 16f0 703b 267f f2bb ab52 4e38 ab8d 9f3b
00000150: e6e2 eabb a068 69bc 8bfb 203c 1e55 483c
00000160: 5227 953c 60a2 36bc fbb5 8bbb e602 e5bb
00000170: 73d7 40bc 031d a1bc 77c7 95bc bb08 973c
00000180: 968a d93a 4f73 94bc 8fd2 983c 5bd6 a03b
00000190: 7e8a 96bc 90b0 b43b 9ea0 71bc 5ef6 983c
000001a0: 2e88 42bc 360a 05bb 0e43 85bc 20d3 1cbc
000001b0: 6ec9 933c 806f 623b f0cc a93c 8c12 813c
000001c0: de1c 163c 68a8 1dbc ab98 ecbb ab65 b4ba
000001d0: 006a 4cbb 8075 033b 0e14 6e3c 4e8f 14bc
000001e0: 24f9 a6bc 9839 66bc 20a7 5ebc 8081 9cba
000001f0: eebe 133c 3e91 6bbc 7ba9 95bc d05d 833c
00000200: 10ff 5f3c 7762 a4bc bb2c 833b 87c6 9a3c
00000210: 5e4d 95bc 0803 79bc 8371 62bc d644 913c
00000220: a451 a2bc b0f8 26bc 58cb 103c d60c a7bb
00000230: 467d bf3b fe90 80bc 960f 8c3b b6bb 653b
00000240: d6b6 a4bb 906a 043c 0267 8c3c 405b 873c
00000250: e0e5 323c 0078 c93a 3b63 9b3c 90f7 46bc
00000260: f390 1ebc 60fc 083b a0b0 a2bb a3d6 23bc
00000270: 160a 933a 66df 38bc 16ad b03a 06ec 1a3c
00000280: d670 7ebb f084 45bc 661f d1bb 6a6b a7bc
00000290: 261a 5a3c c62c 82bc 504b 2bbc ab79 12bc
000002a0: eb82 85bc d628 353c 867e e83b 1bfa 9a3c
000002b0: fe01 a3bc c0c3 893b 708b 213c 2f97 883c
000002c0: 6090 933b 563c 42bb d64b 5a3b 7686 713c
000002d0: 409e 9c3c 4e86 96bc 8b63 8abc e8e2 29bc
000002e0: f6dd 7fbc e68a 103c 36d5 5f3b 6c6a a33c
000002f0: 1bbe 38bc 8f02 8c3c 5072 453c 2e9d 24bc
00000300: d627 60bb e298 90bc 8334 303c 3679 5dbb
00000310: 4061 01bc 5601 3a3a 2202 a9bc b6fc 9a3c
00000320: 0013 8c3c 808b e6ba 56ea f43b 4b49 7fbc
00000330: 76f0 87bb 80c9 583b 566e 523c ae40 533c
00000340: f783 86bc 668c 97bc ae7f 7abc 03f3 7b3c
00000350: 2b33 d43b 6b11 55bb f0b3 afbb d30c 0b3c
00000360: 40ad 18bc 46c3 48bc cb4f 12bb 2b0a 02ba
00000370: 00f0 98ba 4077 df3b e61f 18bc f2b4 803c
00000380: 56d6 583b 0685 263c 6ba5 9abb 90cc 92bc
00000390: 9e22 aabc 4015 80bc 30f2 49bc d671 80bc
000003a0: d674 b23b c66a 8abb 5b5c f6bb 06a8 173c
000003b0: b03f 4cbc 4e0f 9d3c 56f2 94ba 58c6 40bc
000003c0: 8084 4f3c 66ce 82bb ec9c 9dbc 986f 0dbc
000003d0: 766e a8bb 4b1d 6abc deb5 15bc b6be 1f3c
000003e0: 461a 2b3c 7b9d e9bb c61c 923b 1efd 2a3c
000003f0: 379e 923c d602 65ba 5659 983b de95 5cbc
-0.00036091608 0.012912177 0.020420663 0.02051486 0.008876368 -0.012377253 0.01990874 -0.014146867
0.013828902 0.019822512 -0.012082173 -0.013832619 -0.011762999 -0.017792981 0.019504495 -0.006991764
-0.0052202716 0.010421699 -0.018599926 0.003329374 0.00013516098 -0.011081845 -0.004374122 0.017298069
-0.0024507544 0.0016722208 -0.004120966 0.013380334 -0.0071309237 -0.0017417695 0.0012957554 0.008326454
-0.018132798 -0.017078172 -0.00431255 -0.014917977 -0.016271774 0.011339995 -0.009733267 0.020555658
-0.013494058 0.016942129 0.016315598 0.012695934 0.02075877 -0.0062792576 0.006956349 -0.018573277
-0.00556807 0.013460053 -0.0067355013 0.011739935 -0.017300952 0.019519359 0.007765892 -0.00019871196
0.011010444 0.0034955617 0.013897727 0.01720792 0.013951523 -0.01436238 -0.018468406 -0.005117049
-0.0035453588 0.0045523173 -0.020071236 0.0036476157 -0.004910782 0.019375745 0.017228875 0.0174252
0.005248308 0.0118068755 -0.020270377 0.0032939564 0.015960304 -0.012425339 0.014815271 -0.015328343
0.0036764196 -0.007400411 4.9191218e-05 0.004869183 -0.0071681617 -0.014246136 0.0098255975 0.012227325
0.018207226 -0.011147112 -0.004263637 -0.006988871 -0.011770117 -0.019667154 -0.018283589 0.01843678
0.0016597088 -0.01812139 0.01865509 0.0049083657 -0.018376585 0.005514212 -0.014747767 0.018672165
-0.011873288 -0.0020300276 -0.016267326 -0.0095718205 0.018040385 0.0034551322 0.020727605 0.015755914
0.009162156 -0.009622671 -0.007220348 -0.001376321 -0.003119111 0.002005905 0.014531149 -0.00906737
-0.020382471 -0.014051817 -0.01358965 -0.001194045 0.009017689 -0.01437789 -0.018269291 0.016035944
0.0136716515 -0.020066483 0.004003135 0.018893493 -0.018225368 -0.015198477 -0.013821009 0.017733019
-0.01981432 -0.010191128 0.008837543 -0.0050979657 0.005843791 -0.015694138 0.004274319 0.0035054511
-0.0050266786 0.008082047 0.017138962 0.016523004 0.010919064 0.0015370846 0.018968215 -0.012143984
-0.009678113 0.002090238 -0.004964903 -0.009999904 0.0011218216 -0.011283731 0.0013479318 0.009455686
-0.003882458 -0.012055621 -0.006381917 -0.020436961 0.013311898 -0.01589049 -0.010454968 -0.008940141
-0.016297778 0.011057099 0.007095161 0.018918088 -0.01989841 0.0042042434 0.009859905 0.016673652
0.004503295 -0.0029638014 0.0033309362 0.014741531 0.019118428 -0.018374588 -0.016893169 -0.01036904
-0.015616884 0.0088221785 0.0034154183 0.019948207 -0.011275793 0.017091064 0.01205118 -0.01004724
-0.0034203432 -0.017651025 0.010754707 -0.0033794171 -0.007896721 0.0007095536 -0.0206309 0.01891933
0.017098904 -0.0017589182 0.007474224 -0.015581439 -0.004148538 0.0033079088 0.012843689 0.012893839
-0.016420348 -0.018499564 -0.01528923 0.015377763 0.0064758263 -0.0032511603 -0.0053620264 0.008486944
-0.00931865 -0.012253588 -0.0022325392 -0.00049606216 -0.0011668205 0.0068196356 -0.009284949 0.015711281
0.0033086739 0.010163551 -0.0047194264 -0.017919809 -0.02076846 -0.015635133 -0.012325808 -0.015679281
0.005446057 -0.004224154 -0.007518334 0.0092563685 -0.012466356 0.019172337 -0.0011363726 -0.011766039
0.012665868 -0.00399189 -0.019239865 -0.008632563 -0.005140121 -0.014289211 -0.009137599 0.009750059
0.010443276 -0.007129369 0.0044589965 0.010436324 0.017897708 -0.00087360793 0.0046493215 -0.0134634655
