unit_tests_workloads/one_bottleneck_no_bias_yes_relu_no_skip.onnx (onnx, 279668 bytes, 3 tensors)

conv1.weight f4 [64, 256, 1, 1]
000000 76 3c 4e bd 1a a6 18 3d 90 be 83 3b 96 e6 1c 3d
       -0.05035063 0.03726778 0.0040205196 0.03830584
000010 d8 03 73 bc 88 ea 58 bc 30 8d 12 bd 5e a1 24 bd
       -0.014832459 -0.01323951 -0.03577918 -0.040192954
000020 a0 a9 42 3d 80 1d 90 3b 24 48 a0 bc b2 79 3e bd
       0.04752505 0.004398048 -0.01956565 -0.046502776
000030 d0 6d 12 bd ac c6 32 bd 36 0e 2a bd 44 6b 2b bd
       -0.035749257 -0.0436465 -0.04151746 -0.041850343
000040 66 8c 7c bd 9c 90 51 3d 64 05 b8 3c 98 a3 49 bc
       -0.061657332 0.0511633 0.022463508 -0.01230707
000050 f0 46 d6 3b 36 70 62 bd cc 23 dd bc 48 ac 77 3d
       0.006539218 -0.055282794 -0.026994608 0.060467035
000060 ac 48 d5 bc f0 ac 0a 3d 5a 3d 5f 3d 54 eb b8 3c
       -0.02603563 0.033856332 0.05450187 0.02257315
000070 be e3 16 3d 32 e0 14 bd 58 1a 08 bd 58 a0 a8 bc
       0.036838286 -0.03634662 -0.03322825 -0.02058427
000080 88 a9 1d 3c a4 f4 42 bd d4 f5 8a 3c 4e 64 75 3d
       0.009622939 -0.04759659 0.016962923 0.05991011
000090 68 0c 02 bd b0 80 8a 3b 22 99 28 bd 48 41 db bc
       -0.031750113 0.0042267665 -0.041161664 -0.026764527
0000a0 ae de 72 3d 3c 86 0e 3d 8a 41 44 bd 90 60 f0 3b
       0.059294395 0.034795985 -0.047914065 0.00733573
0000b0 f2 5d 74 bd d6 0a 3d bd 8a ef 5c 3d 70 2c 2c bc
       -0.059659906 -0.046152912 0.05393938 -0.010508642
0000c0 48 e8 80 3c 8c 9e 1e 3d 80 eb 63 3a 86 43 48 bd
       0.01573576 0.03872542 0.0008694455 -0.04889252
0000d0 a0 78 0e 3d 70 44 de 3c 90 16 41 bc 00 90 ef 3a
       0.034783006 0.027132243 -0.0117851645 0.0018277168
0000e0 2c 5f b0 bc 98 73 7c bd 9c e1 69 3d 4c 3b 83 bc
       -0.021529756 -0.061633676 0.057099923 -0.016019486
0000f0 36 13 24 3d 58 80 a9 bc f2 a1 59 bd 98 16 53 bd
       0.040057383 -0.020691082 -0.05313296 -0.05153522
000100 88 33 55 3c da 19 37 3d b8 3d fe bc ea 2a 6b 3d
       0.013012774 0.04470239 -0.03103529 0.057413973
000110 f0 3a 80 3b f6 3d 2c 3d 16 20 66 bd 48 9a c1 bc
       0.003913276 0.042051278 -0.056182943 -0.023633137
000120 3e a7 72 bd 4c 37 f9 bc d8 1e 8b 3c 1a 23 35 3d
       -0.059241526 -0.030421875 0.01698248 0.04422293
000130 08 30 49 3d 0e cd 73 bd b8 de eb 3c d0 52 e5 bb
       0.04911807 -0.059521727 0.028792724 -0.0069983974
000140 5c 6c 36 bd 5e 8d 33 bd fe 35 00 3d 0e 91 33 3d
       -0.044536933 -0.04383599 0.03130149 0.043839507
000150 ac b1 bb 3c a8 3a 29 bc f0 2d c7 3b e4 1e d9 3c
       0.022911869 -0.010328926 0.006078474 0.026503988
000160 94 d5 57 3d 1c 2b f5 3c f0 1f ce bb 94 d0 0c bd
       0.05269392 0.029927783 -0.0062904283 -0.034378603
000170 b0 5a f2 3c e8 08 34 bc fc d2 a5 3c 82 6f 24 3d
       0.029584259 -0.010988452 0.020242207 0.040145405
000180 82 a1 29 bd 78 ac c9 3c 60 73 02 bc 20 93 9f 3c
       -0.04141379 0.024618372 -0.007962078 0.019479334
000190 62 ff 4c 3d 72 7a 69 3d bc 2e 85 3c 02 98 18 3d
       0.05004824 0.05700154 0.016257636 0.03725434
0001a0 1a b6 71 bd 40 ae 20 bb 78 06 5d 3c e4 e4 eb 3c
       -0.059011556 -0.0024517924 0.013490312 0.028795667
0001b0 d8 0d 76 3d 2c 4b 1b 3d 1c f3 45 3d 90 f0 2c bd
       0.060071796 0.037913486 0.04832755 -0.042221606
0001c0 20 4b 3c bc c8 02 5d bd 48 49 cb 3c 8c f9 7a 3d
       -0.011492521 -0.05395773 0.024815217 0.061273143
0001d0 c4 eb 79 3d 88 c2 06 bd 54 fd 67 3d ee e7 4c 3d
       0.06101586 -0.032900363 0.056638077 0.050025873
0001e0 ee fe 63 3d 70 0f e0 bb 00 75 98 39 10 41 45 3c
       0.05566304 -0.006837778 0.0002907887 0.012039438
0001f0 08 63 d9 bc d0 c7 b4 bb d6 42 3e 3d 00 37 e0 b9
       -0.02653648 -0.0055169836 0.04645046 -0.00042765588
000200 08 fa c6 3c f0 4d 55 3d 64 7a 50 3d 5c 2d 9e 3c
       0.024289146 0.05207628 0.05089797 0.019308738
000210 c6 c5 3f 3d ca 67 14 bd 50 c3 81 bc 6c 02 d3 3c
       0.04681947 -0.036231793 -0.015840203 0.02575799
000220 c8 9a 58 bd 74 f3 6c 3d 24 0c 92 bc b0 96 ca 3b
       -0.052881986 0.057849362 -0.017828055 0.006182514
000230 1a 14 5f bd e0 cd 12 bc 36 23 04 bd 80 ee 6b bd
       -0.05446253 -0.008960217 -0.032260142 -0.0576005
000240 24 e3 81 bc f8 be 1d 3d b0 9f 9d bc 88 d3 48 3c
       -0.01585538 0.0385122 -0.019241184 0.012257464
000250 9e ee 01 bd e0 fb 81 bb a0 7b 7f bd 7a 45 7b 3d
       -0.031721704 -0.0039667934 -0.062373757 0.061345555
000260 58 13 27 bc d6 3e 5b bd c2 54 2c bd a8 47 d4 3c
       -0.010197483 -0.053526722 -0.04207302 0.025913075
000270 b4 4c 2d bd 02 fd 74 3d 68 0a b2 bc 98 2b 73 bc
       -0.042309478 0.0598116 -0.021733478 -0.0148419365
000280 50 a8 49 3c 38 a7 4d 3c bc 5d 70 3d a8 6c 2b 3c
       0.012308195 0.012552075 0.058683142 0.010462917
000290 82 83 4d bd 4c d6 dc 3c be ae 11 bd 50 f0 83 bb
       -0.050174244 0.026957653 -0.035567038 -0.00402645
0002a0 4e 52 76 bd 74 68 a9 bc 64 76 44 bd 50 e5 fc bc
       -0.060137086 -0.02067969 -0.04796447 -0.030871063
0002b0 10 18 4f 3c 80 66 e0 ba 6c 60 06 bd 42 f7 07 3d
       0.012640014 -0.0017120391 -0.0328068 0.033194788
0002c0 94 27 5c bd 58 7b d0 3c a8 4b 2a bc 64 1c 3a bd
       -0.053748682 0.02544944 -0.010394014 -0.04543723
0002d0 e4 5d 88 bc e4 00 db bc 44 e8 bd 3c cc cb cf bc
       -0.016646333 -0.026733823 0.023182042 -0.025365733
0002e0 90 da 6b 3c c0 26 78 bb c4 a2 8d 3c c8 3d ae bc
       0.014395371 -0.0037864894 0.017289527 -0.021269694
0002f0 a8 00 85 3c 1a 98 0c 3d f0 d7 36 bd 20 5a 80 bc
       0.016235664 0.034324743 -0.044639528 -0.015667975
000300 fa 82 4b bd f8 7e 5b bc 60 d4 22 bb 26 d3 24 3d
       -0.049685456 -0.013396971 -0.0024845824 0.04024043
000310 1a ef 6c bd 8e 4d 45 bd 0c 08 8f bc b6 82 5b 3d
       -0.057845213 -0.048169665 -0.017459892 0.053591453
000320 74 e4 04 bd b0 a2 d0 bc 80 6f 07 ba 30 7a 1a bd
       -0.032444432 -0.0254682 -0.0005166456 -0.037714183
000330 a8 00 59 bc 4e 24 31 3d ee 21 22 3d 2a aa 58 3d
       -0.013244785 0.043247513 0.03958314 0.052896656
000340 84 c1 4b bd 90 17 18 bc 02 91 06 bd 48 19 7d bc
       -0.049745098 -0.0092829615 -0.032853134 -0.015447922
000350 6a 41 79 bd e0 06 2f 3d 8c c2 6b 3d 80 d5 38 3d
       -0.0608534 0.042731166 0.05755858 0.045125484
000360 d2 9a 72 3d ba fa 5b bd 44 1d ed 3c 10 96 3b 3d
       0.05922968 -0.05370591 0.028944619 0.045797408
000370 00 3a 37 bd 88 de 6e 3d ea 24 03 3d d4 51 31 bd
       -0.044733047 0.05831769 0.032017626 -0.043290928
000380 c4 07 fa 3c 30 ac 76 3c c8 a8 74 bc a0 b7 3b bb
       0.030521281 0.015055701 -0.014932819 -0.0028643385
000390 48 99 66 3d 9c 97 2b 3d a8 1f 0a bc 68 13 2c 3c
       0.056298524 0.041892633 -0.008430399 0.010502674
0003a0 44 8b af 3c 8c be 7e 3d 40 e2 3b 3c d0 0a 1b 3d
       0.021428712 0.06219344 0.011467516 0.03785211
0003b0 8a 4e 0f bd 2a 9e 04 bd c2 06 42 3d 9c 16 46 bd
       -0.03498701 -0.0323774 0.047369726 -0.048361406
0003c0 fc 79 c6 3c 18 68 d1 bc 10 98 22 bd c0 84 97 3c
       0.024228089 -0.025562331 -0.0396958 0.018495917
0003d0 00 ba 2a bd 68 70 11 3c b8 84 70 3c 4c ab 89 3c
       -0.04168129 0.008876897 0.01468008 0.016805314
0003e0 b8 38 20 bc 18 7e b8 bc 94 a6 6c 3d 60 58 72 bc
       -0.009779148 -0.022521064 0.05777605 -0.014791578
0003f0 38 41 0f bc 14 58 7c bd 10 33 9c 3b 06 0c 34 3d
       -0.008743577 -0.061607435 0.0047668293 0.04395678

conv2.weight f4 [64, 64, 3, 3]
000000 30 d8 37 3c 56 dd 47 bc 68 c6 93 3c fc 60 17 3d
       0.011220977 -0.012198767 0.018038943 0.036957726
000010 d6 f8 9e bc 9e 9d 18 bd 0f 14 14 3d f7 fb 02 bd
       -0.019405764 -0.03725969 0.036151942 -0.031978574
000020 36 2c eb 3c 27 46 0a 3d 7b 59 20 bd 5b 2b e2 bc
       0.028707605 0.03375831 -0.039147835 -0.027608564
000030 00 70 15 b9 5b b9 76 bc 26 b8 96 bc 00 0c 0f 3b
       -0.0001425147 -0.015058841 -0.018398356 0.002182722
000040 db 55 f6 bc 97 bc 11 bd b6 4d ca bc c0 be c0 3c
       -0.030070236 -0.035580244 -0.024695259 0.023528457
000050 eb 89 f4 bc 80 bc d1 bc ab 53 37 3a 46 17 37 bc
       -0.02985092 -0.02560258 0.00069933635 -0.011174982
000060 2e 77 19 3d 30 9a 87 3c 50 5d 39 3c 63 df 9c 3c
       0.037467174 0.016553015 0.011313751 0.019149488
000070 e3 fb d1 3c be f0 bc 3c 2b af 0b 3b 63 4e 06 3d
       0.025632804 0.023064014 0.0021314125 0.0327896
000080 fb 9e 0b bc 8e 41 a5 3c 6b 27 09 bc 00 55 5a bb
       -0.008521791 0.02017286 -0.008371214 -0.0033314824
000090 80 3f c6 bb 0b 61 a5 bb a6 9b 79 3c 1b 31 bf bc
       -0.0060500503 -0.005046969 0.015234863 -0.023338845
0000a0 4b f7 9b bc 2b 2e ff bb 06 0d 7f 3c 0b 4e 3e 3c
       -0.019038817 -0.007787486 0.01556707 0.011615287
0000b0 fb 56 bd 3c 10 dd f4 bc 00 5b 00 bc c6 82 f5 bc
       0.023112765 -0.029890567 -0.007834196 -0.029969584
0000c0 03 79 d8 3c b3 98 cb 3c b8 c4 9b 3c ae 0f ca bc
       0.02642489 0.024853086 0.019014701 -0.02466568
0000d0 f0 d8 91 3c f4 ef 13 3d 16 01 16 3b c0 0a 06 bc
       0.01780364 0.03611751 0.002288883 -0.008181274
0000e0 eb 2c f0 3b eb 92 f4 3b 10 64 a6 bc fb 74 36 3c
       0.0073295734 0.007463803 -0.020311385 0.011136289
0000f0 9b 89 cd bc 5e 24 14 3d 5a 35 21 3d ff 83 10 3d
       -0.02509003 0.036167495 0.03935752 0.03528213
000100 00 2a a7 bc b8 5d 82 bc e8 b5 fa 3c 10 70 8d bc
       -0.02040577 -0.01591383 0.030604318 -0.01726535
000110 06 47 4b bc ab eb d3 bb 00 0a 03 3c 07 5e 23 3d
       -0.01240707 -0.006467303 0.00799799 0.039884593
000120 d6 3b b6 ba ca 58 1e bd 5a fb 17 bd 50 0b 05 bc
       -0.001390333 -0.038658895 -0.037104942 -0.008120373
000130 9b ee ae 3c 46 dc 34 bc f3 3a 8d 3c 0b 43 f6 bc
       0.02135401 -0.011038845 0.017240023 -0.030061265
000140 6c cb 17 bd 70 49 61 bc 2e e2 e5 bc a4 a1 09 bd
       -0.037059233 -0.013750419 -0.028061952 -0.03360142
000150 1b ea 3a 3c a0 a5 1f bd 28 7f 0e 3d a3 b9 d6 bc
       0.011408354 -0.03897631 0.034789234 -0.026211565
000160 e6 a3 64 bc 7b 04 92 3c e6 8f 88 3c ff 38 27 bd
       -0.013955092 0.017824402 0.016670179 -0.04082584
000170 24 cb 21 bd d6 14 aa 3b 2b c9 cb 3a 1e 15 d6 bc
       -0.03950037 0.005190472 0.0015547624 -0.026133116
000180 68 3c 07 bd 2b a9 d7 3a bb 62 2b bc 20 d0 80 3b
       -0.033016592 0.0016453614 -0.010460551 0.0039310604
000190 1b c9 15 3c 30 cc 98 bc f6 6c ba 3b 70 6b a4 3c
       0.009142186 -0.018652052 0.0056892587 0.020070761
0001a0 93 e1 f4 3c bb 92 1f bd 90 df 0f 3d 18 2f 25 bd
       0.029892718 -0.038958292 0.035125315 -0.040328115
0001b0 93 14 1c 3d 83 11 9c bc db a2 1d bd 0c ca 0b 3d
       0.03810556 -0.019051319 -0.03848539 0.034128234
0001c0 bb db fa 3c 88 c7 c2 3c 80 22 3f 3c 00 b8 73 3c
       0.030622354 0.023776785 0.01166594 0.014875412
0001d0 9e cf f5 3c 30 6d 99 3c f0 06 07 3d e0 f3 f2 3b
       0.030006226 0.018728822 0.0329656 0.007414326
0001e0 26 13 39 3c 0b 54 e7 bc 93 3d 9b 3c 92 d3 06 bd
       0.011296069 -0.028238317 0.01895026 -0.032916613
0001f0 73 d1 28 bd ce 98 a4 3c 6f d0 1b bd 27 30 0d 3d
       -0.04121537 0.020092394 -0.038040575 0.03446975
000200 43 32 e0 bc b6 b0 09 bc d6 42 cf bb 2c 0f 1c 3d
       -0.027367717 -0.008403948 -0.006325106 0.038100407
000210 18 9e f4 3c 2e 86 01 3d c7 2c 12 bd ab ba 07 b8
       0.029860541 0.031622104 -0.035687234 -3.2360356e-05
000220 d0 b2 0a 3c 76 a3 c2 bc c6 95 12 bd 9b 40 93 bc
       0.008465484 -0.023759585 -0.035787366 -0.017975142
000230 93 cc 89 bc eb 89 81 3c 90 ae dc bc 80 8d 8b 3c
       -0.016821181 0.015812835 -0.026938707 0.017035246
000240 93 83 9c 3c 3f 53 07 3d b8 2c 1c 3d 9f 33 2a 3d
       0.019105708 0.033038374 0.038128585 0.041553136
000250 90 d2 07 3d 8b f2 45 3c c0 e6 74 3c 76 6f f4 3c
       0.033159792 0.0120817525 0.014947593 0.029838305
000260 87 29 10 3d 70 99 b6 3c 76 9e bf bc 6b 86 e1 bb
       0.035195854 0.022289962 -0.02339099 -0.006882479
000270 2b b8 4e 3b c0 e0 51 3b 28 33 20 bd 00 6f 3b ba
       0.0031542878 0.003202483 -0.039111286 -0.0007150024
000280 5e 53 04 3d 1c e9 17 bd 73 ee 99 3c 3a f5 01 bd
       0.032306068 -0.037087545 0.01879046 -0.031728007
000290 22 08 1d 3d f0 7c f2 3c 00 8a 68 3a 56 58 cd 3b
       0.038337834 0.02960059 0.0008870661 0.006266634
0002a0 eb 48 47 3b 2b 64 e8 ba 66 1b 6e 3c 2b 55 de 3b
       0.0030408453 -0.0017730048 0.0145328995 0.006785055
0002b0 1b 2f 63 3c 13 0e 1f bd 4e 1b bf 3c 5b b5 12 3c
       0.013866211 -0.03883178 0.02332845 0.008954371
0002c0 e0 c5 91 bc e6 d0 4e 3c 22 7e 09 bd 26 48 6b bc
       -0.01779455 0.012623047 -0.033567555 -0.014360463
0002d0 5a 4e 22 3d 2b e2 2f 3b ee 7f 0b 3d a6 aa fc 3c
       0.039625503 0.0026837687 0.03405755 0.03084309
0002e0 70 37 3b 3c 3b f5 d0 3c 90 55 55 3c 80 11 3f bb
       0.011426792 0.02550756 0.013020888 -0.0029154718
0002f0 9e 60 80 bc 26 f1 55 bc f4 24 1b 3d 56 8e c3 3b
       -0.01567107 -0.013057983 0.037877038 0.0059678955
000300 b0 e1 06 3d 06 b8 87 3c 60 6d e5 bb 7b cb 1e bc
       0.032930076 0.016567241 -0.007001564 -0.009692068
000310 fb dd 25 bd 1e de b8 3c 80 c4 90 3c 0b b3 52 bc
       -0.0404949 0.022566851 0.017671824 -0.01286007
000320 de f5 ea bc 6b 82 09 3b eb a5 13 bb a0 79 0d bd
       -0.028681692 0.0020982276 -0.0022529315 -0.03453982
000330 b8 b6 e8 bc c2 74 04 bd 62 12 01 3d 5b 4e 21 bc
       -0.02840744 -0.03233791 0.03151167 -0.009845342
000340 ab 6e 71 39 db 7a c4 3c c3 ec df 3c 8b 39 b6 3b
       0.00023024778 0.023984363 0.027334576 0.005561059
000350 00 31 5a 3a c0 88 b8 bb 86 44 1e 3d 06 b1 2b 3c
       0.00083233416 -0.0056315362 0.038639568 0.010479217
000360 b2 cb 0c 3d 76 f1 88 3b 70 55 5b 3c 40 65 8f 3b
       0.034373946 0.004179175 0.013387069 0.0043760836
000370 30 ad 8d bc 53 28 a0 bc b6 af 2b 3c 16 d9 c3 bc
       -0.017294496 -0.019550478 0.0104789045 -0.023907226
000380 c0 9f 00 bd 73 85 ba bc 8b 92 ae bb 36 a4 98 3c
       -0.03140235 -0.022768712 -0.005327528 0.01863299
000390 60 e7 02 bd e3 1d cc bc 08 95 ca 3c 8b c8 00 bc
       -0.031958938 -0.024916595 0.024729267 -0.007860313
0003a0 33 5d f0 bc a0 f7 d8 3c ab 73 55 3b 96 28 21 bc
       -0.029341316 0.026485264 0.0032570164 -0.009836337
0003b0 ab c0 90 bb c0 da d6 3c 08 48 88 bc 5f d3 09 3d
       -0.004417499 0.026227355 -0.01663591 0.033648845
0003c0 26 9b 7c 3c 5b 89 8e bc 46 70 ed 3c b8 bf 21 3d
       0.01541785 -0.01739948 0.0289842 0.039489478
0003d0 d0 29 29 bc 80 c5 ac 3a 93 9b 1d 3d 70 71 db 3c
       -0.01032491 0.0013181418 0.038478445 0.02678749
0003e0 f0 28 1b bc 3b 1f 22 bc bc 8f 22 bd 5f a6 0c bd
       -0.0094702095 -0.009895141 -0.039687857 -0.03433835
0003f0 36 6a a1 3b 13 1a bb bc 80 26 13 bc 76 6e a5 bb
       0.0049259914 -0.022839582 -0.008981347 -0.0050485684

conv3.weight f4 [256, 64, 1, 1]
000000 60 0e c7 3b 30 9e 99 bd bc 01 70 3d a0 c7 2d bc
       0.0060747117 -0.07500875 0.058595404 -0.010606676
000010 e4 26 e7 bd d0 78 ed bd e6 e6 f8 bd 8a 98 d4 bd
       -0.11286715 -0.11595309 -0.121534154 -0.10380657
000020 a0 69 d3 bc f0 0b 60 bc b0 5e 12 bc 28 0a de 3d
       -0.025807202 -0.013674721 -0.008933708 0.10841781
000030 fe d7 d4 3d 00 9c bb 3b d4 3e 6a bd 20 a7 8e bb
       0.1039276 0.0057253838 -0.057188824 -0.004353419
000040 7c df b6 bd 6c 23 0e bd 10 33 d1 bc 4c ff 30 3d
       -0.08929345 -0.03470175 -0.025537044 0.04321222
000050 e4 8a 35 3d 10 73 04 3c 80 67 bd 3c 60 60 9f bd
       0.04432191 0.008084074 0.023120642 -0.07782054
000060 38 14 c4 3c 1a 8b e0 bd 8c 3e 29 bd 86 cb ab 3d
       0.023935422 -0.109640315 -0.041319415 0.083884284
000070 32 e2 b6 bd ac 44 a6 3d 00 4f eb bb 00 cc 21 bd
       -0.08929862 0.08118567 -0.0071810484 -0.03950119
000080 a0 c7 3e bc 34 89 90 3d 40 0b bd bb 20 7c 13 bd
       -0.011644274 0.070574194 -0.0057691634 -0.036007047
000090 80 63 95 3d b8 4a d9 3c 38 c0 b7 bc 40 bf a7 bc
       0.07294369 0.026524886 -0.022430524 -0.020476937
0000a0 2c 79 12 bd 48 63 c3 3c 18 30 1e 3d 90 d7 f3 3c
       -0.03576009 0.023851052 0.038620085 0.029765874
0000b0 20 45 5e 3d 2e 33 b5 bd 58 4f f4 bc 8c 51 b8 bd
       0.05426514 -0.088476524 -0.02982299 -0.08999929
0000c0 de a5 c4 bd 48 4e b0 bc 24 56 15 3d e6 7d ed 3d
       -0.09601949 -0.021521702 0.036459103 0.11596279
0000d0 a0 b2 f4 3b 74 fa 65 bd d8 0c 45 bd 50 d5 96 3c
       0.007467583 -0.056147054 -0.048107952 0.018412262
0000e0 ea a1 d4 bd 70 a2 e0 bc 18 55 bd 3d 5c b8 08 bd
       -0.10382445 -0.027421206 0.09244746 -0.033378944
0000f0 30 1f 09 3c 10 c3 17 3d 9c ee 87 3d 2e 23 cb 3d
       0.008369252 0.03705126 0.06637308 0.09918819
000100 48 6f 52 3d 3e b2 ad 3d 38 44 2e bd 5c 4d a9 bd
       0.051375657 0.084812626 -0.042545527 -0.08266708
000110 f0 c4 a8 3c c0 84 cb 3b 4e 69 c0 3d 4a 5f 80 bd
       0.02060172 0.0062108934 0.09395085 -0.06268175
000120 4a 31 d2 3d dc 99 6f 3d d8 53 32 3d d8 d2 b9 bc
       0.102633074 0.05849634 0.04353699 -0.022683546
000130 5e 08 c6 bd 84 a5 fe bd 2a ea 81 bd 00 d4 36 bb
       -0.09669565 -0.12433913 -0.063434914 -0.0027897358
000140 ec dc f0 3d 34 f9 e3 bd e6 45 83 3d cc 83 67 3d
       0.117608875 -0.11131516 0.064098164 0.056522176
000150 28 53 5d bd e0 cb fa bd ae b9 f1 bd 24 a8 43 3d
       -0.054034382 -0.12245917 -0.11802994 0.047767773
000160 54 aa 40 3d de 9f a9 bd ee 45 80 bd 94 ec 2c 3d
       0.047037438 -0.08282445 -0.06263338 0.042217806
000170 d6 02 d9 3d 10 8d 56 bd 88 a3 9d 3c 10 0d 8e bc
       0.10596244 -0.05238062 0.019243017 -0.017340213
000180 04 83 e3 3d cc 1a ec 3d 40 6c fa bd 30 de 4a 3c
       0.111089736 0.115285486 -0.12227678 0.012382075
000190 d0 80 59 bc 30 5b 4c 3d 48 9f 4a bd 4c f6 2d bd
       -0.01327534 0.04989165 -0.04946831 -0.042471215
0001a0 ec 46 e5 bd 20 e5 68 3c 30 19 e4 3d 20 63 bb bb
       -0.11195168 0.014214784 0.11137617 -0.0057186037
0001b0 90 08 b8 bd 6c b4 71 3d 3c 74 d9 3d a4 59 00 3d
       -0.08986008 0.059009954 0.10617873 0.031335488
0001c0 f0 da 01 bd 28 93 89 bc 4c a2 1f 3d d4 a1 09 3d
       -0.031702936 -0.016793802 0.038973138 0.033601597
0001d0 9c c9 bf bd c0 8f 08 3d a0 76 b3 3c 50 86 84 3c
       -0.09364626 0.033340216 0.02190715 0.016177326
0001e0 e0 5a c2 3b da 35 df bd 8e f3 f0 bd a0 25 00 bd
       0.0059312433 -0.10898943 -0.11765204 -0.031285882
0001f0 44 fa e7 bd a4 38 f2 bd b8 0b ad bd a8 70 cd bd
       -0.11327031 -0.118272096 -0.08449501 -0.10031253
000200 3c 24 51 3d 9e 0f 9c 3d cc ca cb bd cc 57 19 bd
       0.051059946 0.07620166 -0.0995079 -0.037437245
000210 50 a5 18 3c b0 b2 a9 3c 84 88 08 bd 2e f4 e5 bd
       0.009316757 0.020715088 -0.033333316 -0.11228214
000220 34 41 f0 bd f4 5f 9d bd 7a 21 aa bd 50 de df 3c
       -0.117311865 -0.07684317 -0.083071664 0.027327687
000230 58 22 e6 3d d4 63 1a bd 06 60 c2 3d ec 15 3b bd
       0.11237019 -0.03769286 0.09490971 -0.045675203
000240 f0 48 ac 3d 40 e6 7d bc 5e 6b bb bd 00 61 d0 3d
       0.08412349 -0.01549679 -0.09151338 0.10174751
000250 c0 e8 98 3d 08 c1 bb bd 82 fc ea bd 00 97 0f bb
       0.074662685 -0.09167677 -0.11473943 -0.0021910071
000260 86 6f 93 bd a0 aa d2 bb 2e 7e 8d bd e4 b4 cb 3d
       -0.07199006 -0.0064290315 -0.069088325 0.099466115
000270 b8 05 3d bd 34 3a cf bd a0 18 5c bd 78 27 c2 3d
       -0.046148032 -0.10118523 -0.05373442 0.09480184
000280 4a b0 8d 3d 40 f7 a8 bd d6 f1 c7 bd e8 25 91 3d
       0.0691839 -0.08250284 -0.097629234 0.07087308
000290 5c 99 d0 3d ac 57 71 3d 10 cc 2f bc 72 83 b6 3d
       0.10185501 0.0589215 -0.010729805 0.0891179
0002a0 96 a7 f5 bd 14 b0 1e bd f8 68 e1 3c 00 27 c5 ba
       -0.11994855 -0.03874214 0.027515873 -0.001504153
0002b0 06 65 f5 3d 1e 3e b8 bd 7e 47 c8 bd 14 de cf 3d
       0.11982159 -0.08996223 -0.09779261 0.1014978
0002c0 00 fe 95 bb 9c 9e d5 bd a0 a1 a4 bd f0 45 b5 bd
       -0.0045773983 -0.10430643 -0.0803864 -0.0885123
0002d0 58 26 f3 3c 64 00 2f bd 12 01 81 3d 86 ee c6 bd
       0.02968137 -0.042724982 0.06299032 -0.097134635
0002e0 dc 7d 5c 3d d0 1c f6 bd 06 f7 b0 3d 5a 4c c7 3d
       0.053830966 -0.12017214 0.08640866 0.0973136
0002f0 9e 43 f4 bd 6c ed 81 3d a6 6a 9c bd da 4c cb bd
       -0.119269595 0.06344113 -0.07637529 -0.09926768
000300 f8 6c 72 bd 90 c4 05 bd bc 7d 18 bd fc c0 bc 3d
       -0.059185952 -0.03265816 -0.037229285 0.09216496
000310 44 6b fe 3d c0 d8 05 bd 58 0d 39 3d 58 a4 93 3d
       0.12422803 -0.032677412 0.04517874 0.072090805
000320 10 cd 24 3d 80 a3 34 bc d4 d0 50 3d 2c 26 73 3d
       0.040234625 -0.01102531 0.050980404 0.059362575
000330 d0 89 5a bd 46 7d d6 bd ac ab 59 3d a0 75 af bb
       -0.053354084 -0.10473113 0.053142235 -0.005354598
000340 50 da 2c 3d 40 22 b3 3c 44 30 e1 bd 7e a7 8f bd
       0.042200387 0.021866918 -0.10995534 -0.070143685
000350 48 2c 62 bd ee 9f f6 3d 6c 7a 86 3d f4 e6 e1 3d
       -0.05521801 0.12042223 0.06566319 0.11030379
000360 94 2c d4 bd 1a d6 f2 bd d0 4f 55 3d 64 6c 47 bd
       -0.10360065 -0.11857243 0.05207807 -0.048687354
000370 78 a6 d7 3c 08 34 c6 3d 3e a2 f2 bd a8 e9 ae bd
       0.026324496 0.09677893 -0.118473515 -0.0854066
000380 f8 fa 83 bd fe c9 ce 3d be 71 e1 bd 28 80 29 3d
       -0.06444353 0.10097121 -0.11008023 0.041381985
000390 a0 88 8f bb 70 24 3a bc e0 b2 e6 3c 70 f4 ac 3c
       -0.0043803006 -0.011361226 0.028161466 0.02111265
0003a0 d8 62 b4 3c 9c 4c 3a 3d 2c 68 71 bd 80 78 89 3d
       0.022019789 0.045483217 -0.058937237 0.06712437
0003b0 e4 ed 26 bd 50 e8 92 3c 80 f8 8c 3a 80 d0 cd bd
       -0.040754214 0.01793304 0.0010755211 -0.10049534
0003c0 d0 96 8b 3d 70 c8 a2 3c f0 31 b8 3d 40 19 1e bd
       0.068158746 0.019870967 0.089939 -0.0385983
0003d0 24 ba 6d 3d 7c b3 3b 3d 40 29 bd 3c 94 9b 53 3d
       0.058038846 0.045825467 0.023090959 0.051662043
0003e0 62 3b a5 bd 44 cb b3 3d 00 a0 a8 3d c0 f4 81 3c
       -0.08067967 0.08779004 0.082336426 0.015863776
0003f0 80 39 56 3b 36 d9 d9 3d 10 fc f1 bd 64 57 4f 3d
       0.0032688081 0.10637133 -0.11815655 0.05062045
