unit_tests_workloads/one_bottleneck_no_bias_no_relu_no_skip.onnx (onnx, 279328 bytes, 3 tensors)

conv1.weight f4 [64, 256, 1, 1]
00000000: 90cd b9bb 244e 343d c4fc 5f3d a8b2 46bc
00000010: 90be c23c 6cde 923c 1073 e63c 94b2 b5bc
00000020: 343e b63c d070 d5bc 5040 f8bb c840 0abd
00000030: c865 d8bc 18d8 8ebc 84a2 f63c 6856 483c
00000040: f891 e63c 103c d5bb d0a0 b23b 3416 95bc
00000050: f436 7bbd acd5 b63c 20f0 4b3b 202b 23bb
00000060: 14a0 cc3c 7a1b 7f3d e4ff 523d d4f9 c6bc
00000070: a043 f6bc ce30 54bd 1021 82bc e8d9 d6bc
00000080: 4014 1abb fc2e fbbc 586c 7d3c 422a 15bd
00000090: 100d e23b e0ad 9dbc aab8 453d 5855 02bc
000000a0: 0042 9939 50b0 a33b 2c09 f73c 6eed 153d
000000b0: 103c 833c e0a0 adbb dede 10bd a0aa e4bb
000000c0: e045 1dbb 88aa 193c 60f5 7fbb 706e 50bd
000000d0: 1ad1 653d ce1f 6b3d e0dc 053d 7831 d43c
000000e0: a8b7 1d3c 1801 4bbd 7e7e 6fbd c09e 073b
000000f0: 908c 69bd 041b 223d 08a6 303c 58ae cfbc
00000100: 9063 61bc 503c 0ebd c8ee 0fbd 4036 aabb
00000110: fc1e cdbc 00d2 843c e0fd 40bd 862d 46bd
00000120: dad0 77bd 2836 cd3c bc97 883c 008d 493d
00000130: 10fa 4b3c 4ed3 7e3d 72ea 4a3d 166e 003d
00000140: 64fc 17bd 5472 523d 00dc fa3a f475 ccbc
00000150: d8a1 173d 1c15 6b3d b221 52bd 38ba 563d
00000160: fe12 0bbd 1ad1 483d 2488 133d 7ad5 353d
00000170: c4c4 ce3c 9c41 fabc 90b8 1a3d f03c 043c
00000180: 0040 f6b7 0010 51bd d624 7fbd c89e 2a3d
00000190: c8db 263c cec8 20bd 8e03 223d 0c47 643d
000001a0: 9c4a 9c3c 1cdb 1ebd 86d5 19bd 66ae 2fbd
000001b0: 9803 18bd 3049 fcbc c465 273d e062 b73c
000001c0: 4a10 76bd aca3 223d 0491 be3c 3c9e 9abc
000001d0: be5a 01bd a602 0cbd c4fa e7bc 700c 5d3d
000001e0: 80b8 49bd d4ff c0bc 58eb 97bc d83e ca3c
000001f0: f821 5a3c f448 ae3c 2039 4bbd b05f 813b
00000200: 0cf1 2a3d 58d5 50bc 10d6 b73c ac9c 84bc
00000210: 98d1 7abd beb2 5e3d 4ce0 523d 90bb ab3b
00000220: bc0e 83bc e0e4 113b 80fb 203b a859 2dbc
00000230: 3e81 113d 741a 47bd 5886 253d 58c6 f5bc
00000240: 8805 64bc a047 333d 26a5 57bd 42f5 21bd
00000250: 8e08 53bd 9882 2b3c a0b1 383b d6f4 1bbd
00000260: 30be 653d 8453 7b3d 5ac0 33bd 705b 08bc
00000270: 8855 fd3c 4457 173d 50a8 0ebc a4e5 c8bc
00000280: 3483 8e3c 0853 123d 2c1d 9fbc 9470 393d
00000290: bcab ae3c fe14 3d3d e860 3bbd e824 37bd
000002a0: 6c9b 04bd d8fb 053d b065 08bd 402d 30bb
000002b0: fc20 a3bc 1820 063d 682e 273c 7e1f 40bd
000002c0: dcbb 97bc bc0f 0fbd fc8f 4d3d 4e2e 593d
000002d0: 9c29 4c3d 2015 38bd 082c 2fbc e822 953c
000002e0: 30d2 e83b 68a1 c0bc 4862 aa3c 0873 673d
000002f0: 0cb2 1a3d c036 633c 5cfb d6bc 12fe 35bd
00000300: 4414 0d3d 805f a1bc ec5e 303d e02f acbb
00000310: cac9 50bd 5c2e ba3c 4868 69bc c05c 37bd
00000320: 58fa c53c 4ccc cb3c b80f 7fbd c091 f2bc
00000330: 4ed9 153d 403b efbb ac5d 26bd 645e 803c
00000340: ac2c 47bd 9897 88bc e0ed 123b 460f 29bd
00000350: d654 013d 00d0 83b8 40a9 973b c61a 333d
00000360: 2ca1 553d c04e c9bb e065 98bb 70e9 6cbd
00000370: d872 4e3d 7473 1d3d 24f9 30bd 6099 5d3d
00000380: f01b 553c 7cdf ac3c 8046 353c 34a8 c53c
00000390: 5448 3dbd 16d0 3bbd d880 503c ec3d ca3c
000003a0: 084a 82bc 7c83 b7bc 8071 113a 8203 403d
000003b0: 80a4 a13c b080 463d 202d bdbc e814 85bc
000003c0: 08a9 75bc 2a6b 263d 74f4 7fbd 0ee1 5ebd
000003d0: 4093 f8ba f8c3 d73c e6ff 123d 302b 8c3b
000003e0: a002 53bc 3486 1bbd 4083 ff3b d8b9 33bd
000003f0: 9062 f73c f2e4 313d 7afe 1a3d 7621 133d
-0.005670257 0.044019833 0.054684415 -0.012127556 0.023772508 0.017928325 0.028131038 -0.02217988
0.022246458 -0.02605477 -0.007576026 -0.033753186 -0.02641572 -0.017437026 0.03010679 0.012227632
0.028145775 -0.006507404 0.0054512993 -0.018199064 -0.061331704 0.022318684 0.0031118467 -0.002489753
0.024978675 0.062282063 0.051513568 -0.02428905 -0.030061543 -0.051804356 -0.015884906 -0.026226953
-0.0023510605 -0.030662052 0.015467726 -0.036417253 0.00689853 -0.01924795 0.048271812 -0.007954918
0.00029231608 0.0049953833 0.03015574 0.036603384 0.016019851 -0.005298719 -0.035368793 -0.006978348
-0.0023997948 0.009379037 -0.0039056167 -0.05088657 0.056107618 0.05740338 0.032681346 0.025902495
0.009626307 -0.04956159 -0.05847024 0.0020693988 -0.057018816 0.039576545 0.010781772 -0.025351688
-0.013756648 -0.034725487 -0.03513983 -0.0051944554 -0.025039189 0.016213417 -0.047117114 -0.04838326
-0.06050191 0.025050238 0.016673915 0.049206734 0.012449756 0.062213235 0.04953999 0.031354986
-0.037105933 0.051378563 0.0019139051 -0.024958588 0.03701958 0.05739318 -0.051301666 0.052423686
-0.03395366 0.04902754 0.036018506 0.04439304 0.02524031 -0.030548863 0.03777367 0.008071169
-2.9355288e-05 -0.05104065 -0.06229099 0.04165533 0.010184236 -0.039254002 0.03955417 0.055731818
0.019078545 -0.038783178 -0.037557147 -0.04289093 -0.037112802 -0.030796617 0.040868536 0.022386014
-0.06007413 0.03970687 0.023262508 -0.01887428 -0.03158068 -0.034182213 -0.028317817 0.05396694
-0.04924822 -0.023559488 -0.018544838 0.02468817 0.013313763 0.021275021 -0.049615026 0.0039481744
0.041733786 -0.012746178 0.02244094 -0.016187988 -0.06123504 0.05436968 0.051483437 0.005240865
-0.015998237 0.0022261664 0.0024563968 -0.010580458 0.035523646 -0.048609212 0.040411323 -0.030001804
-0.013917334 0.04376948 -0.052647732 -0.039540537 -0.05152183 0.010468148 0.0028182045 -0.03807529
0.05608958 0.061358944 -0.043884613 -0.008322582 0.030924574 0.036948457 -0.008707121 -0.024523564
0.017396547 0.035723716 -0.01942309 0.04527338 0.021322124 0.046162598 -0.045746714 -0.04471293
-0.032374784 0.03271088 -0.0333001 -0.002688244 -0.01991319 0.03274545 0.010203935 -0.046905033
-0.018522196 -0.034927115 0.050186142 0.053022675 0.04984437 -0.04494202 -0.01069165 0.018205121
0.0071051344 -0.023514464 0.020798817 0.056506187 0.037767455 0.013868034 -0.026242904 -0.044431753
0.034443155 -0.019698858 0.043059275 -0.0052547306 -0.05097369 0.022727184 -0.014246054 -0.044766188
0.024167225 0.02487769 -0.06227085 -0.029610515 0.03658419 -0.0073007643 -0.040616676 0.015670009
-0.048626587 -0.016673848 0.0022419617 -0.04127433 0.031575046 -6.28531e-05 0.0046283305 0.043726705
0.05215566 -0.006143421 -0.0046508163 -0.05783981 0.050402492 0.038440183 -0.04320635 0.054101348
0.013007149 0.02110266 0.011064172 0.024128057 -0.046211556 -0.045852743 0.012726031 0.02468773
-0.015904441 -0.022401564 0.0005548224 0.046878345 0.01973176 0.04846257 -0.023092806 -0.01624532
-0.0149939135 0.040629543 -0.062488988 -0.054413848 -0.0018964782 0.026338562 0.035888575 0.0042776093
-0.012879044 -0.037969783 0.0077976286 -0.043878406 0.030198365 0.04343123 0.037840344 0.035920583

conv2.weight f4 [64, 64, 3, 3]
00000000: 2b09 433b c006 153d 5ee2 db3c 2bcb 1e3d
00000010: 5035 053c 0b01 fb3c 96a5 3abc 6664 1e3c
00000020: 1bc6 553c 5f0c 26bd fe8c ab3c 80d2 a23a
00000030: ab2a 6e37 28e0 e5bc d017 033d a099 d8bc
00000040: a3fa afbc b069 e1bc 908d 64bc 98e9 e4bc
00000050: 2b9b dfbb 7690 75bc 53d6 c7bc c6e4 4ebc
00000060: 16e1 ed3c 93f6 fa3c b07b ebbc 36f8 e63b
00000070: 8bc2 d6bc d67c 1e3b 8648 163c bba2 b5bc
00000080: 3eea 88bc 80df acbc 68bc aabc ee10 1b3d
00000090: 736a 033d 341c 2abd 4ee7 9dbc ebbf b33b
000000a0: c0f0 da3c ff0d 1abd 0efc 0f3d 6b64 323c
000000b0: ab83 79bc 58f7 11bd bbe9 8fbc d8a1 a1bc
000000c0: 4af9 053d d623 d63b 8687 8ebc 4f43 0fbd
000000d0: 4ff9 1bbd bbf6 6c3c 0b48 aabc 87b6 01bd
000000e0: 58e0 c1bc 5bdc 043c e304 9b3c 8f17 02bd
000000f0: 16c6 973b 9ba7 063d f049 7fbc c8b1 903c
00000100: 0080 ee38 7656 26bd 8be1 ebbc 2bb0 e93c
00000110: 5006 d03c 789a ae3c 4687 3d3c ee77 fcbc
00000120: fefc c0bc fbf5 c7bc 4618 453c 0e8a 99bc
00000130: 006a 39ba 4b09 883c af3d 143d 1001 783c
00000140: 8b8d 583c c2e3 293d 9b5c 2dbc abaa 9db9
00000150: fbcd 403c c058 2a3d 7b06 49bc 806e d03b
00000160: 2e0f 23bd 66d8 bdbc e08b 063c 50d8 593c
00000170: 6011 92bc 7011 873c 90aa f0bc d83d fd3c
00000180: b070 55bc e8db d53c e0f2 fd3c 101d d0bc
00000190: 7fca 1abd 003d b13a 8be9 f5bc 489c b0bc
000001a0: c061 0e3d 50ee 8d3c aba0 1dbc 9e5b d0bc
000001b0: 88f4 e5bc 0cf4 1f3d b81a d73c 8367 a3bc
000001c0: 8bb3 2c3c 2781 27bd d0b4 6ebc 1b7d 8a3c
000001d0: 4f1a 0f3d 5839 edbc 5634 f23b 664a 3bbc
000001e0: 36ca f53b 7bc8 5cbc 001c c43b a6cc 9dbc
000001f0: 2baf 1e3c 3015 7fbc f435 02bd 3686 36bc
00000200: 564f 71ba b8da f23c 32a8 14bd 66e3 17bd
00000210: 4078 1c3c fe7a c53c 9685 b93b a23f 24bd
00000220: 005f fc3a db10 fcbc 0b83 b4bb 230f 9e3c
00000230: fbb1 e4bc db49 043c 2b6f 5a3b 10cb c2bc
00000240: fff6 113d 8e79 19bd 3b6f 5dbc d3bd c53c
00000250: 603d 04bc 3849 87bc 5646 493c 904f 30bc
00000260: 00e6 0bbb 1ac3 013d f3b7 8a3c d631 85bc
00000270: ebb2 6bbb 80ac c53a 9679 553c 96d8 203d
00000280: 3bbf 713c 20ab bbbc 13a5 8ebc 70e6 b1bc
00000290: 80ae e7bb 4b53 843b 2422 28bd f669 ea3c
000002a0: 16c3 d3bb 7a9e 04bd d624 2b3c f29d 06bd
000002b0: d6c1 b33a 860c 9f3c 6757 0fbd 236f 94bc
000002c0: b387 f33c e814 293d 2b0e 12bd c036 2abd
000002d0: 7840 993c 6077 2abc 20e8 bc3b 10ee d13c
000002e0: 3692 273d 4064 d83b 4cfa 123d d09a 13bc
000002f0: 8b48 3fbc a06d eebb eb7a 6f3c 53ab bb3c
00000300: e6b7 a93c 2605 183d ae5d d9bc b8ed bf3c
00000310: c672 7c3c 0ba6 8d3c 2e76 0f3d 76ba 0abc
00000320: 10e9 143c 185e c03c 0b96 8e3c 96be aa3c
00000330: 9be9 f7bc fb71 283c 56d7 95bc c823 2a3d
00000340: 4684 72bc 1fdf 1abd 404d 7abc ca3b 1dbd
00000350: 680f 1b3d 000a 61bb 54ab 143d 706c 19bc
00000360: fa28 25bd abbe abbc ab4a 9bb7 84e8 0abd
00000370: b682 d93b 371d 0b3d 0b6d 84bb c801 14bd
00000380: 784c 853c 26ab 47bc 9b50 be3c 3606 3f3c
00000390: bb34 60bc 8ec0 a03c 8bf6 24bc 76c7 e2bb
000003a0: 2035 c2bb 98ac cd3c 4e79 bb3c 7356 c13c
000003b0: a0dc 0fbd 7365 c23c 661f 77bc 561d f9ba
000003c0: 3b5c 55bc 170a 083d 10d8 c23c 0e4d 193d
000003d0: 16a9 febc 167c 513c cba4 efbb bb6f ef3c
000003e0: 906f 52bc cbba ebbc 5653 a53b cb42 e73b
000003f0: d695 343c e02c 13bd d6cc 14bc 167f dc3c
0.0029760103 0.03638339 0.026841339 0.038767975 0.0081303865 0.030640146 -0.011392018 0.009667492
0.01304772 -0.04053914 0.020941254 0.0012422353 1.419584e-05 -0.028060988 0.03200513 -0.026440442
-0.021481818 -0.027516216 -0.013949767 -0.027943417 -0.0068239174 -0.014988055 -0.02439419 -0.012627786
0.029037993 0.030635154 -0.028745502 0.007048632 -0.026215812 0.0024183295 0.009172564 -0.022172322
-0.016713258 -0.021102667 -0.020841792 0.037857942 0.03208394 -0.041530803 -0.019275334 0.005485525
0.026726127 -0.037611004 0.035152487 0.010888199 -0.015229146 -0.035636276 -0.017567506 -0.019730493
0.032708444 0.0065350337 -0.017398607 -0.0349763 -0.038079556 0.014463122 -0.020786306 -0.031668212
-0.023666546 0.008109177 0.018923229 -0.03176075 0.004631768 0.032874685 -0.015581593 0.017662898
0.00011372566 -0.0406098 -0.02879407 0.028526386 0.025393635 0.02131389 0.011567896 -0.030818906
-0.023558136 -0.024409285 0.012029713 -0.018742587 -0.0007072985 0.016605994 0.03619164 0.015136972
0.01321734 0.041476972 -0.010581161 -0.0003007253 0.01176786 0.041588545 -0.0122696115 0.006360829
-0.0398094 -0.023174476 0.00821206 0.013296202 -0.01783055 0.016487807 -0.029378206 0.030913278
-0.013027355 0.026105836 0.0309996 -0.025404483 -0.03779077 0.0013522208 -0.030018589 -0.021558896
0.03476119 0.01732555 -0.009620826 -0.025434311 -0.028070703 0.0390511 0.026257858 -0.01994682
0.010540853 -0.040894654 -0.014569476 0.016905358 0.0349372 -0.028958008 0.007391493 -0.011431312
0.007500912 -0.013475533 0.005984783 -0.019262623 0.009685318 -0.015569016 -0.031789735 -0.011140397
-0.00092052424 0.029645309 -0.036293216 -0.0370821 0.009550154 0.024106499 0.0056616766 -0.040099747
0.0019254386 -0.030769756 -0.0055087856 0.019294327 -0.027916899 0.008074249 0.0033330421 -0.023778468
0.035635944 -0.03746944 -0.013515289 0.024138367 -0.008071274 -0.016514406 0.012284836 -0.010761157
-0.0021346807 0.031680204 0.016933417 -0.016259115 -0.0035964798 0.0015081316 0.013029477 0.039269052
0.014755066 -0.022908747 -0.017412698 -0.021716326 -0.0070703626 0.0040382496 -0.041048184 0.02861498
-0.006462465 -0.032377698 0.010445794 -0.032865472 0.0013714384 0.019415151 -0.034995463 -0.0181194
0.029727792 0.041279703 -0.035658043 -0.04155612 0.018707499 -0.010404438 0.005764976 0.025626212
0.040910922 0.0066037476 0.035883233 -0.009009078 -0.01167501 -0.007276252 0.014616708 0.022908842
0.020717572 0.037114285 -0.026533928 0.023428783 0.0154082235 0.01729109 0.035024814 -0.008467307
0.00908877 0.023482367 0.01740553 0.020842832 -0.030262759 0.010281081 -0.018291157 0.04153803
-0.014802044 -0.03781044 -0.015277207 -0.038387097 0.03785649 -0.0034338236 0.036296204 -0.009364232
-0.04032228 -0.020964941 -1.851221e-05 -0.03391315 0.0066378964 0.03396341 -0.0040413192 -0.03613451
0.016271815 -0.012186801 0.023231795 0.011659196 -0.013684447 0.019623067 -0.010068546 -0.0069207503
-0.005926743 0.025106713 0.022884991 0.023600793 -0.035122514 0.023730015 -0.01508317 -0.0019005935
-0.013022478 0.033212747 0.023784667 0.037427 -0.031086486 0.012785932 -0.007313346 0.029228082
-0.012843981 -0.028775593 0.005045335 0.007057523 0.011022052 -0.035931468 -0.00908204 0.026916068

conv3.weight f4 [256, 64, 1, 1]
00000000: caec 9f3d 5ea5 8d3d b08e 6c3d 7c25 ad3d
00000010: d415 6ebd 0c0e b03d 4073 b2bd 4e85 a5bd
00000020: f68b e0bd 741a 8cbd 4027 5b3d 1c60 9abd
00000030: a009 f53d c0dd 75bd 6c64 40bd 20cc 06bd
00000040: 409a 103b 7c6b 54bd 00d9 55ba 206e 6ebd
00000050: d830 c8bc ec52 76bd 88ee 833c b2fc fabd
00000060: b630 c03d 04aa 6abd ec7c 4fbd b087 a33c
00000070: 703f ee3c 6a06 9e3d 1a22 dbbd b659 813d
00000080: ae6f a13d 90cf 5dbd 2a35 e7bd 2885 ea3d
00000090: 90e3 9c3d d2c4 fb3d a0cc 80bd f806 c0bd
000000a0: 3a95 fabd 2003 febc b0be 82bd a865 be3c
000000b0: dc4f adbd 5c0a df3d 5e33 883d 1a64 d33d
000000c0: a084 773d 76ae a4bd 7ecf ea3d 96c1 94bd
000000d0: e4b5 cfbd bafa b53d d0aa 32bd f84e b8bd
000000e0: 802b 87ba 70ec a0bc 1448 ebbd 8c3e 48bd
000000f0: b025 6e3c 0014 95bb 7828 a8bd 0ccd cfbd
00000100: 50e7 a5bc 240b ec3d cc42 c9bd 8006 febb
00000110: 8c1d 01bd aca3 663d 923f d83d d084 533c
00000120: 2409 bfbd cea4 f1bd 488d bd3c 103d 163d
00000130: ec66 193d 2cc3 e33d 14a0 123d 08a4 c83c
00000140: 142f dbbd e498 473d 9469 a23d 4658 c13d
00000150: b4a1 51bd 204a a0bb b0ef 52bc 54f2 7b3d
00000160: 48a5 a43c 4821 723d aedd c43d 0c2e 75bd
00000170: 34ff aa3d a0a1 e23d 1cee d23d 140c abbd
00000180: 080e 4b3d ba75 b8bd 809b 1e3d 405a d6bd
00000190: 3a1c fabd d0a2 f93c aa66 b73d 68da 953c
000001a0: a0d6 aebd 1ee4 fbbd 960f efbd 3aef bebd
000001b0: 96f0 fabd c849 ccbd cefc fb3d 0e45 bf3d
000001c0: b43d 27bd c46e e5bd 5092 37bd 8c0d bc3d
000001d0: 50b8 f6bd 1c2f acbd a821 2a3d c6f5 d1bd
000001e0: 2c58 bbbd e06c 11bc e68f b3bd bccb a73d
000001f0: 304c 603c 4ccf 03bd 8ab9 ae3d defa f33d
00000200: a456 7f3d a051 bdbd 6e1c 9a3d a21a b63d
00000210: 8096 303d bc15 153d 285b 73bd c8ff 003d
00000220: e66c c4bd 941e af3d 58d5 b8bd 0031 bbba
00000230: 90f4 90bd 1054 d83c 8038 ad3a 0498 ce3d
00000240: a0d2 3ebd 5a3d fabd 203f 4c3c e269 99bd
00000250: 6061 6cbd ea45 e43d a875 f9bd 9662 cfbd
00000260: f82e 1dbd 0426 df3d 780c f13c 20eb f5bd
00000270: 8823 c03d 9aaf f4bd 3ccd 043d 58ad b9bc
00000280: 804f b3ba c05d 43bd 32c5 9c3d f0e6 0d3d
00000290: ac00 863d 9e2f a0bd c84c 013d 3e47 d8bd
000002a0: aa3f f1bd 20ac a6bd 1880 913d f049 86bd
000002b0: 8050 5a3b f463 e2bd 50f4 70bd 42ad 9f3d
000002c0: 74ed 433d b092 3bbc 006e 293a 26a6 ebbd
000002d0: ea0c 8bbd fcf1 fb3d 206d 28bc 4c7c 5fbd
000002e0: b052 713d 927f 97bd 2023 17bc 1082 503c
000002f0: 9cc0 7fbd 705e cd3d a6b7 abbd 5061 6d3c
00000300: aa2d bebd 943e 273d 9899 d33c 140c 85bd
00000310: ea47 c83d d87b ba3d eaec f53d a452 6c3d
00000320: a8ad 363d c69d a5bd 60bb 2c3d b0c9 e93c
00000330: 607f 2d3d 4813 41bd 48b3 31bd 103d eb3d
00000340: 70ec dcbd 880f cf3d c0df 54bb 7ce8 643d
00000350: c044 35bd 048b 3f3d 00fb 263c 5c3a 4ebd
00000360: 2c73 75bd 86d8 a7bd e0fc 35bc 7486 cebd
00000370: c03d 123d acdc ecbd 2ce6 223d 9033 7e3d
00000380: 1035 353c fc29 2abd b8f3 723d 58e5 4fbd
00000390: 7248 edbd 5008 1bbc 00a1 d1bd 2648 8f3d
000003a0: fc4c 39bd 4a7f 9abd a6f4 a33d 98d1 b83d
000003b0: e876 333d c2cc 803d 846c e93d 0012 593b
000003c0: 4a8c c73d c0dc cebc 2466 923d 2885 e03d
000003d0: b6e2 dabd 8863 28bd 8c06 4ebd 8809 b5bd
000003e0: f0c4 58bd 8424 783d 26ba a5bd 3086 953c
000003f0: 9402 cbbd 9e64 b7bd f0f0 86bc 8c4a c3bd
0.07808836 0.06916307 0.057753265 0.08454415 -0.058126286 0.08596429 -0.087133884 -0.080820665
-0.109641954 -0.06840983 0.05350423 -0.07537863 0.119647264 -0.06002593 -0.04697077 -0.032909513
0.0022064596 -0.051860318 -0.00081576407 -0.058210492 -0.024437353 -0.060137674 0.016104952 -0.12255229
0.09384291 -0.057291046 -0.050656244 0.019962162 0.029082984 0.07716067 -0.10699864 0.06315939
0.07882629 -0.054153025 -0.11289437 0.11451179 0.076605916 0.122934 -0.06289029 -0.09376329
-0.12235494 -0.03100735 -0.06384027 0.023241833 -0.084624976 0.10890648 0.066504225 0.10321827
0.060429215 -0.08041088 0.11465357 -0.07263486 -0.10142115 0.08885713 -0.04361993 -0.08999437
-0.0010312647 -0.019643992 -0.11488357 -0.048887774 0.014535353 -0.0045495033 -0.08210844 -0.101465315
-0.0202519 0.115255624 -0.098271936 -0.0077522397 -0.03152232 0.056308433 0.10559 0.012910083
-0.09327915 -0.11799012 0.023138657 0.036679327 0.03745167 0.111212105 0.035797194 0.024492279
-0.10702339 0.048729792 0.07930294 0.09440665 -0.051179603 -0.004891649 -0.012874529 0.0615104
0.020098343 0.05911377 0.096125945 -0.059858367 0.083494574 0.11065984 0.10299322 -0.08351913
0.049573928 -0.090068296 0.038722515 -0.104664326 -0.12212415 0.030473143 0.089551285 0.01829262
-0.0853703 -0.12299369 -0.11672895 -0.093229726 -0.122529194 -0.0997501 0.12304078 0.09339343
-0.04083033 -0.112027675 -0.04481727 0.09182271 -0.120468736 -0.08407423 0.041536003 -0.10251956
-0.09147677 -0.0088760555 -0.08767681 0.08193156 0.0136900395 -0.032180116 0.085314825 0.119130835
0.062338486 -0.09244084 0.07524954 0.088917986 0.043112278 0.03639768 -0.059413105 0.031493932
-0.09591083 0.08550754 -0.09025067 -0.0014281571 -0.070778966 0.026407272 0.0013215691 0.100875884
-0.046587586 -0.12218733 0.012466222 -0.07490899 -0.05771005 0.111461475 -0.12180644 -0.10126226
-0.03837487 0.10895923 0.02942489 -0.12007737 0.09381777 -0.11947556 0.03242229 -0.022665665
-0.0013680309 -0.04769683 0.076547995 0.034644067 0.06543097 -0.07821582 0.031567365 -0.10560463
-0.11779721 -0.08138299 0.0710451 -0.06557071 0.0033312142 -0.11054221 -0.058826745 0.07796718
0.047833875 -0.011448547 0.00064632297 -0.115063 -0.067895725 0.12302014 -0.010279924 -0.054561898
0.058916748 -0.07397379 -0.009224683 0.012726322 -0.062439546 0.10027778 -0.083846375 0.014488533
-0.092860535 0.040831164 0.025830075 -0.06496444 0.097793415 0.091056526 0.120080784 0.057696
0.044599205 -0.080867335 0.042170882 0.028538555 0.042357802 -0.04713753 -0.043383867 0.11486256
-0.107872844 0.10110384 -0.0032481998 0.055885777 -0.04425502 0.046763435 0.010191679 -0.050348625
-0.05992429 -0.081955954 -0.011107653 -0.10084239 0.03570342 -0.11565527 0.03977029 0.062060893
0.011060014 -0.041543946 0.05931446 -0.05075583 -0.115860835 -0.009462431 -0.102357864 0.06996183
-0.045239434 -0.0754381 0.08005647 0.09024352 0.04381457 0.062890545 0.11397651 0.00331223
0.09743555 -0.025251746 0.07148388 0.109628975 -0.10687773 -0.041110545 -0.050299212 -0.088397086
-0.05292219 0.0605817 -0.080921456 0.018252462 -0.09912601 -0.08954738 -0.01647231 -0.09535703
