unit_tests_workloads/one_bottleneck_no_bias_yes_relu_yes_skip.onnx (onnx, 279760 bytes, 3 tensors)

conv1.weight f4 [64, 256, 1, 1]
0.00017650425 -0.012273647 -0.042172834 -0.05116342 0.034288958 -0.00486248 0.038881645 0.055844784
0.053020597 0.043011703 -0.013078257 -0.054929905 0.0034226328 0.04763159 0.027229212 -0.016564995
0.02645187 -0.05330789 0.039340787 0.023491532 0.0048005357 -0.055426933 -0.048535064 0.02398716
-0.03809561 0.017528005 -0.046339132 -0.048542976 0.02788639 0.014400244 0.04012408 -0.03890676
-0.01324223 0.016730748 0.058719903 0.011464767 -0.03434903 -0.044237047 -0.033333868 -0.0542894
0.050913043 0.022476926 -0.04216186 0.025308423 0.010630436 -0.047136948 -0.00395298 0.051224187
0.05126541 0.040989786 -0.0031038001 -0.0055750385 -0.05424086 -0.058436446 -0.04326524 0.033726707
-0.039028004 0.021818906 -0.010326885 -0.053171113 -0.028998084 -0.043345504 0.0028478205 0.02307178
0.049764074 -0.03113804 0.037699483 -0.04492818 0.05933518 0.032458916 -0.0020769313 -0.030910209
-0.057381585 -0.060321487 0.04621063 0.01630196 -0.04265003 -0.008131504 0.011680849 -0.04608099
0.057234734 0.008903801 -0.017297797 -0.027373716 0.02555976 0.040519208 -0.0561508 0.018409625
0.05255615 0.04929629 0.01668699 0.0019852892 0.0141034275 -0.01620692 -0.054571904 0.032929063
0.05427081 -0.012638226 -0.043216385 0.047724567 -0.017353043 -0.008346714 -0.043258086 0.0030899867
0.02563408 -0.004442133 0.035249166 0.002388589 0.03443651 0.05774024 -0.009967633 -0.05267331
-0.0013828427 0.060186736 0.0036987364 0.03684654 0.057952054 0.05349146 -0.013070762 0.032800898
0.00066165626 0.042981863 0.056833826 0.024851441 0.04685665 -0.048684545 0.013318002 0.042411305
0.045336485 -0.057161935 0.028370284 -0.028325975 0.013889775 0.0542754 0.03405147 0.02933488
-0.03849726 0.0226845 -0.060946427 0.04953132 -0.012674145 -0.008843817 -0.039668858 0.036457866
0.04563208 -0.04745795 -0.051526554 -0.010265835 -0.0068521723 -0.0017324015 0.048508033 0.02842915
0.05877684 0.04969249 -0.030783579 -0.010745108 -0.040750325 0.06060473 0.04672186 -0.026686206
0.018358216 0.04574827 -0.0073169246 -0.0017096847 -0.019039579 0.051199615 0.008176804 -0.04090652
0.0066331774 -0.04010354 0.032990925 0.0600766 -0.037071027 -0.036854483 -0.025228113 0.05362162
-0.042313166 -0.013918787 -0.039871268 -0.037125565 0.0012453496 0.045532025 -0.056045465 0.03157364
-0.051798083 -0.012147285 -0.011593975 -0.036199696 0.061033003 -0.01641114 -0.02302561 -0.057266146
0.01371108 0.051026158 -0.037698045 0.0058803037 0.035246037 -0.058217824 -0.05685766 -0.021643378
0.014169797 -0.0426685 -0.059243575 -0.038938276 -0.0027972162 -0.0020914301 0.051556855 0.046683468
-0.035397664 -0.029573008 0.03924472 -0.037705652 -0.0012709945 0.035705082 0.030603461 0.0123591125
0.05220399 0.026462346 -0.053919777 7.3224306e-05 -0.033119544 -0.024652861 0.024869457 0.045187704
-0.033036172 -0.019540057 0.029217012 -0.021940827 0.049591616 0.030806713 -0.054630093 0.054594874
-0.010805666 0.055045567 0.04492081 -0.046411313 -0.007494837 -0.017933428 -0.02262371 -0.018445417
0.029148422 0.00038418174 0.0065200925 -0.03723544 0.05971104 0.01671961 0.013319574 -0.012065358
-0.0129702985 -0.007792361 -0.019700728 -0.01889921 -0.00422851 -0.015698649 -0.004735261 -0.056273647
00000000: 0014 3939 6817 49bc 6cbd 2cbd bc90 51bd
00000010: 9472 0c3d 7055 9fbb 5c42 1f3d 80bd 643d
00000020: 202c 593d 0a2d 303d 3046 56bc 2efe 60bd
00000030: 404e 603b 5819 433d cc0f df3c 50b3 87bc
00000040: 98b1 d83c 6059 5abd ce23 213d 5071 c03c
00000050: d04d 9d3b 5a07 63bd b4cc 46bd b880 c43c
00000060: 240a 1cbd e496 8f3c 1ace 3dbd 00d5 46bd
00000070: 0072 e43c 00ef 6b3c 2659 243d b25c 1fbd
00000080: f0f5 58bc ec0e 893c 4884 703d b8d6 3b3c
00000090: 92b1 0cbd e831 35bd 1889 08bd 905e 5ebd
000000a0: 328a 503d 8821 b83c eab1 2cbd 9c53 cf3c
000000b0: 482b 2e3c ac12 41bd 0088 81bb 74d0 513d
000000c0: aefb 513d e8e4 273d 2069 4bbb d0ae b6bb
000000d0: aa2b 5ebd 0e5b 6fbd e436 31bd 0425 0a3d
000000e0: d4db 1fbd 90bd b23c 1832 29bc f4c9 59bd
000000f0: 648d edbc 0e8b 31bd 80a2 3a3b 0801 bd3c
00000100: 6ad5 4b3d 3415 ffbc c66a 1a3d 9c06 38bd
00000110: 7209 733d a4f3 043d 201d 08bb 6837 fdbc
00000120: f408 6bbd aa13 77bd 5c47 3d3d b08b 853c
00000130: ccb1 2ebd 003a 05bc 0861 3f3c 6cbf 3cbd
00000140: f86e 6a3d 40e1 113c 1cb4 8dbc d83e e0bc
00000150: b462 d13c 78f7 253d 62fe 65bd c8cf 963c
00000160: 1e45 573d e8ea 493d 28b3 883c a01b 023b
00000170: 1012 673c 60c4 84bc ca86 5fbd a0e0 063d
00000180: 124b 5e3d 9010 4fbc aa03 31bd d67a 433d
00000190: f827 8ebc a8c0 08bc 642f 31bd 6081 4a3b
000001a0: 90fe d13c 508f 91bb 6e61 103d e089 1c3b
000001b0: 4c0d 0d3d 0881 6c3d 484f 23bc f8bf 57bd
000001c0: 8040 b5ba 5e86 763d 8066 723b 66ec 163d
000001d0: 225f 6d3d dc19 5b3d c026 56bc 3c5a 063d
000001e0: 0073 2d3a c00d 303d 96ca 683d 4095 cb3c
000001f0: c2ec 3f3d 7269 47bd c033 5a3c 7ab7 2d3d
00000200: c0b2 393d a222 6abd cc68 e83c e00b e8bc
00000210: f091 633c e24f 5e3d 8e79 0b3d b44f f03c
00000220: 4eaf 1dbd d8d4 b93c f6a2 79bd 5ae1 4a3d
00000230: 38a7 4fbc a8e5 10bc d07b 22bd d854 153d
00000240: b4e8 3a3d 4463 42bd 820d 53bd 0832 28bc
00000250: 3088 e0bb c011 e3ba 5cb0 463d 40e4 e83c
00000260: fcbf 703d 5a8a 4b3d d82d fcbc 400c 30bc
00000270: d0e9 26bd aa3c 783d 6c5f 3f3d 089d dabc
00000280: f863 963c 8a62 3b3d d0c2 efbb 8017 e0ba
00000290: e4f8 9bbc b0b6 513d 00f8 053c 988d 27bd
000002a0: 205b d93b 9c43 24bd 7e21 073d e212 763d
000002b0: cad7 17bd baf4 16bd 30ab cebc 58a2 5b3d
000002c0: 9250 2dbd a00b 64bc 0e50 23bd fa10 18bd
000002d0: 003b a33a ca7f 3a3d ee8f 65bd 5c53 013d
000002e0: 3a2a 54bd 6805 47bc a8f4 3dbc 2246 14bd
000002f0: befd 793d a870 86bc 34a0 bcbc e88f 6abd
00000300: 70a4 603c ce00 513d 4469 1abd 90af c03b
00000310: 265e 103d d075 6ebd 94e3 68bd 744d b1bc
00000320: 7028 683c 2ac5 2ebd 64a9 72bd be7d 1fbd
00000330: 8051 37bb 6010 09bb 482d 533d 2a37 3f3d
00000340: 24fd 10bd 1843 f2bc 12bf 203d 3e71 1abd
00000350: 8097 a6ba 7e3f 123d 1cb4 fa3c e07d 4a3c
00000360: dad3 553d 90c7 d83c fcda 5cbd 0090 9938
00000370: 5ca8 07bd ccf4 c9bc 08bb cb3c be16 393d
00000380: f050 07bd 7812 a0bc 8458 ef3c 40bd b3bc
00000390: 9420 4b3d 5c5e fc3c cec3 5fbd e09e 5f3d
000003a0: 400a 31bc 7677 613d e2fe 373d ca19 3ebd
000003b0: 4097 f5bb 20e9 92bc 5c55 b9bc d81a 97bc
000003c0: acc8 ee3c 006c c939 80a6 d53b 3084 18bd
000003d0: 9093 743d 90f7 883c 583a 5a3c c8ad 45bc
000003e0: 6081 54bc 1057 ffbb 6c63 a1bc 84d2 9abc
000003f0: 508f 8abb 749a 80bc 402a 9bbb 327f 66bd

conv2.weight f4 [64, 64, 3, 3]
0.039035484 0.02154478 0.012869284 -0.022121366 -0.017349204 0.03235448 -0.016459987 -0.02632299
-0.025012022 0.021599865 -0.00639162 0.018433642 -0.021593109 0.02680639 0.01629123 -0.038028874
-0.00985531 -0.027295768 0.0131229265 0.023462718 -0.0018851509 -0.0091233505 0.035339035 0.031283893
0.03310567 0.037527576 -0.03844167 0.03693965 -0.018058788 0.021515936 0.0020548254 0.019484147
-0.040240508 -0.03565616 0.018844511 0.031138506 0.020987999 0.001992628 0.040596783 0.01722008
-0.038537197 0.013075709 -0.0013524145 0.010586133 -0.023163762 0.007951821 -0.03116127 -0.027010735
-0.02379429 -0.03498067 0.020797973 0.006559362 0.03279896 0.024008712 -0.03491296 -0.03837002
-0.038905166 0.01124627 0.029868677 -0.013321619 -0.017337631 0.040629014 -0.041568108 0.0058187745
0.023491036 0.020438533 -0.027642965 0.027526554 -0.035432182 0.022420153 -0.0061449707 -0.003190597
0.02271844 0.040156916 -0.0020089895 -0.007839571 0.024980968 0.014797236 -0.039389886 0.03731381
0.041283917 0.008272639 0.03526958 -0.04114751 -0.030974006 0.008559744 0.028601583 -0.03377302
0.009922664 0.021473264 0.010948236 0.0043332926 0.026654568 0.03410103 0.010701145 0.040482923
-0.041202225 0.039498772 -0.024570685 0.023124432 0.0020912588 0.005551636 0.041503318 -0.028917154
0.022113021 0.03695012 -0.038977996 0.035967782 -0.0016910981 -0.0134572685 -0.0036032896 -0.010571128
-0.0061086915 0.008647775 -0.038905755 -0.015545229 -0.030473521 0.040821575 0.010527065 0.022133779
-0.03904873 0.029021006 0.0256796 0.030842787 0.011713272 -0.0053915433 0.0039164424 0.03112724
0.00065003335 -0.014346009 0.03779354 -0.040646493 -0.011229491 0.023759753 -0.004987702 -0.0012166451
-0.008093442 -0.0342644 0.020073276 -0.030703843 -0.025481805 0.028723434 -0.02003111 -0.022055876
0.040230617 -0.041001253 0.01742584 -0.011702901 0.017791232 -0.0032633743 0.005147338 0.033842362
0.0041927844 0.03713491 0.0017378032 0.00042016804 0.029171985 0.024724614 0.010195836 0.012837748
0.014521281 0.012321776 -0.0037222407 0.016352486 0.025805494 -0.009300019 0.032580473 -0.0020398002
-0.035429403 0.0039887032 -0.015775707 -0.022277584 -0.02035971 0.020239577 0.020460978 0.037410002
0.030391261 0.024052894 -0.0007145604 0.026377615 0.03216928 -0.01915077 0.03069311 0.012605335
0.027906388 0.0013024261 0.028945923 0.01321734 -0.018832043 0.014586812 0.0028680116 -0.028899994
0.032206606 0.028506339 -0.020916626 0.0075740516 -0.003212621 -0.005178402 -0.015944507 0.035586562
-0.034533016 -0.03144076 0.019823685 0.023704734 -0.026268896 0.01717044 0.019287035 0.010488719
0.02331376 -0.038453244 0.021477059 0.014318934 -0.016675493 -0.01935122 0.0055386126 0.03136018
-0.038466237 -0.038718343 -0.012256856 -0.029005801 -0.010670985 5.85864e-05 -0.017266601 0.03025205
-0.0021739106 0.033281114 0.014408733 0.03652212 -0.031526923 0.014735684 -0.016454628 -0.026419804
-0.0006957799 0.041087896 0.016919961 0.012135005 -0.0012365382 0.0072577796 -0.026961243 0.010223578
-0.008422097 0.018593809 -0.010194367 -0.020366883 0.022526374 0.0007388344 0.016954541 -0.04022565
-0.021579495 0.022211745 -0.0061650774 0.041440945 -0.019409224 -0.0052555203 0.019089252 -0.0006085138
00000000: ace3 1f3d ae7e b03c b0d9 523c de37 b5bc
00000010: eb1f 8ebc 2286 043d 18d7 86bc 50a3 d7bc
00000020: 03e6 ccbc 33f2 b03c cb70 d1bb 2602 973c
00000030: 08e4 b0bc 1399 db3c 3075 853c 2ac4 1bbd
00000040: 2b78 21bc 609b dfbc 8b01 573c e334 c03c
00000050: 2b17 f7ba 1b7a 15bc aabf 103d 8a23 003d
00000060: d099 073d 84b6 193d 0375 1dbd 084e 173d
00000070: 06f0 93bc 3042 b03c 40aa 063b 389d 9f3c
00000080: 3bd3 24bd 320c 12bd ce5f 9a3c 2e16 ff3c
00000090: 06ef ab3c c096 023b d048 263d 2011 8d3c
000000a0: 2ed9 1dbd 803b 563c 8043 b1ba 7671 2d3c
000000b0: eec1 bdbc 5b48 023c eb45 ffbc 9e45 ddbc
000000c0: 3eec c2bc e447 0fbd 8360 aa3c ebef d63b
000000d0: 3458 063d ebad c43c e400 0fbd e229 1dbd
000000e0: 065b 1fbd 4642 383c 28af f43c eb42 5abc
000000f0: a607 8ebc 9c6a 263d 5243 2abd 6bab be3b
00000100: 4670 c03c b66e a73c 8073 e2bc 5e7f e13c
00000110: 5621 11bd 78aa b73c c05b c9bb 5619 51bb
00000120: 061c ba3c 947b 243d 40a9 03bb 8b71 00bc
00000130: e3a4 cc3c 1b70 723c 4a57 21bd 5ed6 183d
00000140: 5319 293d f689 073c d676 103d 4b8a 28bd
00000150: 33bd fdbc 2b3e 0c3c de4d ea3c 9455 0abd
00000160: ab92 223c b3e8 af3c 3b60 333c 4bfe 8d3b
00000170: ae5a da3c 86ad 0b3d db53 2f3c 6cd1 253d
00000180: aac3 28bd 77c9 213d 7648 c9bc 736f bd3c
00000190: 800d 093b 80ea b53b 62ff 293d abe3 ecbc
000001a0: 5e26 b53c 0259 173d 64a7 1fbd f452 133d
000001b0: d6a7 ddba e07b 5cbc 2b25 6cbb 8632 2dbc
000001c0: 6b2b c8bb 66af 0d3c a45b 1fbd 6bb1 7ebc
000001d0: 9ba3 f9bc 8634 273d b679 2c3c e651 b53c
000001e0: 90f1 1fbd 76bd ed3c 065e d23c 03aa fc3c
000001f0: 06e9 3f3c 8bab b0bb 8055 803b 8efe fe3c
00000200: 0067 2a3a 860b 6bbc 66cd 1a3d f07c 26bd
00000210: e6fb 37bc d0a3 c23c e06f a3bb d677 9fba
00000220: 5b9a 04bc d458 0cbd b670 a43c a086 fbbc
00000230: 38bf d0bc 684d eb3c 4818 a4bc 86ae b4bc
00000240: dcc8 243d eef0 27bd a3c0 8e3c 86bd 3fbc
00000250: ebbe 913c 56de 55bb 00ab a83b 4a9e 0a3d
00000260: a063 893b c61a 183d 00c7 e33a 004a dc39
00000270: 16fa ee3c 468b ca3c 700c 273c 6b55 523c
00000280: abea 6d3c 46e1 493c d6f0 73bb a6f5 853c
00000290: 0b66 d33c 1b5f 18bc 1a73 053d 2bae 05bb
000002a0: 6c1e 11bd abb3 823b 0e3c 81bc 7b7f b6bc
000002b0: 68c9 a6bc 78cd a53c c89d a73c 3b3b 193d
000002c0: 18f7 f83c 930a c53c 5651 3bba de15 d83c
000002d0: efc3 033d 13e2 9cbc 1e70 fb3c 9b86 4e3c
000002e0: f09b e43c 2bb6 aa3a 0020 ed3c 8b8d 583c
000002f0: a845 9abc 86fd 6e3c 40f5 3b3b aebf ecbc
00000300: 13eb 033d 2086 e93c 5859 abbc c02f f83b
00000310: d68a 52bb 96af a9bb 0e9e 82bc 37c3 113d
00000320: 7e72 0dbd 07c8 00bd 4865 a23c 6e30 c23c
00000330: de31 d7bc 06a9 8c3c d8ff 9d3c e0d8 2b3c
00000340: 80fc be3c 2681 1dbd a8f0 af3c f699 6a3c
00000350: 0b9b 88bc 7386 9ebc 407d b53b 8873 003d
00000360: c68e 1dbd 2097 1ebd fbd0 48bc 939d edbc
00000370: 5bd5 2ebc abba 7538 b072 8dbc 26d3 f73c
00000380: 2b78 0ebb c751 083d 9b12 6c3c 3898 153d
00000390: 6022 01bd f06d 713c dbcb 86bc 586e d8bc
000003a0: 0065 36ba c84b 283d bb9b 8a3c e6d1 463c
000003b0: 5613 a2ba abd2 ed3b d3dd dcbc cb80 273c
000003c0: d6fc 09bc 0b52 983c 4606 27bc 73d8 a6bc
000003d0: 3b89 b83c 56ae 413a 40e4 8a3c a7c3 24bd
000003e0: 7bc7 b0bc 68f5 b53c 6b04 cabb fbbd 293d
000003f0: 1800 9fbc 8036 acbb 1061 9c3c ab84 1fba

conv3.weight f4 [256, 64, 1, 1]
-0.02873005 0.044919193 0.038441896 -0.09368406 -0.006412506 -0.00859502 0.027209908 0.020757556
-0.041563362 -0.08992435 -0.034186706 -0.08175254 -0.005664289 -0.06405684 0.09795728 -0.108153775
0.060799465 0.03771791 0.016443804 -0.049298435 -0.039549544 -0.016122177 -0.067705244 0.08780393
0.06270227 0.08335194 -0.072213456 -0.087786645 -0.06556776 0.034870565 0.09323533 -0.0045080036
0.01290144 -0.103681564 0.05482927 -0.04695125 -0.103455216 -0.119333714 0.08108789 0.070886225
0.10519211 0.050954103 0.110991046 0.12481055 -0.07083982 -0.036397398 -0.046682328 -0.09703073
-0.033623025 -0.01637344 -0.09497981 0.07600266 0.052007616 0.08345097 0.040680796 0.06846741
0.12417643 0.006491795 0.002081126 0.102140695 0.050574988 -0.016297027 0.011196822 -0.09088126
0.10629742 -0.105266824 0.06160836 -0.09008533 0.07198338 0.07521677 0.09378998 0.07403551
0.061493307 0.07911198 0.10250449 0.119278595 -0.057095572 0.054166794 0.11121577 0.031803146
0.056340933 0.02526918 0.007475257 0.03682086 0.098355114 0.10929321 -0.09769674 0.1064
-0.05423051 0.120797426 0.08095759 -0.02078715 0.07612006 -0.03820218 0.04469809 0.10043424
0.096764594 -0.0058751553 -0.021343693 0.06848273 0.06036848 -0.10185023 -0.08683251 0.05348268
0.09999983 -0.030902848 -0.0815884 0.09679331 0.050579816 -0.04715766 0.0038940161 -0.06610131
0.042387605 -0.027620375 -0.06005992 0.1171934 -0.04522936 0.035597846 0.0847525 0.12166689
-0.042299807 0.021848768 0.011673525 0.011105537 -0.061610505 0.057782263 -0.056815073 0.11203621
-0.07961123 0.11706029 -0.0053486824 0.07222611 0.0067918748 0.06493676 0.10745229 -0.10861236
0.09781803 -0.07868722 0.051892966 -0.11881073 0.06448844 -0.06367448 0.0070679635 -0.067492455
-0.10767117 -0.0008214861 -0.028257757 0.11790697 -0.040722087 0.08760773 -0.035792515 -0.06995477
0.10592595 0.08223629 0.105446056 0.056901366 -0.039040014 0.03293124 0.0820497 -0.08521931
0.05749041 -0.034289002 -0.09776929 0.007963732 0.08268835 0.015204191 -0.11474612 -0.042343035
-0.0036224127 -0.017444119 -0.10272162 -0.02701813 -0.043929398 -0.030742273 -0.05444725 0.10137099
-0.048014745 -0.025707737 -0.05429423 0.04351908 0.11447194 -0.08487593 0.036827132 0.11927685
0.040445626 -0.052802727 0.019526526 -0.051311553 -0.09577815 -0.01709406 0.015115514 0.08540566
-0.06282881 0.10061516 0.047309265 -0.0044138134 0.024172053 0.060155153 -0.044238612 0.0245229
-0.026359335 0.08150932 0.018557742 -0.103742555 -0.055421695 0.025564656 0.07000324 -0.00025765598
-0.012071729 0.10750578 -0.110459685 -0.097525656 -0.11098634 -0.06794241 0.047340915 0.023246855
-0.081989974 -0.09086695 0.105701536 0.03913805 -0.11899331 0.06971963 -0.03195493 0.020960405
-0.11707464 -0.0010746866 0.062323883 0.060956016 0.008112386 -0.07246667 0.08597657 0.016253889
-0.011046052 -0.0239487 0.08925712 -0.1100834 -0.06798948 -0.09259874 0.0026657283 0.10818303
-0.107280225 -0.029465243 -0.0326332 -0.09107956 0.10997261 -0.10861242 0.09172155 0.07590978
-0.0520951 -0.066249326 -0.017135948 0.07103391 0.045661256 0.07237528 -0.0129502565 -0.035629272
00000000: 485b ebbc 30fd 373d 4075 1d3d 6edd bfbd
00000010: 0020 d2bb 20d2 0cbc 50e7 de3c c00b aa3c
00000020: 583e 2abd 422a b8bd 5c07 0cbd e06d a7bd
00000030: 809b b9bb 3c30 83bd d49d c83d ba7f ddbd
00000040: dc08 793d 187e 1a3d 28b5 863c 28ed 49bd
00000050: b4fe 21bd a812 84bc 0ca9 8abd 8cd2 b33d
00000060: 0c6a 803d 6cb4 aa3d a6e4 93bd 7cc9 b3bd
00000070: 6448 86bd 70d4 0e3d 2af2 be3d e0b7 93bb
00000080: 9060 533c 0057 d4bd a894 603d f44f 40bd
00000090: 54e0 d3bd 3c65 f4bd 6811 a63d cc2c 913d
000000a0: f66e d73d 40b5 503d 464f e33d ac9c ff3d
000000b0: 7814 91bd 7015 15bd f835 3fbd 0cb8 c6bd
000000c0: 4cb8 09bd 9821 86bc c684 c2bd 48a7 9b3d
000000d0: f005 553d 58e8 aa3d e8a0 263d a438 8c3d
000000e0: 3650 fe3d 20b9 d43b 8063 083b 242f d13d
000000f0: b827 4f3d 5881 85bc e072 373c f41f babd
00000100: 76b2 d93d 2296 d7bd 0c59 7c3d a87e b8bd
00000110: 066c 933d 400b 9a3d f614 c03d ee9f 973d
00000120: 68e0 7b3d 7605 a23d e0ed d13d 5648 f43d
00000130: 0cdd 69bd 00de 5d3d 18c5 e33d 0444 023d
00000140: c0c5 663d 5001 cf3c 00f3 f43b 78d1 163d
00000150: 686e c93d 1ed5 df3d 3a15 c8bd 3ee8 d93d
00000160: d020 5ebd a464 f73d 18cd a53d d049 aabc
00000170: d6e4 9b3d e479 1cbd 5815 373d 78b0 cd3d
00000180: 842c c63d 6084 c0bb f8d8 aebc ac40 8c3d
00000190: f044 773d da96 d0bd 3ed5 b1bd a810 5b3d
000001a0: b6cc cc3d f827 fdbc d217 a7bd 923b c63d
000001b0: c82c 4f3d 6428 41bd c032 7f3b 2060 87bd
000001c0: a09e 2d3d 2044 e2bc 6401 76bd 1803 f03d
000001d0: 6c42 39bd 0ccf 113d b892 ad3d 7e2c f93d
000001e0: 9042 2dbd 30fc b23c 5042 3f3c 00f4 353c
000001f0: 4c5b 7cbd 18ad 6c3d ecb6 68bd 3e73 e53d
00000200: 360b a3bd 4ebd ef3d 0044 afbb 48eb 933d
00000210: 608e de3b 90fd 843d f20f dc3d 2870 debd
00000220: d254 c83d c426 a1bd b88d 543d 0a53 f3bd
00000230: 8412 843d c467 82bd 609a e73b 7c39 8abd
00000240: b482 dcbd 0059 57ba d07c e7bc 3679 f13d
00000250: 34cc 26bd ae6b b33d 2c9b 12bd 7244 8fbd
00000260: b4ef d83d 806b a83d 1af4 d73d 6811 693d
00000270: 6ce8 1fbd e8e2 063d ac09 a83d 7687 aebd
00000280: 107b 6b3d a072 0cbd 443b c8bd 507a 023c
00000290: 8258 a93d 001b 793c 0400 ebbd e46f 2dbd
000002a0: 0066 6dbb f8e6 8ebc b65f d2bd 2055 ddbc
000002b0: 50ef 33bd 38d7 fbbc 1404 5fbd 989b cf3d
000002c0: 1cab 44bd 0899 d2bc a063 5ebd 1041 323d
000002d0: 4470 ea3d 6ed3 adbd 0cd8 163d 6c47 f43d
000002e0: 50aa 253d ac47 58bd 18f6 9f3c 102c 52bd
000002f0: 5627 c4bd d808 8cbc 10a7 773c 2ae9 ae3d
00000300: 64ac 80bd 520f ce3d 5cc7 413d c0a1 90bb
00000310: 7804 c63c 4065 763d 8c33 35bd 40e4 c83c
00000320: 88ef d7bc 5cee a63d 6806 983c fa76 d4bd
00000330: dc01 63bd f86c d13c dc5d 8f3d 0016 87b9
00000340: 80c8 45bc fe2b dc3d b038 e2bd 88bb c7bd
00000350: ce4c e3bd 6425 8bbd 8ce8 413d 3070 be3c
00000360: 5cea a7bd 7418 babd 0c7a d83d 384f 203d
00000370: c4b2 f3bd 2ac9 8e3d 2ce3 02bd 28b5 ab3c
00000380: d4c4 efbd 80dc 8cba 5447 7f3d 04ad 793d
00000390: d0e9 043c 6869 94bd 7c14 b03d e026 853c
000003a0: 80fa 34bc 1030 c4bc 70cc b63d 6873 e1bd
000003b0: 123e 8bbd 68a4 bdbd 80b3 2e3b 108f dd3d
000003c0: bcb5 dbbd 1861 f1bc 64aa 05bd ec87 babd
000003d0: 5239 e13d 3070 debd 82d8 bb3d 9676 9b3d
000003e0: ac61 55bd baad 87bd b060 8cbc 3a7a 913d
000003f0: 4c07 3b3d 7e39 943d 502d 54bc 00f0 11bd
