unit_tests_workloads/test_6_workload.onnx (onnx, 886300 bytes, 6 tensors)

conv1.weight f4 [64, 64, 3, 3]
000000 7b 05 1d bd ab ab 25 3a 00 71 2e ba 2e 48 a8 bc
       -0.038335305 0.0006319831 -0.00066544116 -0.02054223
000010 30 39 28 3d 0a 67 27 bd 5e 7c fe 3c 8e 88 0b 3d
       0.041070163 -0.04086975 0.031065162 0.034065776
000020 00 62 c5 b9 76 59 e6 bc 04 82 04 bd d4 69 0e bd
       -0.00037647784 -0.02811883 -0.032350555 -0.034768894
000030 3b b7 ac 3c 30 21 a9 bc 60 31 92 3b 7b 49 12 3d
       0.021083465 -0.020645708 0.0044614524 0.035714608
000040 c0 f5 04 bb a0 cd c8 3c 82 f9 0a bd 4b af a3 bb
       -0.002028808 0.024512112 -0.033929355 -0.004995262
000050 38 00 22 3d 7f 67 29 3d 4b c9 c2 bb 76 ce 0d bc
       0.03955099 0.041358467 -0.005944406 -0.008655181
000060 10 06 d1 bc f0 57 74 bc 56 83 9d 3c 36 37 69 bc
       -0.025515586 -0.014913544 0.019227665 -0.014234355
000070 46 35 74 3c 68 a5 b6 3c 93 2c 07 bd 7b da a9 3c
       0.0149052795 0.022295669 -0.033001494 0.020734062
000080 96 64 20 bd ab 8e ac ba 04 1e 16 3d d0 40 31 bc
       -0.039158426 -0.0013165077 0.03664972 -0.010818675
000090 13 a2 b7 bc 28 e2 f8 3c a0 69 e5 bc a6 38 20 3c
       -0.02241615 0.030381277 -0.028004467 0.009779131
0000a0 73 06 da 3c 70 d6 6b 3c b6 a4 a4 3b ab b2 e9 ba
       0.026614403 0.014394388 0.005024518 -0.0017829736
0000b0 b6 36 24 bd 46 a4 c6 bc 56 69 9a bc 96 1b 1d bd
       -0.04009124 -0.024248254 -0.018849056 -0.038356386
0000c0 40 ef 00 3b 58 7d 07 3d d6 de ed 3a 40 f0 00 bd
       0.0019673854 0.03307852 0.0018148075 -0.03147912
0000d0 ae f5 8e bc 83 35 d8 3c ce 72 ea 3c 36 ff 58 3c
       -0.017451134 0.026392704 0.028619196 0.013244441
0000e0 18 03 9c bc 78 95 b1 3c 0f 8c 27 bd b6 e1 b2 bb
       -0.019044444 0.021677718 -0.040905055 -0.0054590357
0000f0 96 6c cd bc de c2 9c 3c e8 0e 2a 3d 38 b3 0d bd
       -0.025076192 0.019135889 0.041518122 -0.034594744
000100 2e 6d 10 3d e6 7b 45 bc 16 bb 0c 3d 2e 9a cf bc
       0.035260372 -0.0120534655 0.034358107 -0.025342073
000110 33 9c 01 bd 93 e4 de 3c 28 b0 9e bc b0 20 1c 3c
       -0.031643104 0.027208602 -0.019371107 0.009529278
000120 4b 48 6d bc ee 47 a2 3c 7b 30 90 3c 00 9b f9 3a
       -0.014482568 0.01980969 0.017601242 0.0019043386
000130 ff 51 14 3d 27 60 0a bd 9b 97 88 3c 76 b8 68 3c
       0.03621101 -0.033783104 0.016673854 0.014204135
000140 e0 79 95 bc 68 13 81 3c ab 31 f4 3c bb a3 46 bc
       -0.018246591 0.015756324 0.02980884 -0.012123997
000150 de 39 99 bc ae fb e0 3c 1b 24 0f bd 5b 3d 24 3d
       -0.018704351 0.02746376 -0.034946542 0.040097576
000160 a0 46 fe bc 68 c5 1e bd d0 fc 13 3d 5e 52 fa bc
       -0.031039536 -0.03876248 0.036129773 -0.030556854
000170 50 18 46 bc 0b 85 ee 3c be 01 a2 bc ef c1 1a bd
       -0.0120907575 0.029116174 -0.019776221 -0.037782606
000180 80 9f e2 3c 2e 69 bf 3c ab 4f 02 3b 6b 1e 24 3c
       0.027663946 0.023365583 0.0019883912 0.010017018
000190 2e 99 12 3d 3f 33 28 bd 58 30 b2 bc 9b 58 e3 3c
       0.035790615 -0.041064497 -0.021751568 0.027752211
0001a0 a8 9e 8a bc 08 18 d1 bc a6 ea 18 3d ab ac d9 39
       -0.016921356 -0.025524154 0.037333153 0.00041518113
0001b0 2e 3e 20 3d db 6b 1c bd 16 20 c8 3c 46 8e a8 3c
       0.0391218 -0.038188796 0.024429362 0.020575654
0001c0 e6 99 ac bc 16 eb 99 3c 54 7c 21 bd 46 eb 10 bd
       -0.021069478 0.018788856 -0.03942521 -0.035380624
0001d0 de eb 11 bd a0 1d c9 3b e7 8a 0c bd 96 c1 16 bd
       -0.03562533 0.006137565 -0.034312155 -0.03680571
0001e0 cb 01 00 3c 56 e7 05 3c 00 0d d4 bb ab 91 99 3a
       0.0078129275 0.008172831 -0.0064712763 0.0011716386
0001f0 9b 5d 74 3c 3e d1 25 bd 96 68 d8 bb b0 e8 f8 3c
       0.014914895 -0.040482752 -0.0066042645 0.030384392
000200 9b 8b 36 3c a8 4b 23 3d 0b bc 0c 3c 78 77 e9 3c
       0.011141683 0.039867073 0.008589755 0.02849935
000210 bb c3 a1 bc eb 12 cd bb 30 5a a8 3c a0 3c 05 3c
       -0.019746652 -0.0062583587 0.020550817 0.00813213
000220 56 40 75 3b eb 30 b5 3b 6e 1d dd bc bf ef 17 bd
       0.003742238 0.005529513 -0.026991572 -0.037093874
000230 c3 d2 a1 3c 6c fd 07 3d f8 04 a2 bc fe 9d 18 3d
       0.01975382 0.033200666 -0.01977776 0.037260048
000240 db b4 d3 bc 8b 13 f2 bc 0b e1 e6 bc 00 a8 cb 39
       -0.025843075 -0.029550334 -0.02818348 0.00038844347
000250 ae e0 f0 3c 7a 8d 25 3d db b5 11 bc c8 68 f0 bc
       0.02940401 0.040418126 -0.008893455 -0.029346839
000260 00 b9 25 bb a0 77 95 bb 80 03 a5 3a 9e 78 f2 3c
       -0.002528727 -0.0045613796 0.0012589544 0.02959853
000270 f6 b7 f8 bc 7b 43 d8 bc db 3e 6e 3c d7 42 20 bd
       -0.030361157 -0.026399365 0.014541353 -0.039126243
000280 d0 c9 91 bc 50 bb 13 bd 56 f8 1d bc de d0 d7 bc
       -0.017796427 -0.036067307 -0.009641727 -0.026344713
000290 20 2b 8a bc 50 36 21 bc b6 41 77 3c 60 12 35 bc
       -0.016866267 -0.009839609 0.01509135 -0.011051744
0002a0 43 2d c6 bc 56 55 1e 37 ce 33 c0 bc d8 05 ff bc
       -0.024191504 9.437403e-06 -0.023462202 -0.031130716
0002b0 56 58 c2 3c 6b 6f b6 bb b0 90 47 3c 24 b0 13 3d
       0.023723762 -0.0055674813 0.012180492 0.036056653
0002c0 70 9d 39 bc e0 5a f6 3b 10 c3 3d 3c b3 91 f0 bc
       -0.01132904 0.0075181574 0.011582151 -0.02936635
0002d0 1a 01 16 bd ab f3 b7 bb 6e 7e fb 3c 06 b3 d5 bc
       -0.036622144 -0.0056137643 0.030699935 -0.026086342
0002e0 d2 2a 04 3d e0 5e 92 3c 2b f8 1b bb 8b d9 19 3d
       0.0322674 0.017867506 -0.0023799043 0.03756098
0002f0 76 d4 f9 3c fb 7b 91 bc 0b 5f 35 bc e3 04 d9 3c
       0.030496817 -0.017759314 -0.011070023 0.026491588
000300 d0 22 0c 3d b0 64 fc 3c d0 ac 58 3c e8 4a a6 bc
       0.034212887 0.03080973 0.013224795 -0.02029939
000310 cb 70 84 bc c0 b6 b8 3c 83 ad cb 3c 40 7e cf 3b
       -0.016167065 0.02254808 0.02486301 0.006332189
000320 9b a2 36 bc 96 90 b2 bb 16 44 27 3d 1b 40 82 bc
       -0.011147167 -0.005449365 0.040836416 -0.015899708
000330 7b 1e 10 3c ce 5c a7 3c 6b 1a 20 bb 2b 09 11 bb
       0.00879633 0.020429995 -0.002442981 -0.0022130709
000340 88 7d 14 3d c0 51 49 bb e8 43 fb 3c 6e f3 de bc
       0.03625253 -0.0030718893 0.030672029 -0.027215686
000350 3c de 1c bd 4b 60 5d bc 96 ce 23 3d 58 d6 81 3c
       -0.038297877 -0.013511728 0.039991938 0.015849277
000360 d6 f0 9b ba db 4a 37 bc 26 6b d9 3c 36 7b aa bb
       -0.0011897336 -0.0111872805 0.02654035 -0.005202676
000370 20 de f7 bb 24 51 28 bd 2e 35 da bc 93 ae 9f 3c
       -0.007564321 -0.041093007 -0.026636686 0.019492423
000380 7e 90 06 3d 8e 83 8f 3c eb 5f b6 3c bc f2 08 bd
       0.032852642 0.017518785 0.022262534 -0.033434615
000390 3b 91 e1 3c bc ba 07 bd 06 bf b5 bc 0b 0f e9 3b
       0.027535072 -0.03313707 -0.022185814 0.007112389
0003a0 ab bd 7a 3c e0 98 a2 bb 8c 83 0d 3d 76 91 ae 3b
       0.015304009 -0.004962072 0.03454928 0.005327399
0003b0 6b 7c 75 3c a0 34 6b bc 00 7a 0e bc 30 7f f4 3c
       0.014983277 -0.0143558085 -0.008696079 0.029845804
0003c0 b6 ff ca bc 8f 5b 27 3d 70 5c b2 bc c6 a8 a6 bc
       -0.024780136 0.0408588 -0.021772593 -0.02034415
0003d0 7b 07 c9 3c 66 b5 b5 bc 3b fb 7e 3c 4a 98 19 bd
       0.0245397 -0.022181224 0.015562828 -0.03749875
0003e0 ab 26 b5 3b ca 8c 24 bd ea 5e 22 bd 48 9e f1 3c
       0.005528291 -0.04017333 -0.0396413 0.02949442
0003f0 1a 44 2a bd c0 00 a7 bc 13 3f dd bc 6b 2b ac bb
       -0.041568853 -0.0203861 -0.027007615 -0.0052541993

conv2.weight f4 [64, 64, 3, 3]
000000 a6 ec 0b 3d 60 05 f3 bb a3 17 a1 3c e4 7b 15 bd
       0.034161232 -0.0074164122 0.019664591 -0.036495104
000010 b6 1f 1e bc bb bc a5 3c 2b b8 c5 bc 6b 45 63 3c
       -0.009651115 0.020231595 -0.02413567 0.013871531
000020 bb 98 9a bc 8b 50 26 bc f6 e4 54 3c ab 94 0f 3c
       -0.018871656 -0.010151039 0.012994042 0.008763473
000030 ab 79 97 3c 18 db 04 bd e8 96 a0 bc fb e9 ff bc
       0.018490633 -0.032435507 -0.019603208 -0.0312395
000040 36 82 18 3c a3 15 ba bc d3 49 97 bc 8b 4a ec bc
       0.009308388 -0.022715395 -0.01846782 -0.028844139
000050 1b 03 b6 3c 38 6d 10 bd 23 07 9f 3c 26 ea 78 3c
       0.022218278 -0.03526041 0.019412583 0.015192544
000060 6c 82 19 bd d0 ee ed 3c cb 88 a4 bb b0 7b 8c bc
       -0.037477896 0.029044539 -0.00502119 -0.017148823
000070 0b 34 a7 bb b0 29 04 3d 0c c2 22 bd 5f 6f 16 3d
       -0.0051026396 0.03226632 -0.03973584 0.036727306
000080 76 e8 a8 bb 16 eb 6f 3c 56 a4 94 bc 60 5f ce 3c
       -0.0051546646 0.014643451 -0.018144768 0.025191963
000090 20 29 7a bc ab df a4 3c db 76 11 3c c6 b3 21 3c
       -0.015268594 0.020126184 0.008878435 0.0098695215
0000a0 80 f9 f5 3a a0 e4 fb bb 9b eb 14 3c 80 64 da bb
       0.0018766373 -0.0076871663 0.009089376 -0.0066648126
0000b0 6b 33 2a bb 07 5e 09 3d ab 45 43 3a 27 7f 1b 3d
       -0.002597059 0.033536937 0.0007449041 0.03796306
0000c0 47 b9 13 bd e3 74 f8 bc ab b6 fc 3c 2b 1a fe ba
       -0.036065366 -0.030329173 0.030848822 -0.0019386461
0000d0 40 ab 01 bc a6 69 04 3c 08 76 a4 3c 40 86 8f bc
       -0.007914364 0.008081829 0.020075813 -0.01752007
0000e0 a6 4b 2a bd c7 3b 28 bd e3 89 f4 bc aa d6 1d 3d
       -0.04157605 -0.041072633 -0.029850906 0.038534798
0000f0 40 b9 72 3c 5b 16 09 3c 68 da 1a 3d 00 c0 a2 b8
       0.014814675 0.008367146 0.037805945 -7.760525e-05
000100 53 ea 29 bd 58 9b 15 3d ae aa c2 bc b0 7c 9d bc
       -0.041483235 0.0365251 -0.023763027 -0.019224495
000110 c6 73 a6 3c 88 44 fe 3c d6 1c 54 3b e7 55 07 bd
       0.020318877 0.031038538 0.003236582 -0.033040907
000120 9e 63 93 bc 66 d4 0f bc e6 27 f2 3c 10 d4 e3 3c
       -0.017991837 -0.008778667 0.02956004 0.02781108
000130 fb 6e 88 3c 40 20 82 3c 0e 45 b1 bc 30 f6 df 3c
       0.016654482 0.015884519 -0.021639373 0.027339071
000140 76 3e 61 3c 86 f7 27 bd 00 49 0c 3b 7b 48 10 3d
       0.013747802 -0.04100754 0.0021405816 0.035225373
000150 ab df 4e bc 0b fc d4 bb d6 7a 66 bb 3e 64 c6 3c
       -0.012626569 -0.0064997724 -0.003516843 0.024217721
000160 ac b2 1b 3d 16 ca 14 bb e8 26 90 bc 56 57 e5 3c
       0.03801219 -0.002270346 -0.017596677 0.027995747
000170 13 2a ed 3c cb 7e 24 3c be 38 27 bd 8b f7 f5 bc
       0.028950727 0.010039995 -0.040825598 -0.030025264
000180 08 65 03 3d 00 72 14 3b 66 66 30 3c f3 14 87 bc
       0.032078773 0.0022650957 0.010766601 -0.016489482
000190 32 9a 1f bd 80 c4 f7 3a db bf b1 bc a0 1e 57 bc
       -0.03896541 0.0018903166 -0.02169793 -0.01312986
0001a0 7c 2e 2a 3d 2e 9c 18 bd 36 3a 2b 3c a0 da b6 3b
       0.041548237 -0.03725832 0.01045089 0.0055802613
0001b0 0b 75 cf 3b eb 55 20 bb 13 1e ba bc 30 4c 59 bc
       0.0063310913 -0.0024465274 -0.022719419 -0.013262793
0001c0 92 88 01 3d 80 64 65 3b e8 9c 8a bc 28 af fb bc
       0.031624384 0.003500253 -0.016920522 -0.03072317
0001d0 5b ce 1b bc d6 c3 8a 3b ab 5e 35 3c d8 e3 b9 bc
       -0.009509648 0.0042347712 0.011069934 -0.022691652
0001e0 80 33 a6 bc b6 64 ef 3c 03 7c 92 3c 90 6a f0 3c
       -0.020288229 0.029222827 0.017881399 0.029347688
0001f0 fb cd d5 3c d2 66 17 3d e0 a2 1c bd 2b 2e 29 3b
       0.026099196 0.03696329 -0.038241267 0.0025814872
000200 93 d3 c5 3c a0 ee 67 bc cb 6a fb 3c 87 2f 1d bd
       0.024148738 -0.014156014 0.030690571 -0.038375404
000210 86 fb da 3c c3 e6 a1 bc 36 98 56 bc a0 ad 98 3c
       0.026731264 -0.019763356 -0.013097813 0.018637478
000220 f6 74 e8 3c 2c 54 1c bd 78 e8 fc bc 5b 3c 90 bc
       0.028376084 -0.03816621 -0.030872568 -0.017606905
000230 32 5e 27 3d d6 68 be 3a 74 30 29 3d bb 30 7e bc
       0.040861316 0.0014527093 0.041305974 -0.015514548
000240 1a e7 02 3d 58 fe ee bc be cd 09 3d 9e 70 c5 3c
       0.031958677 -0.029174015 0.033643477 0.024101552
000250 40 aa 83 bb 43 6e c6 3c ab 57 cb bc 86 a7 ea bc
       -0.004018098 0.024222499 -0.024822077 -0.028644335
000260 66 b3 9d 3c 6e e0 be 3c 58 56 f9 3c 46 91 ec bc
       0.019250583 0.023300376 0.03043668 -0.028877866
000270 b8 ab be 3c 16 1e 25 3b e0 ed e0 3b 48 50 fc 3c
       0.023275241 0.0025194935 0.0068642944 0.0308
000280 d6 25 69 bb 88 52 93 bc 20 33 8d bc e6 79 e4 bc
       -0.003557553 -0.01798369 -0.017236292 -0.027890157
000290 36 e5 c7 bc ab 2c 88 bc f7 38 0f bd e2 14 06 bd
       -0.024401288 -0.016622862 -0.034966435 -0.03273476
0002a0 3b 5e 0e 3c 06 4b 6b 3c 33 01 df 3c 16 ba 3c bb
       0.0086894585 0.014361149 0.027222252 -0.002879744
0002b0 2f 23 1e bd 8f a4 17 bd 60 f5 08 bd 46 88 24 bd
       -0.038607772 -0.03702217 -0.033437133 -0.040169023
0002c0 53 77 89 bc 10 91 b1 3c 1e 18 ae 3c 90 89 62 bc
       -0.016780531 0.021675617 0.021251734 -0.013826743
0002d0 db 3e 0f 3c 43 ce a8 3c 9b d6 3b 3c bc 98 0d bd
       0.008743013 0.020606166 0.01146474 -0.034569487
0002e0 6b db 23 bb 1b 1f a4 bc 08 1d 8c bc cf 11 06 3d
       -0.002500261 -0.020034363 -0.017103687 0.032731827
0002f0 00 b1 d6 bc db 4e 35 bc 6e f4 f3 3c a3 b6 de 3c
       -0.026207447 -0.011066164 0.02977964 0.027186697
000300 88 e0 90 bc 80 f5 be 3b fb d3 10 3d 76 01 0e bc
       -0.01768519 0.0058276057 0.03535841 -0.0086673405
000310 6c e0 16 3d 9f b4 05 bd fe ac 1f bd 43 17 a0 3c
       0.03683512 -0.032642957 -0.038983338 0.019542342
000320 bb 48 61 bc bc 97 12 3d 48 39 c7 bc c3 b4 d1 3c
       -0.01375025 0.035789236 -0.024319306 0.02559889
000330 6b e1 0f 3b 03 96 d0 bc cb e7 98 bc 56 cd 34 bc
       0.0021954428 -0.025462156 -0.018665215 -0.011035284
000340 76 0d 41 bc a6 ea 3e 3c 2b 27 f3 3a 7b b8 20 bc
       -0.0117829945 0.011652624 0.0018551102 -0.009809609
000350 e7 98 09 3d a8 bb a7 bc 32 68 1a 3d 10 bc 50 3c
       0.033593085 -0.020475224 0.037697025 0.01274015
000360 2b 5e 22 bc 0b 87 e7 3b e3 8e 1b 3d a0 c8 df bb
       -0.009910147 0.007065659 0.037978064 -0.0068293363
000370 a6 5d 0c bc 88 dc d7 3c 72 29 2a bd d6 08 15 3d
       -0.008567249 0.026350275 -0.04154343 0.03638538
000380 1e 58 ee bc 56 dc 5a bc 1e b6 d8 bc 9b 19 1e 3d
       -0.029094752 -0.013358196 -0.026454028 0.038598638
000390 10 97 b4 bc d7 7c 28 bd 06 a3 96 3c 46 5a 0a bc
       -0.022044688 -0.04113468 0.018388283 -0.008444374
0003a0 93 c0 e3 3c b0 4f ca 3c a2 29 25 3d 0a 88 1f 3d
       0.027801787 0.024696201 0.040322907 0.038948096
0003b0 fb ec b4 bc 80 51 11 3c 80 7a b8 bc d6 d9 6f 3c
       -0.022085657 0.008869529 -0.02251935 0.0146393385
0003c0 ab 73 50 ba 36 af d3 bb 56 91 3b ba 8b f0 27 3c
       -0.0007951806 -0.0064600958 -0.00071551406 0.010250221
0003d0 f8 0f e4 bc 76 13 fd bc 6b ba 5f bb a0 d0 88 bb
       -0.027839646 -0.030893069 -0.0034138213 -0.0041752607
0003e0 f6 92 ea 3b 9b d7 08 3d 80 37 16 bd b0 2b 4d bc
       0.0071586324 0.033408742 -0.036674023 -0.012522623
0003f0 74 7a 15 3d 50 9d e2 bc 0b bf f5 3c a0 60 eb 3b
       0.036493734 -0.027662903 0.029998323 0.0071831495

conv3.weight f4 [64, 64, 3, 3]
000000 26 0b 1b 3d b0 b5 bc bc 0b ee 63 3c 30 1a d9 3c
       0.03785243 -0.023035854 0.013911734 0.026501745
000010 ab a0 f0 3c 36 42 8d bc fa 45 20 bd 6b d0 57 bc
       0.029373487 -0.017243486 -0.039129235 -0.013172249
000020 2b 45 c6 3b 08 e7 a2 bc 16 e9 66 3c 80 a1 d7 bb
       0.006050726 -0.019885555 0.014093658 -0.0065805316
000030 e3 5e f2 3c a6 81 d2 3c 7e 04 81 bc 80 45 57 3b
       0.029586261 0.025696587 -0.015749212 0.0032847822
000040 c4 81 12 bd 3a 1d 05 bd 50 96 26 bc 68 d3 9d bc
       -0.035768285 -0.032498576 -0.010167673 -0.019265845
000050 93 10 14 3d 37 59 24 3d 26 e2 15 bc be 5e b4 3c
       0.03614862 0.040124144 -0.009148156 0.022017833
000060 6e c8 bc 3c 8e ca c8 3c 80 f2 b4 bb 5b 47 a8 3c
       0.023044791 0.024510648 -0.0055220723 0.020541837
000070 87 60 0e 3d 53 db 8b bc cb df cd 3c f2 4c 10 bd
       0.034760024 -0.017072355 0.025131127 -0.03522963
000080 5b 66 ff 3c 86 3c 2a 3d 50 d1 ba 3c 38 1e df 3c
       0.031176737 0.041561626 0.022804886 0.02723609
000090 1b 40 d3 3c 80 23 8b 3b b8 a2 22 3d 56 25 82 3b
       0.025787404 0.0042461753 0.039705962 0.003971736
0000a0 00 7c e3 bc f0 d7 53 bc 48 ae c0 3c 4c 9a 17 3d
       -0.027769089 -0.0129299015 0.023520604 0.037012383
0000b0 70 ae 85 3c ce 7f 9a bc 4b 56 43 bc 03 aa 88 bc
       0.01631853 -0.01885977 -0.011922429 -0.01668263
0000c0 ff 46 0f bd de 58 df 3c 53 ea f1 3c 8e 23 ce bc
       -0.034979817 0.027264055 0.02953068 -0.025163438
0000d0 d2 66 1b 3d f0 8f 08 3d d0 2e 66 3c 90 df 89 bc
       0.037939854 0.033340394 0.014049247 -0.016830236
0000e0 4b 84 be 3b ab 43 9d bb cb 4d 96 3b f6 67 3a bc
       0.0058141104 -0.0047993264 0.0045869104 -0.011377325
0000f0 92 8d 1c 3d c0 f3 8a 3b 74 ec 21 bd 5b 22 18 3d
       0.03822095 0.004240483 -0.03953214 0.03714214
000100 6b 3e 6e 3b 8e 46 b4 bc 5b 85 16 bc a3 20 b9 3c
       0.0036353122 -0.0220063 -0.009187068 0.02259857
000110 6b 74 03 bc 56 98 18 3a ab d0 cf 3c 7b bb 0f bc
       -0.008023362 0.00058210397 0.025368055 -0.008772726
000120 7b 8b e4 3c 6b 06 90 bc 56 70 d7 bc 50 f3 e3 bc
       0.02789854 -0.017581185 -0.026298683 -0.027825981
000130 c8 6b cf bc 16 5a b6 3c 58 a7 81 bc 2e c6 cd 3c
       -0.025319949 0.022259753 -0.015826866 0.025118914
000140 38 69 1d 3d 66 f7 1c 3c d0 12 26 bd 33 cf 83 3c
       0.038430423 0.009580469 -0.040545285 0.016090011
000150 d0 9c 92 bc 9a 16 26 3d f6 5b 98 bc db 9b 14 bc
       -0.01789704 0.0405489 -0.018598538 -0.009070362
000160 48 aa bd bc cb 74 be 3c ab 3f 03 3b 2e 79 db 3c
       -0.023152485 0.02324905 0.0020026963 0.026791181
000170 00 07 00 bd ab 92 b2 38 c0 8c 28 3d 16 29 ae bc
       -0.031256676 8.5150205e-05 0.041149855 -0.021259826
000180 f0 da 06 3d c0 c4 4d bb 56 d3 bb bb c0 6b 54 3b
       0.03292364 -0.003139779 -0.0057319803 0.0032412857
000190 b6 68 fc bc 4b 67 b0 bb fb 1e 15 bd 6b 33 32 bb
       -0.030811649 -0.005383407 -0.0364065 -0.0027191292
0001a0 6b 61 0d 3c a0 bd 35 3c 00 05 26 bd fc 63 04 3d
       0.008629183 0.011092573 -0.040532112 0.032321915
0001b0 1b e3 a7 bc d0 b5 09 3c fb 96 0e 3c 46 73 96 bc
       -0.020494035 0.008405164 0.008702989 -0.018365514
0001c0 5b 0b 10 3d a0 58 03 bc a4 35 04 3d bb b4 e7 bc
       0.03516708 -0.008016735 0.03227772 -0.028284421
0001d0 9e 20 85 bc 13 83 bf bc 3e 51 8c 3c 16 ac 2d bb
       -0.016250905 -0.02337793 0.017128583 -0.0026500276
0001e0 cb fd d5 bc b6 3b 30 3c b0 28 16 bc 36 f3 b7 3c
       -0.026121994 0.010756424 -0.009164974 0.02245484
0001f0 5f f8 13 3d ef 8a 28 bd c7 7a 1c bd e2 7f 1c bd
       0.036125537 -0.041148122 -0.038203027 -0.038207896
000200 00 40 0b b7 fb ff 2a 3c ee ac 94 bc 90 b7 01 3c
       -8.299947e-06 0.010437007 -0.018148866 0.0079173
000210 00 da c4 bb 53 53 c3 3c c0 74 d8 bb c6 ba 8f 3c
       -0.006007433 0.023843443 -0.0066057146 0.017545115
000220 aa 37 01 bd a0 d2 d3 3c 00 bc 44 3c eb 44 ab bc
       -0.031547226 0.02585727 0.012007713 -0.020906886
000230 a3 d4 a6 bc 2b 76 1c 3c 72 c2 0d bd 03 a7 05 bd
       -0.020365065 0.009549658 -0.034609266 -0.032629978
000240 76 c6 06 3c f6 b7 cf bc 4e 31 29 bd c4 ca 03 3d
       0.008226028 -0.025356274 -0.041306786 0.032175794
000250 38 24 82 3c e6 07 a8 3c 9b 99 de 3c 18 36 13 3d
       0.015886411 0.020511579 0.027172854 0.03594026
000260 ba 49 16 bd 6b 2b ed 3c e6 dd 25 bd 00 e8 68 ba
       -0.036691405 0.028951367 -0.040494822 -0.00088846684
000270 46 9b 7c 3c e2 61 29 bd 2e 3a bf bc 7b 1e b0 bc
       0.015417879 -0.041353114 -0.023343172 -0.02149891
000280 08 17 b9 3c c3 2f a2 bc 30 5f 72 3c 14 2e 25 3d
       0.02259399 -0.019798165 0.014793202 0.040327147
000290 94 2b 0b 3d a0 22 6b bc 10 32 68 bc 0b 53 38 bc
       0.033977106 -0.014351517 -0.014172092 -0.011250268
0002a0 9b 8a 06 3c 56 f0 13 3c f6 04 f6 3b 8b 70 b8 3c
       0.008211757 0.0090294685 0.0075079156 0.022514602
0002b0 88 0b b3 3c 13 bb b2 3c e0 c5 c9 3c cb 7d 87 bc
       0.021856084 0.02181772 0.024630487 -0.016539475
0002c0 5b 84 83 3c 2b 5f ba bc 00 a2 8b 3b 03 f2 c2 3c
       0.016054323 -0.022750458 0.0042612553 0.02379704
0002d0 2b fc 0a 3b 87 9a 11 bd 6b bc 3b 3c da 81 0f 3d
       0.0021207433 -0.03554776 0.011458497 0.035035945
0002e0 6e c7 1a 3d 96 b2 e9 3c 5e 1b af bc 56 7f 66 3c
       0.037787847 0.02852754 -0.021375354 0.014068445
0002f0 de 8f aa 3c f6 d0 76 bc 0b 55 ed bb b6 cc d9 bb
       0.020820554 -0.015064469 -0.007242804 -0.006646718
000300 0b f2 08 3d 46 e5 b7 bc 0a 9c 1c 3d 7b 14 20 bc
       0.033433955 -0.022448193 0.038234748 -0.009770508
000310 77 2d 26 3d 44 bd 01 bd b6 c0 ff 3c 27 63 14 3d
       0.040570702 -0.03167464 0.031219821 0.03622737
000320 9c 73 24 bd 48 be 86 3c 93 9a d0 bc eb f0 58 3c
       -0.040149316 0.016448155 -0.025464332 0.013241033
000330 f0 cd 28 bc 00 9e a1 3c a4 22 24 3d 38 95 18 3d
       -0.010303006 0.01972866 0.0400721 0.03725168
000340 58 f3 df 3c b6 c2 fd bb de 5a a2 3c c8 a4 8e bc
       0.027337715 -0.0077441586 0.01981872 -0.017412558
000350 a2 97 1c bd 80 e5 7e 3c 60 9d c5 bc 56 99 85 bc
       -0.038230546 0.015557647 -0.024122894 -0.016308468
000360 7b 24 a7 bc 3b 78 6d 3c 26 a5 da bc 9e db d3 bc
       -0.020403137 0.014493997 -0.026690077 -0.025861558
000370 76 66 ff bc 30 27 68 3c 00 f2 f4 3b 26 b0 08 bd
       -0.031176787 0.014169499 0.0074751377 -0.033371113
000380 1a 35 29 3d 66 56 44 3c f6 ac 7c bc eb e8 87 bb
       0.041310407 0.01198349 -0.0154220965 -0.004147639
000390 b0 e3 5e 3c ab 36 a6 bb 00 96 79 ba 4e 0e ae 3c
       0.01360409 -0.005072435 -0.0009520948 0.021247055
0003a0 9e 72 9c 3c 16 ad 82 3b 8c 08 1a 3d 40 30 2e 3c
       0.019097622 0.0039879186 0.037605807 0.010631621
0003b0 f8 1a fc bc 43 18 2a 3d 50 92 22 bc 10 16 71 3c
       -0.030774578 0.041527044 -0.009922579 0.014714733
0003c0 68 10 f2 bc 10 44 a7 bc f3 12 9a bc 2b 61 de bb
       -0.029548839 -0.020418197 -0.018807864 -0.0067864857
0003d0 03 f8 19 3d 2b c4 9d bb b0 2a 4f bc 0e a1 96 bc
       0.037590038 -0.004814645 -0.012644455 -0.018387344
0003e0 80 f3 78 bc bb 78 27 bc 76 52 b4 3b 16 d3 3d bc
       -0.015194774 -0.0102216555 0.005502994 -0.011585971
0003f0 50 67 d8 bc de 3c a4 3c 5b 04 09 bc a6 e3 97 bc
       -0.02641645 0.020048555 -0.008362855 -0.018541168

conv4.weight f4 [64, 64, 3, 3]
000000 54 a5 02 3d b6 84 fa 3c ee bb 03 3d ce 19 8a bc
       0.03189595 0.03058086 0.032161646 -0.016858008
000010 96 7b 84 3b c0 1d 00 3c a0 cc 4b 3c 6f 69 16 bd
       0.004043053 0.007819593 0.012438923 -0.036721643
000020 83 d0 fd 3c e6 af 56 bc 28 af 9b bc 6b f2 df 3b
       0.030983215 -0.013103461 -0.01900442 0.0068343184
000030 4e 68 ab bc ab e7 de 3b 5c f0 12 3d 56 61 5c 3a
       -0.02092376 0.0068025193 0.035873756 0.0008406838
000040 3b 8f 48 3c fe 66 16 bd d8 34 24 bd db e4 ac bc
       0.01224118 -0.036719315 -0.04008946 -0.02110522
000050 16 67 84 3b 56 d5 ba 38 fb 4d c1 bc f3 e3 02 3d
       0.004040609 8.908908e-05 -0.023596754 0.03195567
000060 eb 45 4d bc 1a 30 25 3d 00 cf e6 ba 40 38 08 bc
       -0.012528877 0.040329076 -0.0017609298 -0.008314192
000070 86 17 2a 3c 80 13 ce 3a 5a 14 11 bd 00 ef a8 3b
       0.010381585 0.0015722364 -0.0354198 0.005155444
000080 90 e9 65 3c 47 42 18 bd 5b 6f fb 3c 26 6d c6 bc
       0.014032736 -0.037172582 0.030692747 -0.024221968
000090 88 e7 20 bd 53 f7 bd bc 46 48 9a bc 38 56 ed bc
       -0.039283305 -0.023189222 -0.01883329 -0.028971776
0000a0 98 d6 a0 bc 40 4c ec bb 6b a9 bd bc c8 7a ef 3c
       -0.019633576 -0.007211238 -0.023152074 0.029233351
0000b0 ab b2 46 bc 53 aa f4 3c 13 74 b0 bc c0 bc d5 bb
       -0.012127559 0.029866373 -0.021539724 -0.006522745
0000c0 96 5f 20 3c 0e ce 19 bd eb 91 a9 bb 06 d8 53 bc
       0.009788414 -0.037550025 -0.0051748655 -0.012929922
0000d0 fb f7 ea 3c 62 30 25 bd 06 c6 7c 3c 3b 26 9e bc
       0.0286827 -0.040329345 0.015428072 -0.01930534
0000e0 ee 3d ca 3c 68 95 bf bc ab 5a 13 bd b0 34 1d bd
       0.024687734 -0.023386672 -0.03597514 -0.038380325
0000f0 f6 10 b0 3b 4b 80 e6 bc 58 79 fa 3c 18 ab 25 bd
       0.0053731157 -0.028137347 0.03057544 -0.04044637
000100 03 1b c1 3c 57 e0 15 3d 80 81 f4 bb 80 0f 26 bc
       0.02357245 0.0365909 -0.0074617267 -0.010135531
000110 48 22 02 3d c6 55 1b bc eb 80 f0 3c 80 f9 cf 3b
       0.031770974 -0.009480899 0.029358348 0.0063468814
000120 2b 7a ea 3a 6b fb 95 bb 86 25 ad 3c b3 d2 e5 3c
       0.0017889192 -0.0045770905 0.021136057 0.02805457
000130 80 14 5b 3c 84 85 17 3d 0e 23 88 3c c0 6f a3 bb
       0.013371587 0.036992565 0.016618278 -0.004987687
000140 b6 b2 02 3d cb 06 56 3c 9a b6 29 bd bb ef 43 3c
       0.031908713 0.013063143 -0.041433908 0.011959012
000150 96 f1 92 3c c6 c7 30 bc 56 83 11 ba 2b a5 d0 bb
       0.017937463 -0.010789817 -0.00055508816 -0.006367346
000160 eb 76 2e bc 00 ed 52 3a cb c5 3a bc b6 06 ef 3c
       -0.010648469 0.000804618 -0.011399697 0.029178005
000170 e3 5e 09 3d ab fb 0d bb bb 8d 98 bc 20 1e 00 bd
       0.033537757 -0.0021664898 -0.01862227 -0.03127873
000180 64 68 01 bd 1b 9a 07 bc 96 b0 1a bd a3 34 cb 3c
       -0.031593695 -0.008276488 -0.03776606 0.024805373
000190 10 4c 7c 3c ef fc 0d bd 2b a4 0f bb eb c8 5d 3c
       0.015398994 -0.034665044 -0.002191792 0.013536672
0001a0 7b 3e 27 3d 3e c0 a6 bc 5c 3d 0a bd 2b 37 49 bb
       0.04083107 -0.02035534 -0.033749923 -0.0030703049
0001b0 96 a6 0d bd d6 6e d1 3a 63 57 11 bd ab fe 35 3c
       -0.034582697 0.0015978466 -0.03548373 0.011108081
0001c0 b0 31 b2 3c 1b 7f 6e bc c0 a7 31 bc 4e e9 bd bc
       0.021752208 -0.0145566715 -0.010843217 -0.023182537
0001d0 30 53 c1 bc 88 b7 1e 3d b0 48 f6 bc b3 be bf bc
       -0.023599237 0.038749248 -0.030063957 -0.023406362
0001e0 58 02 02 bd 96 08 59 3c be a9 ac bc 52 0e 03 bd
       -0.031740516 0.013246676 -0.021077033 -0.03199608
0001f0 96 c0 07 bc 80 22 85 bb 13 b8 88 3c 32 47 0d 3d
       -0.008285662 -0.0040629506 0.016689336 0.034491725
000200 ab 53 ba ba 0c 26 27 3d 42 48 2a bd a6 8d d9 bc
       -0.0014215609 0.04080777 -0.041572817 -0.026556801
000210 7a 3f 0c 3d a7 52 0c 3d b6 22 99 bb ef 4c 29 bd
       0.034240223 0.03425851 -0.0046733273 -0.041333135
000220 50 51 46 3c 86 8d e2 bc 30 de 10 3d ae 42 91 3c
       0.012104347 -0.027655374 0.035368145 0.01773199
000230 4f 6e 22 bd ab 9b 8a ba 00 08 d6 3b d4 a1 28 3d
       -0.03965598 -0.0010574957 0.0065317154 0.041169956
000240 16 1e f9 bc b6 c1 13 3d c8 33 b8 bc af 10 26 3d
       -0.030409854 0.03607341 -0.022485629 0.040543254
000250 de 40 fc 3c d8 cf fc 3c f3 69 2a 3d c0 2a 45 3b
       0.03079265 0.030860826 0.041604947 0.0030085295
000260 a6 96 04 bc 00 81 cc bb 36 86 93 3b 43 28 c2 bc
       -0.008092558 -0.006240964 0.004502083 -0.023700839
000270 2b ef b5 ba ab 10 44 3b ab a2 ac b8 4b 6b 8f 3b
       -0.0013880482 0.0029917161 -8.2318984e-05 0.004376804
000280 24 82 12 3d 2e 0a cd bc 00 40 23 bb 40 5e cc 3c
       0.035768643 -0.025029268 -0.0024909973 0.024947286
000290 f0 c3 a3 bc 66 53 dd 3c 20 e0 fa bc 8e 6b cc bc
       -0.019990891 0.027017307 -0.03062445 -0.02495363
0002a0 3b 36 fc 3c 08 eb a0 3c 00 e3 f2 3b ba 2e 09 bd
       0.030787578 0.019643322 0.0074123144 -0.033491828
0002b0 00 37 a3 ba 40 58 99 3b d6 d2 ab bc 10 ca 85 bc
       -0.0012452304 0.0046797097 -0.020974558 -0.016331702
0002c0 8e 69 a6 3c fe a2 07 bd ea a1 06 3d c6 b0 16 3c
       0.020314004 -0.033114426 0.032869257 0.0091974195
0002d0 a0 ee 24 3d 30 93 7c bc 7b 7e af bc f6 5a d4 bc
       0.040266633 -0.015415952 -0.021422615 -0.02592228
0002e0 5b 28 c6 3c 98 8c 05 bd d3 35 85 3c 90 dd c2 3c
       0.024189165 -0.032604784 0.016261017 0.02378729
0002f0 fc b1 1b 3d 93 fd 92 3c 80 46 95 3b d0 0e 9e 3c
       0.038011536 0.01794318 0.0045555234 0.019294173
000300 f6 a4 9e bc 60 0f 4b 3c c3 9f b7 3c 20 b2 ce 3c
       -0.019365769 0.012393802 0.022415048 0.025231421
000310 e2 98 08 bd c0 dd 54 bc cb 6a ec bb 72 a4 03 3d
       -0.033348925 -0.012992322 -0.007214879 0.03213925
000320 e8 ed f7 3c eb 9e 9b 3c 66 a3 af 3c a4 7b 0c bd
       0.03026481 0.018996676 0.02144022 -0.0342976
000330 73 2f cf 3c c0 fd 0a 3b 96 4c 3e bb 9e cf e5 3c
       0.02529118 0.0021208376 -0.0029037348 0.028053101
000340 3b 41 4c 3c d6 7c c8 bc 80 b0 91 3b 00 b4 94 3a
       0.012466724 -0.024473589 0.0044460893 0.0011345148
000350 16 a6 3b bc db 87 7a 3c 24 7b 29 bd 50 cb 67 bc
       -0.011453172 0.0152911795 -0.0413772 -0.014147595
000360 ab 84 01 ba ab 5a e8 bc 76 85 ac 3b 56 7b ad 3c
       -0.00049407285 -0.028363546 0.005264933 0.021176975
000370 a8 92 a4 bc 30 3a e1 bc a8 8c fd bc b0 2f 0f 3c
       -0.020089462 -0.027493566 -0.03095086 0.008739397
000380 ab 70 cc 39 f3 8c ea 3c 0b 96 e5 3c 16 c4 09 3b
       0.00038993856 0.028631663 0.028025648 0.0021021417
000390 1b d1 f5 3c 07 7b 03 bd 52 64 21 bd ab 7b bb bb
       0.030006936 -0.03209975 -0.039402314 -0.0057215295
0003a0 84 18 15 3d d0 a0 59 bc f6 99 23 3c 0b 89 bf 3c
       0.036400333 -0.01328297 0.009985438 0.023380777
0003b0 80 cc 23 3c 4e 45 06 bd 63 61 ef 3c 1e 60 9f 3c
       0.009997487 -0.032780938 0.029221242 0.019455012
0003c0 60 e8 27 bd db 3c 16 3d 50 fa de 3c 63 64 f7 bc
       -0.040993094 0.03667913 0.027218968 -0.030199235
0003d0 12 25 10 3d 16 e7 e3 3b a2 d4 05 bd e6 85 29 3c
       0.035191603 0.006955038 -0.032673486 0.010346865
0003e0 28 6d 14 3d f3 03 a8 bc 36 99 71 3c 5e 2a 1e 3d
       0.036236912 -0.020509696 0.014746001 0.038614623
0003f0 de 2d b5 bc fc c9 04 3d 80 ca 33 3b 36 e3 fe bc
       -0.022116598 0.03241919 0.0027433932 -0.031114202

conv5.weight f4 [64, 64, 3, 3]
000000 e2 be 27 bd 48 f4 f3 3c 40 c4 3e bb db b9 4b 3c
       -0.040953524 0.029779568 -0.0029108673 0.012434448
000010 7e 85 cb 3c 60 b5 ef 3b 16 46 61 bb 4b c0 d5 bb
       0.024843927 0.0073153228 -0.003437405 -0.0065231672
000020 48 21 e7 bc d6 18 e7 bb 20 28 f0 bc 60 e9 06 bd
       -0.028214112 -0.007052521 -0.029316008 -0.032937407
000030 6e 44 a7 3c 16 fe 3b 3b 40 f2 70 bc 0e 31 8b bc
       0.020418372 0.0028685383 -0.014706194 -0.016991165
000040 c7 b4 27 3d 0b a7 a2 3c bb 8c 92 3c 80 87 b9 bb
       0.040943887 0.019855043 0.017889371 -0.005661905
000050 57 c7 28 3d 5e 2c 18 bd 5b e9 4e bc 8b 35 5a 3c
       0.04120573 -0.037151687 -0.0126288785 0.01331843
000060 7e 82 0c bd f8 b8 88 3c 62 41 09 3d 2e d2 9e bc
       -0.034304135 0.016689762 0.03350962 -0.01938733
000070 2b 22 85 3a 50 d6 16 3d 4a aa 00 bd c0 ad 55 bc
       0.0010157278 0.036825478 -0.0314124 -0.0130419135
000080 53 db b6 3c 00 1c ee 3b 30 11 f1 3c f8 54 f4 3c
       0.022321379 0.0072665215 0.029427141 0.029825673
000090 9b 69 f5 bc 80 10 16 bd bc f4 12 3d 16 75 08 3c
       -0.029957583 -0.03663683 0.03587793 0.008328697
0000a0 54 33 26 bd e0 c1 58 bc 3b 78 eb 3c 2b 76 a0 bb
       -0.040576294 -0.013229817 0.028743854 -0.004896899
0000b0 9c 2e 18 bd 56 14 ce bb 10 aa a8 3c fc 09 08 bd
       -0.037153825 -0.0062890453 0.020588905 -0.033212647
0000c0 eb 0d 45 3b 20 ab 23 3d 38 8b 8a bc 46 a6 96 3c
       0.003006811 0.03995812 -0.016912088 0.018389832
0000d0 88 41 ba 3c 93 af 92 bc 00 08 9a 39 cb 8a b3 3b
       0.022736326 -0.017905986 0.0002937913 0.005479192
0000e0 d6 fd 61 bc bb a2 26 3d 64 7f 0f 3d 3e 2e a2 3c
       -0.013793429 0.040682536 0.0350336 0.01979744
0000f0 f3 23 0f bd 2f 6e 21 bd 7a e8 10 3d 70 2f e2 3c
       -0.034946393 -0.03941172 0.035377957 0.02761051
000100 b8 74 ed 3c cb d9 cd bb 63 c9 b7 bc d6 db 7d 3c
       0.02898632 -0.0062820665 -0.022434896 0.0154943075
000110 c6 af b0 3c 92 4b 16 bd 26 fe 60 3c 06 0a 6f 3c
       0.02156819 -0.036693163 0.013732469 0.014589792
000120 2a 57 1f bd 30 2f ea 3c ce 11 db bc 5e 1b 29 bd
       -0.038901486 0.028586954 -0.026741888 -0.041285865
000130 34 9b 09 bd eb ee 3e bb 4b e0 8f 3c 4b b1 7d bc
       -0.03359528 -0.0029134105 0.017563006 -0.0154841645
000140 c3 a0 1c bd 60 8b 42 bc 46 2f 28 3c 27 20 15 3d
       -0.03823925 -0.01187405 0.010265177 0.036407616
000150 c4 c7 17 3d 3c 6a 28 bd 56 49 4f bb 16 34 cc bc
       0.037055746 -0.041116938 -0.0031629405 -0.02492718
000160 3b 4f d4 3c 90 83 55 bc c0 0d 40 bb 8b 05 6e bc
       0.025916686 -0.013031855 -0.002930507 -0.014527689
000170 ab da 3d ba 80 3c f6 bc ab d3 d4 3c 9a 88 01 bd
       -0.0007242362 -0.030058146 0.025979837 -0.031624414
000180 16 28 03 3d 73 9c 2a 3d 1b e2 4c 3c cb 6e 20 3c
       0.03202065 0.041653108 0.01250508 0.00979204
000190 46 42 e5 bc 60 1e 12 bd 30 96 46 3c e6 73 2a 3c
       -0.027985703 -0.0356735 0.012120768 0.010403609
0001a0 56 bb d1 39 84 3f 13 3d 16 0b 6c 3b db c5 bd bc
       0.00040003163 0.035949245 0.003601735 -0.023165634
0001b0 66 0d e7 bc c6 39 0f 3c 9b 3d 9a bc eb 07 f6 3b
       -0.028204631 0.008741802 -0.018828204 0.007508268
0001c0 04 dd 23 3d 0b 04 fc bc 20 ef 22 3d 76 e0 09 bc
       0.0400057 -0.030763647 0.03977883 -0.008415332
0001d0 ab 8e 6b bb 70 e5 24 bc d3 2c 97 3c 78 f6 fb bc
       -0.003594319 -0.010064468 0.018453991 -0.030757174
0001e0 56 72 2f 3a c6 be 44 3c 50 78 be 3c 9e 12 d6 bc
       0.00066927576 0.012008375 0.023250729 -0.026131924
0001f0 fc f0 22 3d d0 62 2d 3c 70 8e e0 3c f7 9b 19 bd
       0.0397806 0.010582641 0.02741167 -0.037502255
000200 06 7f 2d bc eb d1 dc bc 5e 80 a1 bc 66 d0 05 3d
       -0.010589367 -0.026955565 -0.01971453 0.032669447
000210 d6 bf 67 bb 80 ac 1c bd ab 2a 8d b7 bb ab 53 bc
       -0.0035362146 -0.038250446 -1.6828379e-05 -0.012919362
000220 38 47 e5 3c 0e ac e7 bc f6 ef 62 bc 77 59 19 3d
       0.027988061 -0.028280284 -0.013851156 0.037438836
000230 08 b3 0b bd 1e 1e 24 bd c2 af 24 bd 50 a7 7c 3c
       -0.034106284 -0.040067784 -0.04020668 0.01542075
000240 56 47 74 bc 73 ff db bc 4b 12 da bc ae 35 14 3d
       -0.014909586 -0.026855206 -0.02662005 0.036184005
000250 6a 42 2a 3d ab a2 82 3a 66 f7 97 bc 2b 2b 0a 3c
       0.041567244 0.0009966692 -0.018550586 0.008433144
000260 00 4a 71 bc 6b 8a 67 3b 6b a5 bb bb 16 53 7c 3b
       -0.014727116 0.0035330306 -0.0057265065 0.0038501672
000270 27 d8 0a 3d 8b f2 d8 bc fb 13 18 3c 9f ae 1a bd
       0.033897545 -0.026482841 0.009282107 -0.037764188
000280 00 99 2a 3a 9e 58 1c 3d da 83 1c bd 70 50 41 3c
       0.0006507784 0.03817045 -0.03821168 0.011798963
000290 e0 81 c5 3b 22 5c 0a 3d a3 46 ba bc ee 49 aa 3c
       0.006027445 0.03377927 -0.02273876 0.020787206
0002a0 ab 0c 0d 3d 86 52 45 3c a6 d6 a9 bc 16 6a 32 3c
       0.03443591 0.012043601 -0.020732235 0.010889551
0002b0 f6 cb da bb 0e 75 f3 bc db ee 63 3c 36 47 72 bc
       -0.006677146 -0.029718902 0.013911928 -0.014787486
0002c0 52 53 20 bd 46 a4 32 bc 2b 64 f7 bb 76 28 78 bc
       -0.03914196 -0.010903424 -0.0075497827 -0.015146365
0002d0 56 ef 77 3b 06 0e ce 3c 87 ee 01 bd bb c0 ec bc
       0.0037831864 0.025153171 -0.031721618 -0.028900495
0002e0 36 68 f8 bb d6 2e 90 3b 56 d7 d7 ba b6 e8 b7 bb
       -0.0075807823 0.0044001145 -0.0016467373 -0.005612458
0002f0 83 ee aa 3c a8 4c 06 bd 4b db c6 3b d8 ee b4 3c
       0.020865684 -0.03278795 0.006068622 0.022086546
000300 1b 12 67 3c 2a d0 08 3d 90 c1 81 bc f6 ff 81 3b
       0.014103438 0.033401646 -0.015839368 0.0039672805
000310 a6 8e 0e 3c 80 67 f1 3b 4b 42 a8 bc f6 59 36 3c
       0.008701002 0.0073670745 -0.020539423 0.011129847
000320 46 4f 07 3c 78 d7 9a bc 8b 7a e1 3b e7 b3 0a bd
       0.008258646 -0.018901572 0.0068810633 -0.033862974
000330 10 66 88 3c a0 46 88 3c 7e b8 ee 3c eb 1e 10 3c
       0.01665023 0.01663524 0.029140707 0.008796434
000340 ab 22 91 3c 47 c3 00 3d 9b fb 88 3c 16 e0 e9 3c
       0.017716726 0.03143623 0.016721537 0.028549235
000350 00 39 89 bb a8 81 1a bd ab 7e 04 ba 2b bf 1c bb
       -0.004187703 -0.037721306 -0.00050542754 -0.0023917656
000360 bb ec f8 3c ae 46 c2 bc 5e 06 ce 3c 70 18 b2 3c
       0.03038632 -0.023715343 0.02514952 0.021740168
000370 0b cf ec bb 96 b4 0a 3b 80 da 9c ba b8 cf a2 3c
       -0.00722683 0.0021164767 -0.0011966974 0.019874439
000380 b7 4f 04 3d e0 6b cf bc eb 90 ad 3b 6b a3 10 bd
       0.032302584 -0.025319993 0.0052968166 -0.035312098
000390 e0 26 be bc 2b 15 22 3b 20 57 11 bc a3 35 f6 bc
       -0.023211896 0.0024731855 -0.00887087 -0.030054873
0003a0 60 91 86 bc 90 a3 c1 bc bb 37 f3 3c be 35 06 3d
       -0.016426742 -0.023637563 0.02968966 0.032766096
0003b0 47 75 11 bd cb 7c c4 bb 40 1c 06 bb c6 dd cb bc
       -0.035512235 -0.005996322 -0.0020463616 -0.024886023
0003c0 3b ac 03 3c d0 01 07 bc 56 2d 8c 3c 18 89 b4 bc
       0.008036668 -0.008240178 0.017111462 -0.022038028
0003d0 86 17 28 bd 78 e2 86 3c f0 c8 63 3c 6b 1b 90 3c
       -0.04103806 0.01646541 0.013902888 0.017591199
0003e0 00 d4 14 bb 48 39 22 3d 2e 55 a6 bc 1e b6 d6 3c
       -0.002270937 0.03960541 -0.020304289 0.026209887
0003f0 60 5d 3d bc 4b f3 9e 3c 7b 84 e6 3c 87 b0 1a 3d
       -0.011557907 0.01940312 0.028139343 0.037766006

conv6.weight f4 [64, 64, 3, 3]
000000 b7 55 09 3d a0 03 89 bc b0 3e 47 3c 63 34 e9 3c
       0.03352901 -0.016725361 0.012160942 0.028467363
000010 2b c7 f7 bb 10 a2 0f bd d7 cd 26 bd 9b d9 02 3c
       -0.0075615845 -0.035066664 -0.040723648 0.0079864515
000020 1b db 37 bc 6b de 7e 3c 07 20 16 3d b0 40 f7 3c
       -0.011221672 0.015555958 0.036651637 0.030182213
000030 ab 1f 5b bb 7a 2a 17 3d 5e 7e e2 bc a0 85 14 3c
       -0.0033435624 0.036905743 -0.027648147 0.009065062
000040 f0 09 18 bc 57 04 07 bd b6 7c 3b bc 74 13 0d bd
       -0.009279713 -0.032963123 -0.011443308 -0.03444238
000050 6f c4 02 bd 70 44 39 bc f6 bb 01 3d 26 da 1c 3d
       -0.031925615 -0.011307821 0.031673394 0.03829398
000060 60 42 a8 bb 9e ae 0d 3d a0 de ab 3c 0c 56 10 3d
       -0.0051348656 0.034590356 0.02098018 0.03523831
000070 a7 b7 1d bd 26 3c 89 bc cb 04 18 3c eb 77 13 bb
       -0.038505223 -0.016752314 0.0092784865 -0.0022501897
000080 86 3e 07 bc 83 f5 d8 3c 48 f7 d7 bc 40 74 d6 bb
       -0.008254653 0.026484257 -0.02636303 -0.00654462
000090 f6 5a 41 3c 8b b7 f3 3c a8 bf d0 3c 27 2b 14 bd
       0.011801472 0.029750606 0.025482014 -0.036173966
0000a0 f6 27 de 3c ee 42 d5 3c 2b bf cd 3b 28 8c 17 3d
       0.027118664 0.026032891 0.0062788925 0.036998898
0000b0 c3 44 bc 3c d0 cd 62 bc 50 5f 03 3c 76 a3 0a bd
       0.022982007 -0.013843015 0.00801833 -0.033847295
0000c0 48 43 d9 bc 46 84 6d 3c cf f3 0b 3d e2 da 0a bd
       -0.02652134 0.0144968685 0.03416806 -0.03390015
0000d0 47 23 29 3d 10 37 8c bc eb e1 d5 3c f0 d3 18 3d
       0.04129341 -0.0171161 0.026108703 0.037311494
0000e0 f3 41 09 3d 23 26 0f bd 56 03 e2 ba 68 14 d5 3c
       0.03351016 -0.03494848 -0.0017243426 0.026010707
0000f0 16 ed 0e 3b eb 2d 78 bc 56 6c db ba ce db d4 3c
       0.0021808795 -0.015147666 -0.0016740661 0.025983717
000100 80 c9 a0 bb 63 e9 ee bc 10 f1 c8 bc bb 9a e9 3c
       -0.004906833 -0.029164022 -0.02452901 0.028516164
000110 63 1a e1 3c 2b d1 b3 3b 48 31 ff 3c 07 5c 2a 3d
       0.027478402 0.0054875812 0.031151429 0.04159167
000120 58 a8 ba 3c cf 0a 21 bd 00 ef ae 3a 04 11 0a 3d
       0.02278535 -0.03931695 0.0013346374 0.033707634
000130 a7 c8 00 3d 03 bf ca bc 3e f1 be 3c d6 91 1a bd
       0.031441357 -0.024749285 0.023308393 -0.037736736
000140 00 1d c9 3a cb 1b ae 3c b3 6e fa bc 46 ba 79 bc
       0.0015343726 0.021253487 -0.030570364 -0.015242165
000150 2e 26 a6 3c 36 df 86 bb 0b bd 55 3c 53 45 9a bc
       0.020281877 -0.0041159643 0.01304556 -0.018831884
000160 90 22 73 3c 13 4b e5 3c 78 31 fc 3c c3 80 b2 bc
       0.014839783 0.0279899 0.030785307 -0.021789914
000170 ee 79 b1 3c ee f0 c6 bc 33 93 25 3d 36 2f 89 bb
       0.021664586 -0.024284806 0.040423583 -0.004186536
000180 a0 a7 e7 bb 80 2e f4 bc c3 ad f6 bc ab b0 b2 bc
       -0.007069543 -0.02980733 -0.030112153 -0.021812757
000190 d2 46 17 bd 20 3d 10 3d e6 ea 55 bc 18 04 97 bc
       -0.036932774 0.035214543 -0.013056492 -0.01843457
0001a0 36 22 e8 bb b4 48 02 3d 5b 0a 17 bd 56 c3 b2 bb
       -0.0070841564 0.031807616 -0.03687511 -0.0054554148
0001b0 c6 2a 12 3c 00 e6 aa 39 bb 75 93 bc be 9e 83 bc
       0.008921331 0.0003259629 -0.018000474 -0.016066905
0001c0 06 d4 f7 3c 8b 5e a1 bc a0 9d ce bc d0 cd c0 bc
       0.030252468 -0.019698402 -0.025221646 -0.023535639
0001d0 6b ba 7c bc 8b 1c 61 bc 6f be 16 bd 9e 9f c5 bc
       -0.015425305 -0.013739715 -0.036802705 -0.024123963
0001e0 63 05 0b bd 10 43 fd 3c 40 dc b6 3b 13 0e 16 3d
       -0.033940684 0.030915767 0.005580455 0.036634516
0001f0 c8 a8 86 3c 16 71 0d 3b 4b 59 a4 bb 36 44 b7 3c
       0.016437903 0.0021582297 -0.0050155274 0.022371393
000200 d6 4b fc 3c fe 6e a2 3c db 3a a8 3c 20 0d 91 3b
       0.03079788 0.019828316 0.020535877 0.0044266135
000210 98 d9 27 bd c0 2e 89 3c 7b b4 d6 3c 64 a4 17 3d
       -0.040978998 0.016745925 0.026209107 0.03702201
000220 77 ce 23 bd 5b c6 35 bc 98 bd c1 3c 88 e4 be bc
       -0.039991822 -0.011094655 0.023649976 -0.023302332
000230 43 4a 98 bc 98 42 e8 bc 0e 07 c8 bc cb 09 61 3c
       -0.018590098 -0.028352067 -0.024417426 0.013735245
000240 fb a2 20 3d 00 80 37 3c ab b6 3c b9 43 cc 9a bc
       0.03921793 0.011199951 -0.00017997126 -0.018896228
000250 7a 23 0b bd fb c3 8e bc a6 80 cb 3c f6 e5 fc bc
       -0.03396938 -0.017427435 0.024841618 -0.030871373
000260 16 99 49 3c 96 e6 0a bb 18 f4 db 3c 00 f4 33 b9
       0.012304565 -0.0021194569 0.026849791 -0.00017161667
000270 68 14 87 bc 6b 94 ba 3c eb a6 2e bc 0c e1 24 3d
       -0.016489223 0.02277585 -0.0106599135 0.040253684
000280 16 1d fd bb 40 02 72 3b 2b 0e d8 bc f4 07 1f 3d
       -0.0077244146 0.003692761 -0.026373943 0.038825944
000290 7b 80 08 bc 0b 2a 98 bc 76 de f3 bb 4e 5f da 3c
       -0.008331413 -0.018574735 -0.007442291 0.026656773
0002a0 f6 b8 71 3c 68 b3 0f 3d 9f 20 06 bd e8 ea 07 bd
       0.014753571 0.035083205 -0.032745954 -0.03318301
0002b0 b6 15 e9 bb 90 f6 8b bc 0b f8 6b bc 86 43 23 3d
       -0.007113184 -0.017085344 -0.0144024 0.039859317
0002c0 80 b2 6c 3b 9b 49 ae 3c fe 48 ee bc 30 ff 0f bd
       0.0036117136 0.021275332 -0.02908754 -0.035155475
0002d0 b6 2f 3f bc 28 af 98 3c c6 8b c8 3c ec 80 20 3d
       -0.01166909 0.018638209 0.024480712 0.03918545
0002e0 b6 f6 04 bc f3 85 d8 3c 96 45 d0 bc 0b df da bb
       -0.008115461 0.02643106 -0.025423806 -0.006679421
0002f0 06 33 1b bc 58 52 e0 3c b3 5f a4 3c 16 99 03 bc
       -0.009472614 0.027383015 0.020065164 -0.008032104
000300 70 4d 37 3c 98 55 b4 bc 60 1a 88 3c a6 9c 8a 3c
       0.011187896 -0.02201347 0.01661414 0.016920399
000310 6b 2c c7 bb 0e 34 fd 3c 2f 3b 2a 3d 00 19 5a ba
       -0.006078293 0.03090861 0.041560348 -0.00083197653
000320 c8 b7 11 3d 0b 78 d8 bb b6 a8 ae bb eb 45 d0 bb
       0.035575658 -0.006606107 -0.0053301705 -0.006355991
000330 56 a5 eb ba b3 b3 fb 3c ea 9e 0f 3d e0 d4 4c 3c
       -0.0017978351 0.030725336 0.03506366 0.012501925
000340 ce eb af bc ab 25 f3 bc d8 74 ea 3c 20 f9 fd bc
       -0.021474745 -0.029681047 0.028620169 -0.031002581
000350 32 ea 14 bd b0 5e 45 bc d6 ae 20 3d 2b df 05 3d
       -0.03635616 -0.012046501 0.039229237 0.032683533
000360 46 a5 45 3c 00 1c a8 3b ab 00 a8 3b b8 74 97 3c
       0.01206333 0.005130291 0.0051270328 0.018488273
000370 b6 95 da bc ab 2f af 3a 8e da fd 3c 80 2b 4a 3c
       -0.026682716 0.0013365647 0.030988004 0.012339473
000380 a8 76 1e bd 1b 3a 3d bc d3 f4 86 3c f3 bf 1d bd
       -0.03868738 -0.011549498 0.016474163 -0.038513135
000390 b7 b4 23 bd 5f 00 1a bd eb d3 09 3d 6b 14 ad bc
       -0.039967265 -0.03759801 0.033649366 -0.0211279
0003a0 98 40 20 bd 6b 3d 70 3c c8 a3 d5 bc 0b f7 ad 3c
       -0.0391241 0.014663081 -0.026079074 0.021235963
0003b0 9f 60 0f 3d 93 fd e6 3c ab fc 30 bb 00 dd 74 3b
       0.035004254 0.028197085 -0.002700607 0.0037363172
0003c0 bb 5f 4e bc d0 cb 04 bc 9b 4e 5f bc ab 20 56 3c
       -0.012596066 -0.008105233 -0.013629581 0.013069312
0003d0 2b a8 c4 3b 96 c1 c8 bb eb 63 7a bb b6 42 6a 3c
       0.0060014925 -0.006126593 -0.0038206528 0.014298132
0003e0 8f 48 07 bd ab db 01 3b 4b 82 13 3d db 16 64 3c
       -0.03302818 0.001981477 0.03601293 0.013921465
0003f0 70 4e 86 3c 43 47 f7 3c 90 95 26 3c 6c fc 14 bd
       0.016394824 0.030185347 0.010167494 -0.03637354
