unit_tests_workloads/test_4_workload.onnx (onnx, 590876 bytes, 4 tensors)

conv1.weight f4 [64, 64, 3, 3]
000000 00 cf 24 3b ea 4a 25 3d b0 c6 8b 3c be 1c e2 bc
       0.0025147796 0.040354647 0.017062515 -0.027601596
000010 90 dd 0b bc 00 a5 2a 3c 32 29 12 3d ab 33 16 3b
       -0.008536711 0.010415316 0.03568382 0.002291898
000020 30 f3 09 3c 8b 01 46 bc 70 b1 18 bc 18 b8 f8 3c
       0.008419797 -0.012085329 -0.009319648 0.03036122
000030 16 5d 10 bc 63 c8 89 3c 7b 95 d1 bc 56 4c 2d 3c
       -0.008811256 0.016819185 -0.025583973 0.010577282
000040 a8 47 05 3d c0 8c 96 bc 83 e2 aa 3c 28 aa d4 3c
       0.03253904 -0.018377662 0.020859962 0.025960043
000050 24 62 13 3d d6 51 ab 3c c0 1e 89 3b 76 f3 82 3b
       0.035982266 0.020913046 0.004184574 0.003996308
000060 a0 7a 4a 3c ab 30 b3 bc fe f1 fc bc a0 c4 f4 3c
       0.012358338 -0.021873793 -0.03087711 0.029878914
000070 46 7c 67 3c 28 73 b9 3c 2b e1 22 bc ab 1e 0f bd
       0.01412875 0.022637919 -0.00994138 -0.034941357
000080 06 65 11 3d 6b 9c f7 bb 60 28 cf 3b 00 8e f8 3a
       0.035496734 -0.0075564883 0.0063219517 0.0018963218
000090 38 fa 14 bd d3 bf 06 bd f8 e8 f6 3c 80 1e 58 bc
       -0.03637144 -0.03289778 0.030140385 -0.0131908655
0000a0 9b 18 e6 bc 5b 79 3a 3c 33 70 87 bc 8c 08 13 3d
       -0.028087905 0.011381472 -0.016532993 0.035896823
0000b0 53 b1 b7 3c 18 e0 18 3d 96 da cb 3b 63 19 d8 3c
       0.022423422 0.037323087 0.006221126 0.026379293
0000c0 fa f6 01 3d 16 15 be bc a6 e4 ac bc 63 51 0c 3d
       0.031729676 -0.023203414 -0.021105122 0.034257304
0000d0 40 fb 21 3d 00 a7 5a bc ce 44 16 3d 50 f8 1d bc
       0.03954625 -0.01334548 0.03668671 -0.009641722
0000e0 62 ac 17 3d d3 2a b7 3c 16 d9 01 bd c0 9a ba bc
       0.03702963 0.022359287 -0.03170117 -0.022778869
0000f0 0b 3d fe bb fe de c5 bc 38 58 06 bd 47 eb 0d 3d
       -0.0077587417 -0.024154183 -0.032798976 0.034648206
000100 50 bf f0 bc ce d4 26 3d 88 6d f3 bc 00 70 0b 3a
       -0.0293881 0.04073029 -0.029715315 0.00053191185
000110 be 0d 20 3d 56 c4 ef 3b 26 63 00 3c 70 df a7 bc
       0.039075606 0.0073171062 0.007836139 -0.020492285
000120 6b 94 6a bb 9c f9 26 3d 58 eb ed 3c d6 aa 35 3b
       -0.003579403 0.04076539 0.029042885 0.0027720234
000130 20 bb ef bc be 29 a4 3c 8e c0 f5 3c 6f e9 28 bd
       -0.029264033 0.020039435 0.029999044 -0.041238245
000140 a0 d6 b2 bb 00 48 2e b9 00 47 e0 bb 0b 23 86 bb
       -0.005457714 -0.00016620755 -0.0068444014 -0.004093533
000150 ab ad 78 3a a4 22 0b bd a6 d3 b9 3c 83 56 ba bc
       0.0009486328 -0.033968583 0.02268393 -0.02274633
000160 f6 27 88 3b ab cc e2 39 56 f3 e2 3c da c6 1c 3d
       0.0041551543 0.0004325857 0.027703922 0.038275577
000170 9b 68 0d 3c 00 f8 0d 3c 68 79 1b bd 3b 49 14 3d
       0.008630897 0.008665085 -0.03795758 0.03620265
000180 a6 6d 1c bd 93 71 a0 3c 0b f7 31 bc d6 27 23 3b
       -0.038190506 0.019585406 -0.010862122 0.002489557
000190 cb 66 b9 bb 56 7d c0 38 10 64 25 bd 7b d3 69 3c
       -0.005658006 9.178619e-05 -0.04037863 0.014271612
0001a0 c0 c7 08 bc cb 36 e8 bc 20 71 09 3d b6 71 b3 bc
       -0.008348405 -0.02834644 0.03355515 -0.021904808
0001b0 2b a3 d0 3c eb f1 1c 3d 56 49 40 3a c3 8b 25 bd
       0.02546843 0.03831665 0.00073351467 -0.04041649
0001c0 3f 53 2a bd 17 c3 24 bd be 6d 0d 3d f0 c7 5d 3c
       -0.041583296 -0.040225115 0.034528486 0.013536438
0001d0 fc dd 28 bd eb ce 3d 3b 56 0c 03 bc 93 28 a0 3c
       -0.041227326 0.0028962444 -0.007998547 0.019550597
0001e0 0b f1 ab 3b 50 ed 9a 3c 00 12 72 bb 33 a1 83 bc
       0.0052472404 0.018911988 -0.0036936998 -0.016068077
0001f0 73 1f ac bc de 84 09 bd 72 e5 18 bd 03 89 a2 bc
       -0.02101109 -0.033573978 -0.03732819 -0.019840723
000200 76 c6 47 bc 00 99 4f bb eb a7 b0 3c 78 df f2 3c
       -0.012193313 -0.0031676888 0.021564445 0.029647574
000210 eb fe 72 3c da aa 20 bd 2b 2f 9b bb db 17 06 bc
       0.014831285 -0.039225437 -0.0047358475 -0.0081843985
000220 f8 94 c6 3c 56 5b 79 3b b8 c3 24 bd 76 78 c4 bb
       0.024240956 0.0038048825 -0.040225714 -0.0059958054
000230 f3 d0 9a 3c 73 39 bb 3c 7e 03 d0 3c 00 70 d0 3a
       0.018898463 0.022854542 0.02539229 0.0015902519
000240 ae 75 c6 bc 4e b9 ce bc 80 8a ab 3a 98 db cd 3c
       -0.024226036 -0.025234845 0.0013087541 0.025129125
000250 e3 34 0b bd 43 8f a2 3c 16 1b 05 3b 1e ad a9 3c
       -0.033985984 0.019843703 0.0020310334 0.020712432
000260 e2 7f 10 3d ab 77 bc 3a c0 e8 06 3b 8b 43 cb 3b
       0.03527821 0.0014378926 0.0020585507 0.00620312
000270 c0 a2 e9 3b 8b c6 f7 3c f4 15 0d bd 4e 98 90 3c
       0.007129997 0.03024604 -0.034444764 0.01765075
000280 ae 1b c6 3c 5b 20 14 3d e6 e9 e2 bc 0b 75 55 bc
       0.02418312 0.03616367 -0.027699422 -0.0130283935
000290 5e 21 d2 bc ee 4d cb bc 7e 3e 8c bc ab 72 73 bc
       -0.025650676 -0.024817433 -0.017119642 -0.014858882
0002a0 ee 1a a8 bc 60 c1 28 bc 00 9e bf bc 63 c0 d0 3c
       -0.020520654 -0.01030001 -0.02339077 0.025482362
0002b0 ee 6c ef 3c b3 61 fc 3c 36 a9 0c bd 22 5e 10 bd
       0.029226746 0.030808305 -0.03434106 -0.035246022
0002c0 ff 6c 0d bd 00 2b fd bb c0 e4 fe bc 2b 5e 2d bb
       -0.034527775 -0.0077260733 -0.031114936 -0.0026453834
0002d0 b0 7a 00 3d 86 64 86 bc 80 f5 9e bc 73 50 bf 3c
       0.031367004 -0.016405355 -0.019404173 0.02335379
0002e0 b6 06 fe bb 6e 26 ab 3c 96 22 3d bc 83 d8 c2 bc
       -0.007752265 0.020892348 -0.01154389 -0.023784881
0002f0 9b c5 d8 3c c7 bc 18 3d eb 0d 05 bd 56 ca bf bb
       0.026461413 0.037289407 -0.032483976 -0.0058529777
000300 00 84 89 ba 78 57 b3 bc 0c 97 08 bd b8 94 c6 3c
       -0.001049161 -0.021892294 -0.033347175 0.024240837
000310 f8 d0 00 bd 6a 93 06 3d 96 98 18 3b 97 1e 11 3d
       -0.031449288 0.03285543 0.0023284308 0.035429563
000320 38 f6 05 bd 56 b3 09 bc 16 92 06 3d d6 ac c1 ba
       -0.032705516 -0.008404573 0.032854162 -0.001477624
000330 70 57 c5 3c 83 33 eb 3c 20 5c c7 3b 80 37 9c 3a
       0.024089545 0.028711086 0.00608398 0.0011918396
000340 40 e5 f8 bc 80 72 dc bb 76 e0 64 bc 8b 5a da bc
       -0.030382752 -0.0067275167 -0.013969531 -0.026654502
000350 2b 42 ad 3c f8 60 8e bc 66 0c a0 bc 4b e2 fe 3c
       0.021149715 -0.017380223 -0.019537162 0.031113764
000360 b0 0a 08 3c b6 41 d6 3c 4b 72 68 3c 76 8c ad 3c
       0.008303329 0.02615438 0.014187406 0.021185141
000370 54 66 28 bd 3b b8 cd bc 27 0d 00 3d eb a9 86 3b
       -0.041113213 -0.025112262 0.031262543 0.0041096113
000380 37 c5 0f 3d c0 41 35 3b 93 93 02 bd d0 f9 68 3c
       0.035100188 0.0027657598 -0.03187902 0.014219716
000390 80 c8 65 3b 66 02 f1 3c 9b 99 a4 bc 2a 00 1b bd
       0.0035062134 0.029420089 -0.020092776 -0.037841953
0003a0 1b 93 67 3c 2b 2c 95 3c 03 55 8a 3c c6 14 3a 3c
       0.014134194 0.018209537 0.01688624 0.011357492
0003b0 7b a4 88 3c cb be af 3b 40 62 6e 3c 16 aa ea 3c
       0.016679993 0.0053633205 0.014549792 0.028645556
0003c0 96 b5 35 3b b0 0f d3 3c 36 25 8e 3c 76 7e df 3b
       0.0027726642 0.025764316 0.017351728 0.0068204952
0003d0 d3 dd 8e bc 82 26 01 bd 8b 2b c2 bc fb 78 1b 3c
       -0.017439758 -0.031530865 -0.023702404 0.009489293
0003e0 00 e0 1a 38 e2 44 23 3d 93 e1 d0 3c 7b 7f ae 3c
       3.6925077e-05 0.039860614 0.025498187 0.021301022
0003f0 b4 cb 28 3d 56 ec 82 3a cb 85 0d bd ce 3e e7 bc
       0.04120989 0.0009988646 -0.034551423 -0.02822819

conv2.weight f4 [64, 64, 3, 3]
000000 68 03 0d 3d 20 5a 00 bd 3b 8c b1 3c c0 c7 20 3b
       0.034427077 -0.03133595 0.021673312 0.0024533123
000010 40 68 ab bb 04 06 15 3d 36 cc 3e 3c ab 50 82 39
       -0.0052309334 0.03638269 0.011645367 0.00024855635
000020 d4 33 1f bd c7 79 17 3d bc 38 1b 3d c0 4d bd bb
       -0.038867787 0.03698137 0.037895903 -0.005777091
000030 d0 3b 5d 3c 38 2e ed 3c fb 13 54 3c 2b 9b 5f bc
       0.01350303 0.028952703 0.012944217 -0.013647835
000040 56 a7 31 3a c0 04 39 3c d6 2e 9e bc 18 cf 29 3d
       0.0006776949 0.011292636 -0.019309442 0.041457266
000050 e3 19 15 bd d6 69 a7 bc a8 d2 cc 3c c0 a2 41 bc
       -0.03640164 -0.020436209 0.025002792 -0.011818588
000060 d6 e0 9a ba 08 f1 95 bc 4e 3b e2 3c 16 9c 01 bd
       -0.0011816274 -0.01830341 0.02761617 -0.031642996
000070 56 77 ed 3a 13 17 1b bd 70 f2 1a 3c bb 4a 5e 3c
       0.001811723 -0.037863802 0.009457216 0.013567622
000080 ab 3e 18 bc 46 da 4e 3c fe 8b ea bc 10 b6 37 3c
       -0.009292285 0.012625283 -0.028631207 0.011212841
000090 c0 d6 e7 bc c0 76 0b 3b 18 d0 19 3d 56 a7 69 ba
       -0.028300643 0.0021280497 0.03755197 -0.00089131796
0000a0 32 01 18 bd 93 b8 90 bc 80 de 1a bd 83 99 88 bc
       -0.037110515 -0.017666137 -0.03780985 -0.016674763
0000b0 ee 5d d8 3c 9f e0 1b 3d 8b 4c d6 3c f0 cd 62 bc
       0.026411977 0.038056012 0.026159545 -0.013843045
0000c0 5b a9 77 3c d0 73 60 bc 50 e9 d6 3c e2 be 1c bd
       0.015116061 -0.013699487 0.026234299 -0.038267978
0000d0 20 c4 8b bb 56 ec 25 3d 18 80 cd 3c bb 2a 8a bc
       -0.0042653233 0.04050859 0.025085494 -0.016866079
0000e0 62 ca 0b 3d 16 cb ca 3c 90 ea 97 3c 80 de 3a bc
       0.034128554 0.024755042 0.018544465 -0.011405587
0000f0 23 3f ee 3c 20 95 b0 3b 4a bd 26 bd 30 2a 36 bc
       0.02908284 0.005388871 -0.040707864 -0.011118457
000100 ab 27 99 bb c0 fe 11 3d e0 0d 5c 3c d6 19 e8 bc
       -0.0046739182 0.03564334 0.013431042 -0.028332632
000110 56 31 4c bb 76 81 72 3c 20 d2 d7 bb 6b 10 bc 3c
       -0.0031157336 0.014801374 -0.006586328 0.022957047
000120 a7 a8 08 3d 32 a0 1d 3d 6b 8e 80 3c de 7d cc 3c
       0.033363964 0.038482852 0.01569291 0.024962362
000130 5b 7b 07 bc e0 1a 1c 3c e0 47 84 3b 07 b3 19 3d
       -0.008269156 0.009527892 0.0040368885 0.03752425
000140 92 22 12 bd 10 05 9f 3c 58 d2 c9 bc 8b ec 24 bd
       -0.0356775 0.019411594 -0.024636433 -0.040264647
000150 56 b0 4a 3b 23 41 1f bd 10 b6 bd bc 8b 95 7a 3c
       0.0030927858 -0.03888048 -0.023158103 0.015294443
000160 56 44 2f bc 16 31 ab bb de fc 17 3d c0 0f 1f bd
       -0.010697445 -0.0052243574 0.037106387 -0.03883338
000170 33 1f 19 3d 40 a5 ec 3c d3 b4 0f bd eb d3 46 bb
       0.03738327 0.028887391 -0.035084557 -0.0030338715
000180 8b 26 a0 bc 20 b6 9e 3c b6 65 fc bc 0b dd e5 bb
       -0.019549629 0.019373953 -0.030810218 -0.0070148758
000190 8b 31 99 3b 36 37 1f 3d 56 cf 26 bc e0 3c 88 bb
       0.0046750954 0.038871013 -0.010181269 -0.0041576475
0001a0 bb eb b7 bc eb 82 17 3c 56 1d 0f 3a 23 f3 0e bd
       -0.022451272 0.009247522 0.00054593885 -0.034899842
0001b0 56 03 f8 3a 68 00 29 3d d6 ee 6b 3c 20 a0 33 bc
       0.0018921893 0.041260153 0.014400205 -0.01096347
0001c0 84 4c 1d bd 98 c6 09 bd f0 82 f4 bc 96 c7 6e 3c
       -0.03840305 -0.03363666 -0.029847592 0.014573952
0001d0 80 82 55 bb 56 f3 d5 b9 a0 37 cf bc 80 95 0f 3c
       -0.0032579005 -0.00040807825 -0.025295079 0.008763671
0001e0 c0 b6 42 3c 8e 28 ba bc f0 19 94 3c dc 46 20 bd
       0.011884391 -0.022724416 0.018078774 -0.039130077
0001f0 3e c2 14 3d 00 33 21 bb 98 c4 f8 3c 56 79 57 b9
       0.036318056 -0.0024597049 0.03036718 -0.00020549199
000200 6b 35 0b bc c0 df 17 3c c0 89 69 bc a7 44 1a 3d
       -0.008496623 0.009269655 -0.014254034 0.03766313
000210 40 41 c2 3c a2 46 15 bd 93 8f 20 bd a3 17 f4 3c
       0.023712754 -0.036444314 -0.039199423 0.029796427
000220 18 87 bc 3c 5f ea 1d bd c0 e9 02 bb c3 c4 95 3c
       0.023013636 -0.03855359 -0.0019975752 0.0182823
000230 d6 1d ea 3a f6 b8 a5 bc 4e 75 00 3d 5b 20 6f 3c
       0.0017861675 -0.020229798 0.03136187 0.0145951165
000240 fb d2 ed bc 20 ce cd 3b eb 50 8b bb 87 ca 0c 3d
       -0.029031267 0.0062806755 -0.0042515895 0.034372833
000250 86 cd 90 3c f8 77 af 3c 0e 4c 25 bd 80 e2 77 bc
       0.017676126 0.02141951 -0.040355735 -0.015129685
000260 ab fb 60 3c 0b c0 de 3c 6b 9c 8b 3b 2b 19 0e bb
       0.013731877 0.027191183 0.00426059 -0.0021682482
000270 50 56 e7 bc e3 46 b6 3c 53 a4 fb bc 3b 50 08 bd
       -0.0282394 0.022250598 -0.030718004 -0.03327964
000280 96 b4 a9 3b c3 37 13 3d a0 21 f0 bc 2b c0 b3 bc
       0.005178998 0.03594185 -0.029312909 -0.021942219
000290 56 71 1e bb 26 1b c5 bc 9b 60 91 3c e8 ae ce 3c
       -0.002417644 -0.024060797 0.01774626 0.025229886
0002a0 f4 98 0e bd ab 16 cc 3c 00 bf aa 3b 92 9a 04 bd
       -0.034813836 0.024913153 0.0052107573 -0.032373972
0002b0 4b 27 8e 3c 13 95 ad 3c 56 64 40 bb 5e dd 85 3c
       0.01735272 0.021189248 -0.002935668 0.016340908
0002c0 db cc 27 bc d3 14 db bc 40 f8 d8 3c a8 49 1e 3d
       -0.010241712 -0.026743328 0.026485562 0.038644463
0002d0 02 8b 08 3d 16 89 46 3b 0b 33 1c 3d 20 31 eb bc
       0.033335693 0.0030294112 0.038134616 -0.028709948
0002e0 be 62 ad 3c 00 25 1e bc 16 7e 3d bc a0 db c6 bb
       0.021165248 -0.009652376 -0.011565706 -0.006068662
0002f0 a3 06 90 3c 10 d7 00 bc ba 94 1f 3d 1b ac 25 bc
       0.01758129 -0.007863775 0.038960196 -0.010111834
000300 0c eb 1c 3d 58 9e ac bc f0 d8 91 bc f2 a8 25 3d
       0.038310096 -0.021071598 -0.01780364 0.040444322
000310 3b da e6 3c ec ef 27 3d 73 65 e8 bc 48 59 af bc
       0.028180232 0.04100029 -0.028368687 -0.021404877
000320 a8 07 cf 3c 20 08 d5 3c 50 32 ef bc 96 1c 1e bc
       0.025272205 0.02600485 -0.029198796 -0.00965037
000330 73 61 df 3c 6b f2 40 bc ab 98 e1 3c b3 97 90 3c
       0.027268147 -0.011776547 0.027538618 0.01765046
000340 22 30 20 bd 3b d6 40 bc bb 06 93 bc db 9f 1a 3c
       -0.039108403 -0.0117698265 -0.017947545 0.009437527
000350 6b 76 9d 3c 56 c5 09 ba b0 9c d0 bc 00 b8 9d 3b
       0.019221505 -0.00052555406 -0.02546534 0.0048131943
000360 f2 f9 01 3d 08 e8 d5 bc 40 c7 f4 bb 3f c6 21 3d
       0.031732507 -0.026111618 -0.0074700415 0.039495703
000370 43 98 ab bc 06 ed 76 bc be d1 ae 3c 46 9f 83 3c
       -0.020946627 -0.015071159 0.021340247 0.016067158
000380 03 e7 bb 3c f3 8f 8c bc 2b d5 25 3c 7a ca 02 bd
       0.022937303 -0.017158484 0.010121624 -0.031931378
000390 50 d0 9e bc 50 74 10 bc 4b 1a cc bc 0e b6 a1 bc
       -0.01938644 -0.008816794 -0.024914881 -0.01974013
0003a0 a3 c2 8e bc 36 e4 d5 bc 44 a6 06 3d c8 37 e1 bc
       -0.017426794 -0.026109796 0.032873407 -0.027492419
0003b0 aa 0f 14 3d 60 66 e6 3b 80 ad 04 bb 36 3d a3 3b
       0.03614775 0.007031247 -0.0020245016 0.004981662
0003c0 a4 29 05 bd 46 ad 08 bc 30 23 6a 3c 00 56 a6 39
       -0.032510415 -0.008342093 0.014290616 0.00031726062
0003d0 db 51 d4 3c 48 74 10 bd d3 91 0e 3d 56 b1 5c 3c
       0.025917938 -0.035267144 0.034807038 0.013470015
0003e0 58 6b e2 3c 1b cc 9e 3c 60 03 f2 bb 56 c2 8b bc
       0.027639076 0.019384434 -0.0073856562 -0.01706044
0003f0 9b 9f 8d 3c 97 36 1f bd b4 4e 23 3d 80 19 25 3d
       0.01728802 -0.03887042 0.03986998 0.04030752

conv3.weight f4 [64, 64, 3, 3]
000000 d6 f0 b8 ba 00 0e f4 bb 16 57 8e bc 4e 07 20 bd
       -0.0014109861 -0.007447958 -0.01737551 -0.039069466
000010 16 64 9c bb 56 97 be bc 37 e4 0e bd 2b 01 74 3c
       -0.0047726734 -0.023265522 -0.03488561 0.014892857
000020 7b b1 6b bc 78 1d e8 bc eb 8e cd bb b6 db 14 bc
       -0.014385576 -0.028334364 -0.0062731407 -0.009085586
000030 5b 17 91 3c 06 ff 1d 3c 14 aa 14 bd 18 80 d5 3c
       0.017711332 0.009643322 -0.03629501 0.026062056
000040 7e 65 11 3d 2e d8 8c bc 9b 54 0a bc c0 34 58 bb
       0.03549718 -0.017192926 -0.008443023 -0.0032990426
000050 a6 ec 1d 3c 7c c0 07 bd d0 6f c2 3c b0 ac ef bc
       0.009638941 -0.03314255 0.023734957 -0.029257149
000060 d8 02 14 bd 16 b3 14 3b db 82 8e bc 56 f5 23 39
       -0.036135525 0.0022689751 -0.017396381 0.00015636286
000070 db a5 09 bd 8c b2 0e bd eb c7 f5 3c ee eb cd bc
       -0.033605438 -0.034838244 0.030002555 -0.025136914
000080 4b d9 7b bc 20 f3 4d 3c 36 67 71 3c ee cc c4 3c
       -0.015371631 0.012570173 0.01473408 0.0240235
000090 40 4e 19 3d a3 bf bc bc 56 f5 b5 ba a6 7b de bc
       0.03742814 -0.023040598 -0.001388232 -0.02715857
0000a0 38 39 24 bd 16 61 35 bc 07 79 16 bd a6 f2 79 3c
       -0.04009363 -0.01107051 -0.036736514 0.015255606
0000b0 00 db 39 3b 4e 61 9e 3c eb d8 ab bb e0 99 f8 3c
       0.0028359294 0.019333508 -0.0052443645 0.03034681
0000c0 96 8a 06 3d b3 23 12 bd 18 82 f2 3c 48 81 b2 3c
       0.03284701 -0.035678577 0.02960305 0.021790162
0000d0 4b bb c1 3c c6 d7 9a 3c d3 33 f7 3c ab 5b 87 bc
       0.023648879 0.018901717 0.030176079 -0.016523203
0000e0 63 91 a9 3c 2e 52 fe 3c 1b 2c 3f bc 03 07 ff 3c
       0.020699209 0.031045046 -0.01166823 0.031131273
0000f0 a6 a8 e1 3c 3b ad fb bc bb 4c 3b 3c d6 a2 23 bd
       0.027546238 -0.030722251 0.011431868 -0.039950214
000100 80 6c b8 3c 98 ee fa 3c 23 99 c6 3c 96 a7 10 bc
       0.022512674 0.030631348 0.024242943 -0.008829018
000110 2b dc be bb 43 e5 06 3d c0 a7 83 bc 78 76 12 3d
       -0.005824586 0.032933485 -0.0160712 0.03575751
000120 e6 d0 a6 3c 96 96 df 3c 06 8f 47 3c 47 b3 0d 3d
       0.020363282 0.027293485 0.012180096 0.0345948
000130 a8 4d df bc bb fc bf 3c 36 e3 ab 3b 6e 4e 27 3d
       -0.02725871 0.023435941 0.0052455915 0.04084628
000140 bb dc 0e 3c 70 21 8f bc db 3b 22 3c e3 85 92 3c
       0.008719618 -0.017471999 0.009901966 0.017886108
000150 eb 5b 87 3c 8b fa 17 3d 00 ec e8 b9 ae c2 17 3d
       0.016523322 0.03710417 -0.00044426322 0.037050895
000160 40 a8 13 3c 5b dc 02 3d 7b 59 66 bc 1b 23 8f bc
       0.009012282 0.03194843 -0.01405942 -0.017472794
000170 f0 f2 ba bc 00 80 01 b7 06 44 72 3c 60 94 fe bb
       -0.02282092 -7.7188015e-06 0.014786726 -0.0077691525
000180 ab b2 13 3a 20 97 32 3c 56 ea 53 3a f6 62 01 3d
       0.00056342286 0.010900289 0.000808393 0.031588517
000190 3b 5e c8 3c 36 52 bd 3c e0 a2 f5 3b 50 bb f3 bc
       0.024458995 0.02311049 0.007496223 -0.029752403
0001a0 f6 d9 a7 3c 56 3d 28 3c d4 07 11 3d 5b fd f0 3c
       0.020489674 0.01026853 0.035407856 0.029417684
0001b0 2e 38 27 3d e0 29 33 bc 10 56 08 3c 9b fe d8 3c
       0.04082506 -0.010935277 0.0083213 0.026488593
0001c0 e0 2b 0e bc 00 a0 ec 39 2b 18 ec ba ab 94 d2 39
       -0.008677453 0.00045132637 -0.0018012574 0.00040165088
0001d0 16 58 28 bc 76 6d c2 bc f3 d6 f1 bc c0 79 77 3b
       -0.010274908 -0.023733836 -0.029521441 0.0037761778
0001e0 50 08 e9 bc d8 21 e6 3c 60 0e bf 3b a6 3b 92 bc
       -0.028446347 0.02809231 0.005830571 -0.017850708
0001f0 c6 f8 71 bc b2 cf 10 bd 00 1f 0c 3b 2a 7c 26 3d
       -0.014768785 -0.035354324 0.0021380782 0.040645756
000200 c3 40 e7 3c 40 bd e4 3b 86 f5 e0 3c 6b 56 6e 3b
       0.028229123 0.006980568 0.027460825 0.0036367427
000210 0e cf e6 bc d2 33 10 3d 70 14 07 bc c0 1b 52 bc
       -0.028174903 0.03520567 -0.008244619 -0.012823999
000220 48 59 88 3c 40 95 0b bc 93 f2 c8 3c d6 d0 f7 3a
       0.016644135 -0.008519471 0.02452973 0.0018906842
000230 1a ca 00 3d b4 10 06 3d 80 12 dd 3a de aa 12 bd
       0.03144274 0.032730773 0.0016866475 -0.035807483
000240 4b d3 c2 3b 73 fe 9d 3c eb 83 ca bb a0 9f 27 bc
       0.0059455982 0.01928637 -0.0061802766 -0.010230929
000250 48 1c 9d bc 2b e4 73 3c 33 6d 0b 3d e6 ff 11 bc
       -0.019178525 0.014885942 0.034039687 -0.008911109
000260 d6 c9 2c 3b 4c 40 0c 3d 8c 1e 15 3d 6a 13 26 3d
       0.002636542 0.034241006 0.036406085 0.04054586
000270 6b 6c 52 3c a6 29 06 bd 53 9f 96 bc fc dc 06 3d
       0.012843232 -0.032754563 -0.018386519 0.03292559
000280 28 16 b7 bc 80 fc df 3c 2b 0a 91 3a eb 70 1e bb
       -0.022349432 0.027342081 0.0011065652 -0.002417619
000290 56 3c 5d 3b 6b 7f 01 bd 40 e9 f4 bc 2b 77 cf 3b
       0.0033757887 -0.031615656 -0.029896379 0.0063313446
0002a0 60 fb 7a bc 0b 8c 21 bd 16 1a 73 bb 46 a6 f3 bc
       -0.0153187215 -0.039440196 -0.0037094406 -0.029742371
0002b0 8f 9e 23 3d 48 3f 9f 3c 43 58 fc bc f6 da 04 3c
       0.039946135 0.019439355 -0.030803805 0.008108845
0002c0 d6 2c 37 bc ab 02 7d 3b f6 bc f8 bc 3a fc 03 bd
       -0.011180123 0.0038606327 -0.030363541 -0.032222964
0002d0 40 d7 41 3c 68 09 de bc 8b 41 62 bc 07 59 10 bd
       0.011831105 -0.027104095 -0.013809572 -0.035241153
0002e0 10 c0 0e bd 20 98 35 bc aa 9c 25 3d de 08 0e 3d
       -0.034851134 -0.011083633 0.04043261 0.034676425
0002f0 76 2c a5 3c b2 cd 03 3d 43 6d e2 bc a0 36 f0 3b
       0.020162802 0.03217859 -0.02763999 0.0073307306
000300 e2 aa 09 3d 6e 39 8e bc 36 8e da bb 6a 7e 15 bd
       0.033610232 -0.017361369 -0.006669785 -0.03649751
000310 80 9d 10 3c db 8d 22 3d 8b 0f bf 3b 2b 4a 84 bb
       0.008826613 0.039686065 0.0058307103 -0.004037162
000320 0b 05 28 bd de 96 1a 3d eb b7 e5 3b eb 96 eb 3c
       -0.041020434 0.037741534 0.00701045 0.028758487
000330 70 fe fd 3c 6e c8 f7 3c 00 d8 f4 bc d6 ca 7e bc
       0.031005114 0.03024694 -0.029888153 -0.01555129
000340 db 29 23 bc eb 25 bb bc 70 8b 1f 3c 00 7d 1d 3d
       -0.00995871 -0.02284523 0.009737834 0.038449287
000350 90 8e 69 bc 6b ae a6 bb 5b 69 fa 3c 80 2a af 3b
       -0.014255181 -0.00508671 0.030567816 0.0053456426
000360 20 9e da 3c 22 41 04 3d 3e 71 a5 3c db 3f 55 bc
       0.026686728 0.032288678 0.0201956 -0.013015713
000370 7b af 59 3c 70 fb 91 bc ab e9 58 ba cb 98 38 3c
       0.013286467 -0.01782009 -0.00082745653 0.011266897
000380 03 ae e5 3c f0 12 8e 3c 58 5d ce bc 03 f0 28 bd
       0.028037077 0.017343014 -0.025190994 -0.041244518
000390 b6 78 d6 bc 7a 57 03 3d 82 60 0f bd 96 00 89 bb
       -0.026180606 0.032065846 -0.035004146 -0.004180978
0003a0 b0 81 26 3d 1b bf 38 3c ab a7 23 3a 8b 8a 26 3c
       0.040651023 0.011276032 0.0006242941 0.010164867
0003b0 a6 4b c3 bc c2 98 25 3d 76 09 85 bc 2b 12 9d 3c
       -0.023839783 0.040428884 -0.016239863 0.019173702
0003c0 ef 94 20 bd 6b fe fe 3b 1b 4d 2d 3c 96 94 09 bb
       -0.039204534 0.007781794 0.010577465 -0.0020993105
0003d0 3a c7 12 3d ae 3d b8 3c 2b 86 7d bb 0b 4a e4 bb
       0.03583453 0.022490349 -0.0038684707 -0.0069668344
0003e0 44 7f 16 bd ab e3 83 3c c0 6d 25 3b 2e b6 c0 3c
       -0.036742464 0.016099771 0.0025242418 0.02352437
0003f0 5f 71 05 3d c8 57 aa bc ab ff c6 3b 56 a6 c2 bc
       0.032578822 -0.02079381 0.0060729585 -0.023760956

conv4.weight f4 [64, 64, 3, 3]
000000 53 b9 f3 bc 56 59 38 3b 2b 9b d8 3c 00 fc 46 3c
       -0.029751455 0.002812942 0.026441177 0.012145042
000010 d0 73 74 3c e6 2d de bc 08 42 8c bc 16 86 c6 bc
       0.01492019 -0.027121495 -0.01712133 -0.024233859
000020 40 27 80 bc c0 ec 1a 3b ae 34 8e bc e0 59 ae 3b
       -0.015643716 0.002363965 -0.017359104 0.0053207725
000030 48 6b f5 3c 18 3c 0a 3d 72 b7 1c 3d ce 02 91 3c
       0.029958382 0.033748716 0.038260885 0.017701533
000040 90 8e 9e bc aa 53 15 bd d6 51 d1 3c 7e 95 df 3c
       -0.019355088 -0.03645674 0.025551718 0.027292963
000050 13 12 99 bc 7b 69 35 3c 4e d3 1d 3d 6e 0a 83 3c
       -0.018685376 0.011072512 0.038531594 0.015996184
000060 db 50 cc 3c cb c2 b8 bb 2e 07 15 bd 1e 46 22 bd
       0.024940899 -0.0056384555 -0.0363838 -0.03961765
000070 14 6f 02 3d 2e 3a 25 bd 20 aa 21 3c 96 a4 2c 3b
       0.031844214 -0.040338688 0.009867221 0.0026343218
000080 7b 44 f1 3c 10 bd 9e bc 5b 65 76 3c 6e 59 f6 bc
       0.0294516 -0.019377261 0.015038813 -0.03007194
000090 c0 0d 1a bb 80 b1 fa 3b a4 ae 0a 3d 9e bd bb 3c
       -0.002350673 0.007650554 0.033857957 0.022917565
0000a0 66 56 1a bc ab f4 db 3a 76 82 f4 bc b6 1d 76 3c
       -0.009420013 0.0016781291 -0.029847365 0.015021732
0000b0 36 d0 57 bc d6 de 77 3b e4 9c 14 3d bb 78 70 bc
       -0.0131722 0.003782203 0.036282435 -0.014677222
0000c0 fa 63 22 3d 56 a4 f0 3c ec 3d 2a 3d a0 e4 5a 3c
       0.039646126 0.029375236 0.04156296 0.0133601725
0000d0 38 56 c1 3c 73 cd 9a 3c f3 2c d7 bc 40 c9 5f bb
       0.023600683 0.018896794 -0.02626655 -0.0034147054
0000e0 76 49 9a bc 36 76 40 3c 86 b6 be 3c c0 3e 7a bb
       -0.018833857 0.011746934 0.023280393 -0.0038184375
0000f0 96 64 1f 3c 83 f5 1b bd e0 4a dc 3c f6 90 ba bc
       0.009728571 -0.038075935 0.026891172 -0.0227742
000100 ee 0f 9f bc f0 f4 78 3c 18 c8 a2 bc 96 3d 30 bb
       -0.019416776 0.015195116 -0.019870803 -0.0026892177
000110 a0 f6 84 bc bb e2 26 3d 28 15 f0 3c d3 48 f1 bc
       -0.016230881 0.04074357 0.029306963 -0.02945367
000120 ab bd 14 ba 0f 71 1d bd 80 84 c8 3a 24 34 0b bd
       -0.00056740147 -0.0384379 0.0015298277 -0.033985272
000130 a8 6b bc 3c 46 a5 9e 3c e0 70 f4 3c 33 e2 cc 3c
       0.023000553 0.019365918 0.02983898 0.025010204
000140 4e b8 ad bc db 0b af bc 2b 82 19 3b 7a 1b 0b 3d
       -0.021206047 -0.021367958 0.0023423533 0.03396175
000150 76 eb db 3c 00 55 60 3c 56 a6 db 3b f6 73 f2 bb
       0.026845675 0.013692141 0.0067031784 -0.0073990775
000160 e6 15 05 3d 06 68 9e bc 56 69 ed 3a 40 dc e9 3c
       0.032491587 -0.019336712 0.0018113058 0.028547406
000170 96 4c a4 3c 80 c9 92 bc 80 76 1f bd 67 51 14 3d
       0.02005605 -0.017918348 -0.03893137 0.036210444
000180 83 eb 13 3d 00 08 5e ba f6 27 1e bc 80 00 a1 ba
       0.036113273 -0.000846982 -0.009653082 -0.0012283474
000190 18 12 83 3c b8 0f ca bc 23 52 ba 3c 7b 57 e1 bc
       0.015999839 -0.024665698 0.022744244 -0.027507534
0001a0 20 09 d1 bc 6b ae 83 3c 46 77 ff bc 40 a3 b4 3c
       -0.025517046 0.01607438 -0.031184804 0.0220505
0001b0 e0 2a 0b bc d6 9c be 3a 2b 4a e6 bb d6 e0 c9 bc
       -0.008494109 0.001454259 -0.0070278845 -0.024643343
0001c0 0b a8 0d 3c 70 8c 15 3d 8b d7 ed bb 60 09 0f 3c
       0.008646022 0.036510885 -0.0072583607 0.0087302625
0001d0 fe 30 07 bd f4 3d 26 bd 98 fe c4 bc d4 62 15 3d
       -0.033005707 -0.040586427 -0.024047181 0.036471203
0001e0 68 cd 16 bd 68 65 be 3c fe 6f 23 bd 42 25 17 bd
       -0.036816984 0.023241714 -0.039901726 -0.036900766
0001f0 f0 69 b1 bc e0 7c 36 bc ce 4f e1 3c 6b 82 15 bd
       -0.02165696 -0.011138171 0.027503874 -0.03650133
000200 10 a4 de 3c e8 ba f8 bc 0b 58 17 3c d0 11 28 bc
       0.02717784 -0.030362561 0.0092373 -0.010258153
000210 e0 a4 cb 3b 37 8a 20 3d 40 61 fc bb 87 ba 25 3d
       0.006214723 0.039194312 -0.007702023 0.04046109
000220 ab c1 a4 ba e0 73 e4 bb 7e 61 c5 bc 1b 32 e4 bc
       -0.0012569925 -0.006971821 -0.02409434 -0.027855923
000230 4b 37 66 bc e0 1f d7 3b c6 88 da 3c 6b 0a 48 bc
       -0.014051269 0.006565079 0.026676547 -0.012209515
000240 20 de be bb f3 6e 8e 3c 4b bb 20 3c e0 de 81 bb
       -0.005824819 0.01738689 0.009810279 -0.0039633363
000250 83 03 02 bd ab 0f 58 3b b6 cc c6 bc 60 26 e9 3c
       -0.03174163 0.0032968323 -0.024267536 0.028460681
000260 93 7a f1 3c 96 9e 32 bc 20 4c 21 3d a8 01 af 3c
       0.029477393 -0.010902068 0.03937924 0.021363094
000270 4b b2 25 3d de aa 9f 3c 00 f0 2d 39 9f ae 19 bd
       0.040453237 0.019490656 0.00016587973 -0.037520047
000280 db da 4f bc e3 4e bb bc 1e 13 26 3d eb a5 87 bc
       -0.012686457 -0.022864765 0.040545575 -0.016558608
000290 d6 b6 dd 3a c6 4d 55 bc ab 5c 7a 3c d6 14 b4 bc
       0.0016915451 -0.013019031 0.015280883 -0.021982592
0002a0 40 72 1f bc 80 49 0f 3b 4b 51 19 bc cb c7 24 3d
       -0.009731829 0.0021863878 -0.009357761 0.0402296
0002b0 06 fa ae bc 10 08 4e bc 4b 7c 8a 3c 4b 6c b1 bb
       -0.021359455 -0.012575164 0.01690497 -0.005414521
0002c0 2b 17 68 bb e0 94 d3 3c 43 5a f9 bc 10 b0 5c bc
       -0.00354142 0.025827825 -0.030438548 -0.013469711
0002d0 cb 5b ed 3b 90 2c 5e bc 03 a0 0e 3d 3a a2 04 3d
       0.0072436086 -0.013560429 0.034820568 0.032381274
0002e0 6b 2a 22 3b 8f a1 21 3d de 17 97 3c a3 23 d9 bc
       0.0024744521 0.039460715 0.018443998 -0.02650625
0002f0 e6 a1 87 bc de 3a 95 bc a8 90 8c bc d7 92 04 3d
       -0.016556691 -0.018216547 -0.017158821 0.0323666
000300 56 fc b1 3a 7e 0c 0c 3d 40 74 86 bb e6 a3 6d 3c
       0.001357923 0.0341916 -0.0041032135 0.014504408
000310 96 37 36 bc 33 29 c9 bc 44 65 1a bd 3b 67 23 bd
       -0.011121651 -0.024555778 -0.03769423 -0.03989337
000320 a6 a4 c6 3c 06 08 60 3c 2b 5b 24 3d 00 11 49 bc
       0.024248432 0.013673788 0.040126007 -0.0122721195
000330 e8 1d 00 3d 40 eb ee bc 06 4e da 3c 03 fa 11 3d
       0.03127852 -0.02916491 0.026648533 0.03563882
000340 90 47 43 bc bb 9e cb 3c 20 f7 5c bc 6b 46 00 bc
       -0.011918917 0.024855962 -0.013486654 -0.007829289
000350 26 16 3d bc 42 63 14 bd 10 e9 17 bc 86 c8 2f bc
       -0.011540925 -0.036227472 -0.009271875 -0.010728961
000360 1e c0 d5 bc db d3 20 bd 00 59 23 bb 00 a9 07 ba
       -0.026092585 -0.03926454 -0.0024924874 -0.0005175024
000370 5b c3 23 3c be 70 aa bc 12 16 1d bd 5e dd c9 3c
       0.009995307 -0.020805713 -0.038351126 0.024641689
000380 4e a2 cb 3c 6a 12 1b 3d db 24 0f 3c d8 e3 07 bd
       0.024857666 0.037859358 0.008736814 -0.033176273
000390 56 a7 3d bc bb 7f 36 3c 48 3f 0e 3d 80 d0 3a 3b
       -0.0115755405 0.011138852 0.03472832 0.0028505623
0003a0 de 03 fb bc fb b5 b2 3c a2 bc 05 3d cb fc 88 bc
       -0.030641492 0.02181529 0.032650597 -0.016722104
0003b0 c0 e8 5c 3b b6 b6 b6 3b d6 df fe bc 70 e0 50 bc
       0.0033708066 0.00557598 -0.031112593 -0.012748823
0003c0 7b 6d ab bc 00 35 9b 3a 4e 29 8b bc c6 b3 0b bc
       -0.020926228 0.0011841357 -0.016987469 -0.008526748
0003d0 b8 84 21 bd 27 19 1b bd e6 db 79 3c 08 f4 c5 bc
       -0.03943321 -0.037865784 0.015250182 -0.024164215
0003e0 87 a5 26 bd c0 68 2f bc f0 1f b3 bc f6 68 ed bc
       -0.040685203 -0.010706127 -0.021865815 -0.028980713
0003f0 17 88 10 bd e6 99 8c 3c b3 23 27 3d 44 1a 16 bd
       -0.035286035 0.017163228 0.04080553 -0.036646143
