unit_tests_workloads/test_workload.onnx (onnx, 230174 bytes, 3 tensors)

conv1.weight f4 [64, 256, 1, 1]
0	0x3c70d0f0	0.014698252
1	0x3d27e984	0.040994182
2	0x3c1149e0	0.008867711
3	0x3cffaf44	0.031211503
4	0x3d78a05a	0.0606998
5	0xbab68200	-0.0013924241
6	0x3d2c17b4	0.042014793
7	0xbd00dcf4	-0.031460717
8	0x3d332e7c	0.043745503
9	0x3d283946	0.041070245
10	0xbd6b9adc	-0.057520732
11	0xbd39230e	-0.045199446
12	0x3cf77284	0.030205972
13	0x3cd69bc0	0.026197314
14	0xbbdda930	-0.0067645535
15	0x3c3f8950	0.011690453
16	0x3b1e9f00	0.0024203658
17	0x3c429c68	0.0118781105
18	0xbd1dc3bc	-0.038516745
19	0xbd7daee8	-0.06193438
20	0x3c849948	0.016186371
21	0x3c7a9398	0.015293978
22	0xbd656f06	-0.056014083
23	0xbc703d98	-0.014663123
24	0xb9ff8e00	-0.00048743188
25	0xbd25c4a6	-0.04047074
26	0x3d206aac	0.03916423
27	0xbd792f2a	-0.060835995
28	0x3b78a5e0	0.0037940666
29	0x3b7117c0	0.0036787838
30	0x3d3a56b4	0.045492843
31	0xbd2b770a	-0.04186157
32	0xbd731846	-0.05934932
33	0xbcf3a1f4	-0.029740311
34	0xbc98a374	-0.018632628
35	0xbb528d80	-0.0032127798
36	0x3d2fbbf8	0.04290387
37	0xbc4347c8	-0.011918969
38	0xbcb4f2e4	-0.022088476
39	0xbd60cfe8	-0.054885775
40	0x3d3069a0	0.04306948
41	0xbcfa8368	-0.030580238
42	0x3d12f948	0.035882264
43	0x3b4a1ca0	0.0030839816
44	0xbd500fb4	-0.050796226
45	0x3bf76200	0.0075495243
46	0x3d0f3982	0.034966953
47	0x3d457298	0.04820499
48	0xbd4a85d8	-0.04944405
49	0xbd3bd59e	-0.045858018
50	0xbcd5db10	-0.026105434
51	0xbc43a428	-0.011940993
52	0x3bd97890	0.0066366866
53	0x3d12356a	0.03569547
54	0x3ae3c200	0.0017376542
55	0xbc906448	-0.017625943
56	0xbd09c310	-0.03363329
57	0xbc9959ec	-0.018719636
58	0xbc8f89d0	-0.017521769
59	0x3d14f326	0.036364697
60	0xbb1ba600	-0.0023750067
61	0x3af36fc0	0.0018572733
62	0x3d742494	0.059605196
63	0xbd105efc	-0.035246834
64	0x3c5ff360	0.013668865
65	0x3cc5a758	0.024127647
66	0xbd7bf7e6	-0.06151571
67	0xbd7cdad0	-0.061732113
68	0xbd7b3790	-0.061332285
69	0x3d55f078	0.052231282
70	0xbc5393e0	-0.012913674
71	0x3c978ea4	0.018500634
72	0xbcfe1d74	-0.031019904
73	0x3c58adc8	0.013225026
74	0xbc9015d0	-0.017588526
75	0x3b68a1a0	0.0035496727
76	0xbcc4598c	-0.02396848
77	0x3d2b8392	0.041873522
78	0xbd6bf6e0	-0.057608485
79	0x3c6d48b0	0.014482662
80	0xbacbaf40	-0.00155399
81	0xbd733f96	-0.059386812
82	0x3d051920	0.032494664
83	0x3d455966	0.04818096
84	0xbd460c6a	-0.048351683
85	0xbc69b4d8	-0.014264308
86	0xbd670dae	-0.05640953
87	0xbd22db26	-0.039759777
88	0xbd1e7cd8	-0.03869328
89	0x3c3fc378	0.011704318
90	0xbb8067e0	-0.003918633
91	0xbd028836	-0.031868182
92	0xbc3e5a00	-0.011618137
93	0x3c87c0c8	0.016571417
94	0xbd1ecb14	-0.03876789
95	0x3cc0d268	0.02353783
96	0x3d26cbc4	0.04072167
97	0xbcabcf48	-0.020972863
98	0xbd510af8	-0.05103585
99	0xbb354340	-0.0027658492
100	0xbbb46860	-0.0055056065
101	0xbc9af184	-0.018913992
102	0xbd2dd21e	-0.04243671
103	0xbd4fd088	-0.05073598
104	0xbce4bdf8	-0.027922615
105	0x3cd4e784	0.025989302
106	0x3d503eea	0.05084125
107	0xbca87fd0	-0.020568758
108	0x3ca00630	0.0195342
109	0xbbed7d10	-0.0072475746
110	0xbd3f7d5e	-0.04675042
111	0xbd19ba44	-0.037531152
112	0x3c89da6c	0.016827784
113	0x3d723dae	0.059140854
114	0x3c7d7c68	0.015471555
115	0xbbe4ff60	-0.006988451
116	0x3bba9280	0.0056937337
117	0x3d3a146a	0.045429625
118	0xbcce9bb4	-0.02522073
119	0xbc03ed20	-0.0080521405
120	0x3d441db4	0.04787989
121	0x3d7cb258	0.06169352
122	0xbccc267c	-0.024920695
123	0xbd301ee8	-0.042998224
124	0x3d08f202	0.03343392
125	0x3d039526	0.03212466
126	0xbd08f288	-0.03343442
127	0xbcfa09c0	-0.030522227
128	0x3d12e9ea	0.03586761
129	0xbcf66c30	-0.030080885
130	0x3d544db4	0.051831916
131	0x3d373586	0.04472878
132	0xbd3803f0	-0.04492563
133	0x3ca84cf0	0.0205445
134	0xbcb127e4	-0.021625467
135	0xbd7de644	-0.061987177
136	0x3d3ddefa	0.046355225
137	0xbc3e4cd0	-0.011614993
138	0x3d5ccd0a	0.053906478
139	0xbd693ebe	-0.0569446
140	0x3a10e180	0.0005526766
141	0xbd5d427e	-0.05401849
142	0xbccc3bc4	-0.024930842
143	0x3b628340	0.0034563094
144	0x3d4ae9d0	0.049539387
145	0x3d44286e	0.04789012
146	0x3d6f6838	0.058449
147	0x3cb224a8	0.021745995
148	0x3c004980	0.007830024
149	0x3d66d838	0.056358546
150	0xbcf788fc	-0.030216686
151	0x3d04f376	0.032458745
152	0xbd07adac	-0.03312461
153	0x3d524738	0.05133745
154	0xbcf9d948	-0.030499116
155	0xbc76bd78	-0.015059821
156	0xbd5475b8	-0.051870078
157	0xbd490d9e	-0.049085252
158	0x3d377288	0.04478696
159	0xbbd5c0a0	-0.006523207
160	0x3ce4c2ac	0.027924858
161	0x3d5b1fda	0.053497173
162	0xbc736e10	-0.014857784
163	0x3d22afd2	0.039718457
164	0xbcc3c750	-0.02389875
165	0xbc1ae718	-0.009454511
166	0xbac0d380	-0.0014711469
167	0xbc91d23c	-0.017800443
168	0xbd5b6e5c	-0.053572044
169	0xbcc55c10	-0.02409175
170	0xbcb9395c	-0.022610359
171	0xbc93ee68	-0.018058017
172	0xbbfe2f10	-0.007757075
173	0xbd1387ca	-0.03601817
174	0x3d1a10d6	0.037613712
175	0xbd55b4da	-0.052174427
176	0x3cb4d5dc	0.022074632
177	0x3c08c370	0.008347377
178	0x3cd9cde0	0.026587427
179	0xbd41fb12	-0.04735858
180	0x3cf0fcb0	0.029417366
181	0xbc50fec0	-0.01275605
182	0xbceca158	-0.028885528
183	0xbd560bca	-0.052257337
184	0x3d62a0d0	0.055329144
185	0xbd464f88	-0.04841569
186	0x3c9e83b4	0.01934991
187	0xbc97ef68	-0.018546775
188	0xbc92beb8	-0.017913207
189	0x3c941e3c	0.018080823
190	0xbd7b6880	-0.061378956
191	0x3cc76268	0.024338916
192	0x3d02b832	0.031913944
193	0x3d36be38	0.044615
194	0x3d4874de	0.04893958
195	0xbc6146b0	-0.013749763
196	0xbd098338	-0.033572406
197	0x3b81b120	0.0039578825
198	0xbb477520	-0.0030434802
199	0x3d28799c	0.0411316
200	0x3cbf6d80	0.023367643
201	0x3ca32088	0.019912973
202	0xbd069690	-0.03285843
203	0x3c9c6e74	0.019095637
204	0xbd677944	-0.056512132
205	0xbd68def2	-0.056853242
206	0x3cccd8a0	0.025005639
207	0x3bb2d440	0.005457431
208	0xbd034c18	-0.03205499
209	0xbcde49e4	-0.027134843
210	0xbd41e738	-0.047339648
211	0xbd111e26	-0.035429142
212	0xbcb46b4c	-0.02202382
213	0x3d10ba4c	0.035333917
214	0xbb9cf730	-0.0047902092
215	0xbd37b5bc	-0.04485105
216	0xbd42a058	-0.047516197
217	0x3cb87228	0.022515371
218	0x3cbed2c4	0.02329386
219	0x3d4dc618	0.050237745
220	0x3c693180	0.014232993
221	0x3cd39184	0.025826223
222	0x3c074090	0.008255139
223	0x3d6cfd58	0.057858795
224	0x3d6eee86	0.058332942
225	0xbc586bf0	-0.013209328
226	0xbcd14d2c	-0.025549494
227	0x3d632b1a	0.055461027
228	0x3d31eb2e	0.043437175
229	0xbd407350	-0.04698497
230	0xbc1ea640	-0.009683192
231	0x3d673934	0.056451038
232	0xbcaa27c4	-0.020770915
233	0x3d76d27c	0.060259327
234	0xbccf2c54	-0.025289692
235	0x3cfa66c8	0.030566588
236	0x3cffdd48	0.031233445
237	0x3d3aa518	0.045567602
238	0xbc845c4c	-0.016157292
239	0x3d0063b0	0.03134507
240	0x3c0317d0	0.008001283
241	0xbd566f22	-0.05235208
242	0x3cbfc6a0	0.023410141
243	0x3cc721dc	0.024308138
244	0xbd66d0fa	-0.05635164
245	0xbd30278c	-0.043006465
246	0x3d5079d4	0.050897434
247	0xbd4ae7e6	-0.04953756
248	0x3d46efc8	0.048568517
249	0x3d30cce6	0.043164156
250	0x3d1ab1aa	0.03776709
251	0x3c9fdda0	0.019514859
252	0xbcf7f570	-0.0302684
253	0xbcc9e344	-0.024644502
254	0x3c3acfd8	0.011402093
255	0xbd195ad8	-0.03744015

conv2.weight f4 [64, 64, 3, 3]
0	0xbc70735b	-0.01467594
1	0x3cfe877e	0.031070467
2	0x3ae3c5ab	0.0017377635
3	0x3c816213	0.015793836
4	0x3bb93aab	0.0056527457
5	0x3cf62df6	0.030051213
6	0x3ce36676	0.027758818
7	0xbd10d5fc	-0.03536032
8	0x3bc37a40	0.005965501
9	0x395012ab	0.0001984338
10	0xbcf89273	-0.03034327
11	0xbcd0a91b	-0.02547126
12	0xbd24971f	-0.040183183
13	0xbd13dba2	-0.03609813
14	0xbbbeda40	-0.0058243573
15	0xbcc0eaee	-0.023549523
16	0x3d24dd4b	0.040250104
17	0xbcb28708	-0.021792904
18	0x3ca4ccb6	0.020117145
19	0x3c2c41c0	0.010513723
20	0x3d24792c	0.04015462
21	0x3c65f606	0.014035707
22	0x3d14daf4	0.036341622
23	0xbd2315ba	-0.039815642
24	0xbcc6d323	-0.0242706
25	0x3d12679c	0.03574334
26	0xbc94b888	-0.018154398
27	0xbd1d61ff	-0.038423534
28	0xbcf40cc0	-0.029791236
29	0xbc00383b	-0.007825906
30	0xbd0ed2fe	-0.034869187
31	0xbd22e268	-0.0397667
32	0x3c4cb696	0.012494704
33	0xbcefef36	-0.02928887
34	0x3c98501b	0.018592885
35	0x3c186c5b	0.009303178
36	0x3cc9dd3b	0.024641624
37	0x3a244dab	0.0006267677
38	0xbb9cc38b	-0.0047840527
39	0xbd04a56e	-0.03238433
40	0xbc8cdcc8	-0.01719512
41	0x3d0f8273	0.035036515
42	0x3d16bac4	0.036799207
43	0xbcff2483	-0.03114534
44	0xbc6a0e30	-0.014285609
45	0x3c845328	0.016152933
46	0xbbf68340	-0.0075229704
47	0x3b9e2ee0	0.0048273653
48	0x3c7f03eb	0.015564899
49	0x3cd97658	0.026545689
50	0x3cd7fd2e	0.026365843
51	0x3c91fda6	0.017821144
52	0xbc3fdc56	-0.011710247
53	0xbd079fac	-0.03311126
54	0x3c93d65e	0.018046554
55	0xbd1c6fec	-0.038192675
56	0x3c2c90ab	0.010532538
57	0xbd1e8256	-0.038698517
58	0xbd16b53b	-0.03679393
59	0x3cd03a60	0.02541846
60	0x3cf625c0	0.030047297
61	0x3b9a5160	0.0047094077
62	0x3ad72cd6	0.001641656
63	0x3b507256	0.003180643
64	0x3d0a79d7	0.0338076
65	0x3cabf733	0.020991897
66	0xbd242ca8	-0.04008165
67	0xbc8d24b6	-0.01722942
68	0x3c75a040	0.01499182
69	0xbcc1adbb	-0.023642411
70	0xbd134328	-0.035952717
71	0x3ca9f646	0.020747315
72	0x3d0d3314	0.03447254
73	0xbb7c5c00	-0.0038506985
74	0xbcfac2ee	-0.030610528
75	0xbb8cc1d6	-0.004295568
76	0x3b498fab	0.0030755799
77	0x3b19f656	0.0023492775
78	0xbb750e56	-0.0037392578
79	0xbc4cff3b	-0.012512024
80	0x3ccf5c80	0.025312662
81	0x3cb03eae	0.021514263
82	0x3bbe7d20	0.005813256
83	0xbc85244e	-0.016252663
84	0xbcd17066	-0.025566291
85	0x3d055724	0.032553807
86	0x3d27cd4c	0.04096727
87	0x3bbb630b	0.005718594
88	0x3d182214	0.037141874
89	0xbb541c6b	-0.0032365571
90	0xbcfcdb93	-0.03086642
91	0x3cebe848	0.028797284
92	0x3d283b8b	0.04107241
93	0xbc99e5be	-0.018786307
94	0x3c78fc56	0.01519688
95	0xbc05c7d0	-0.008165315
96	0x3c3b56b0	0.011434242
97	0xbc84f420	-0.01622969
98	0x3d20776f	0.0391764
99	0x3cdc9988	0.026928678
100	0x3c9462a8	0.01811345
101	0x3c313cf0	0.010817751
102	0x3c8ca50b	0.017168542
103	0xbc925696	-0.017863553
104	0x3c807b1e	0.015683707
105	0xba6785ab	-0.0008831869
106	0x3cdfe438	0.027330503
107	0xbc250280	-0.010071397
108	0xbc4f6a0b	-0.01265956
109	0x3cb38218	0.02191262
110	0xbd011e0f	-0.031522807
111	0xbd0f6b2f	-0.035014328
112	0x3b941a2b	0.004519721
113	0x3d2206af	0.039557155
114	0xbcc84268	-0.024445727
115	0x3d1f0566	0.038823508
116	0xbb8eaf56	-0.0043543978
117	0xbc92aec8	-0.017905608
118	0x3c6f8036	0.01461797
119	0x39d79eab	0.00041126212
120	0x3cba1f3e	0.022719976
121	0xbababed6	-0.0014247547
122	0xbcc7f2cb	-0.024407765
123	0x3b54cd56	0.0032471023
124	0xbd067a37	-0.032831397
125	0xbc211b40	-0.009833157
126	0xbd0d9b57	-0.03457197
127	0x3b0c98c0	0.002145335
128	0x3d194b80	0.037425518
129	0xbc9d4e7e	-0.019202467
130	0xbc711e30	-0.01471667
131	0xb8454aab	-4.7038e-05
132	0xbb9d04cb	-0.004791831
133	0x3aa74ed6	0.0012764584
134	0xbc9fb73b	-0.01949655
135	0x3d064d47	0.03278854
136	0x3b0ffc16	0.0021970323
137	0xba9f6280	-0.0012160093
138	0xbcc5bce0	-0.024137914
139	0xbccdb42e	-0.02511033
140	0xbbde550b	-0.0067850403
141	0x3d057d32	0.0325901
142	0x3c8e5dfe	0.017378803
143	0xbd0c364b	-0.034231465
144	0x3d0aade4	0.03385724
145	0xbcd4578b	-0.02592065
146	0xbc812388	-0.015764013
147	0xbbe05db6	-0.0068471087
148	0x3c10cfd6	0.008838614
149	0xbc9604d8	-0.018312857
150	0xbd000e8b	-0.03126387
151	0xbc6427cb	-0.013925503
152	0x3b7f04c0	0.0038912743
153	0xbae29c56	-0.0017289023
154	0x3ab88a2b	0.0014079263
155	0xbb3f1696	-0.002915775
156	0x3d0654a8	0.03279558
157	0x3d13cd34	0.03608437
158	0xba41b056	-0.0007388642
159	0x3d012e8a	0.031538524
160	0x3d1ff9ab	0.03905646
161	0xbd148cda	-0.03626714
162	0xbc9afccb	-0.01891937
163	0x3cdfb4fb	0.027307978
164	0x3cb501b8	0.022095546
165	0xbcbe2510	-0.023211032
166	0x3c2d41e0	0.010574788
167	0x3b2cc1d6	0.0026360652
168	0x3c753516	0.01496627
169	0x3bc5a8a0	0.0060320646
170	0x3d1b16be	0.037863486
171	0xbc627310	-0.013821378
172	0x3b9aa18b	0.0047189645
173	0x3c34ff26	0.01104716
174	0x3c8e12b6	0.017342906
175	0x3c1c1670	0.009526834
176	0xbccd4736	-0.02505837
177	0x3d0c8404	0.034305587
178	0xbc87da90	-0.01658371
179	0x3c12ce40	0.008960307
180	0xbc444d50	-0.011981323
181	0x3d2375fb	0.039907437
182	0x3ce30cb8	0.027716026
183	0xbd04c12a	-0.032410778
184	0x3ce8f9e6	0.028439473
185	0x3c5f0166	0.013611173
186	0x3b1e196b	0.0024124037
187	0xbc92ce60	-0.017920673
188	0xbbcb6a2b	-0.0062077246
189	0xbbfe9936	-0.007769729
190	0x3c3c5696	0.011495253
191	0x3d29bb94	0.041438654
192	0xbc138a66	-0.009005165
193	0x3b0975d6	0.0020974777
194	0x3cea5b4e	0.02860799
195	0x3ceaceeb	0.02866312
196	0xbc0dce10	-0.008655086
197	0x3c8366de	0.016040262
198	0xbc48261b	-0.012216116
199	0x3b36d340	0.002789691
200	0x3cb3ddc3	0.02195633
201	0xbd0b5973	-0.034020852
202	0x3c758756	0.01498588
203	0xbd12392f	-0.035699066
204	0xbc863f36	-0.016387563
205	0xbca5bf78	-0.020232901
206	0xbc292666	-0.010324096
207	0x3c3062fb	0.010765786
208	0x3c165936	0.009176543
209	0xbc889020	-0.016670287
210	0x3d14ab28	0.03629604
211	0xbb4010c0	-0.0029306859
212	0x3cf931de	0.030419286
213	0x3d0b459f	0.034001943
214	0xbd2891e6	-0.041154765
215	0xbbef40b6	-0.0073014153
216	0xbd00262f	-0.031286415
217	0x3caf1e16	0.02137665
218	0xbbf43536	-0.0074526323
219	0xbd052937	-0.03251001
220	0x3c97dc2b	0.018537601
221	0xbcb059ab	-0.021527132
222	0x3cb0e608	0.021594062
223	0xbc969a6b	-0.01838418
224	0x3ce8d72e	0.028422918
225	0xbd27c03e	-0.04095482
226	0x3cf0bcde	0.029386934
227	0xbc626456	-0.013817867
228	0x3cce1f53	0.02516142
229	0x3d2755f3	0.040853452
230	0xbcbd0570	-0.023073882
231	0x3c71ea46	0.014765328
232	0xbc396680	-0.011315942
233	0xbccaeb58	-0.024770424
234	0x3b3ab4c0	0.0028489083
235	0xbc08a28b	-0.0083395345
236	0x3ce68333	0.028138733
237	0xbc986cd6	-0.018606585
238	0xbcb7a218	-0.02241616
239	0xbcfce910	-0.030872852
240	0xbc08ecc0	-0.008357227
241	0xbd1eb832	-0.03874988
242	0xbca86c9e	-0.020559605
243	0xbcf2a1c6	-0.029618155
244	0xbbca110b	-0.0061665825
245	0xbd110d0a	-0.035412826
246	0x3cb8155e	0.022471126
247	0x3d1fdea3	0.039030682
248	0xbb3b4dc0	-0.0028580278
249	0x3a5f1400	0.0008509755
250	0xbcaaf99e	-0.02087098
251	0xbcd949e0	-0.026524484
252	0x3c4c0146	0.0124514755
253	0xbcefbb33	-0.029264068
254	0xbcf68748	-0.030093804
255	0xbc21e970	-0.009882316

conv3.weight f4 [64, 64, 1, 1]
0	0x3de6bc8c	0.11266431
1	0x3dc3094c	0.095232576
2	0xbdd1aabc	-0.10237643
3	0xbd3b2c58	-0.045696586
4	0x3d4bfc3c	0.049801096
5	0xbd7f3ab0	-0.062311828
6	0xbd0bae84	-0.034101978
7	0x3dbc0afe	0.09181784
8	0xbdbac8f8	-0.09120363
9	0xbd86eca4	-0.06588104
10	0x3d1ffb04	0.039057747
11	0xbdc75868	-0.09733659
12	0xbdfa2ae0	-0.12215209
13	0xbd9f9b06	-0.0779324
14	0xbdc65bea	-0.096855
15	0xbdba63ea	-0.09101088
16	0x3ccd4a00	0.0250597
17	0xbd2b5f04	-0.04183866
18	0x3d5d9c00	0.05410385
19	0xbdea8518	-0.11451167
20	0xbcc26508	-0.023729816
21	0x3d6d3800	0.057914734
22	0xbcfadef0	-0.030623883
23	0x3bf187c0	0.007370919
24	0x3d851aa8	0.06499225
25	0xbdcd9906	-0.100389525
26	0xbcf5a0a8	-0.029983833
27	0xbdbb41ec	-0.09143433
28	0x3d90c8f0	0.07069576
29	0x3dfffdb2	0.124995604
30	0x3d979f8a	0.074034765
31	0x3c3680a0	0.011139065
32	0xbc4ab500	-0.012372255
33	0x3dfdd512	0.123941556
34	0x3d2d5040	0.04231286
35	0xbc7922a0	-0.015206009
36	0x3db0951e	0.08622192
37	0xbd8876d2	-0.06663288
38	0xbd17c288	-0.037050754
39	0x3de3ab6a	0.11116679
40	0xbd0c9720	-0.03432381
41	0x3cd6cc68	0.026220515
42	0x3d8127bc	0.06306407
43	0xbda67374	-0.0812749
44	0xbdd15816	-0.10221879
45	0x3d2b931c	0.04188834
46	0xbdb2342a	-0.08701356
47	0x3d8e8d78	0.06960577
48	0x3d0a418c	0.033753917
49	0xbdca5244	-0.09878972
50	0x3cf4ec60	0.029897869
51	0xbdf63646	-0.120220706
52	0xbc8e4340	-0.017366052
53	0x3acfb600	0.0015847087
54	0x3d3e129c	0.046404466
55	0x3dda8774	0.10670367
56	0xbcfe0528	-0.031008318
57	0xbddb12fa	-0.10696979
58	0xbd9b1580	-0.0757246
59	0xbc516840	-0.012781203
60	0xbc886930	-0.01665172
61	0x3da9a5f6	0.08283608
62	0x3daf06e6	0.08546238
63	0xbd4e8118	-0.050416082
64	0xbdb6d77c	-0.08927819
65	0xbdfee844	-0.12446645
66	0xbdecdbb2	-0.11565341
67	0x3dffd226	0.124912545
68	0xbdc7f5b8	-0.09763664
69	0xbdcb69f2	-0.09932317
70	0xbdfee8d8	-0.12446755
71	0xbbc77f60	-0.0060881823
72	0xbdf781e8	-0.120853245
73	0x3dbd3f2e	0.09240566
74	0x3dfd5d56	0.12371318
75	0x3de1701c	0.11007711
76	0x3d13ad5c	0.036054
77	0x3dbd585c	0.09245369
78	0xbcc0bd28	-0.023527697
79	0xbdc65cce	-0.0968567
80	0xbdcd0726	-0.10011129
81	0x3d2c3e38	0.042051524
82	0x3bf502a0	0.0074771196
83	0xbdc53b1e	-0.09630416
84	0x3daa9b60	0.08330417
85	0x3d94b7e6	0.07261638
86	0x3dc86f20	0.097868204
87	0x3dd6f718	0.10496348
88	0x3d5efb8c	0.054439113
89	0xbc707f60	-0.014678806
90	0xbdbd8ed8	-0.09255761
91	0xbdb6f0ae	-0.08932625
92	0xbd82a596	-0.06379239
93	0x3db4c806	0.08827214
94	0xbbb8cea0	-0.005639866
95	0xbddfb22e	-0.10922657
96	0xbda0a706	-0.07844357
97	0xbdc584b8	-0.09644455
98	0xbdbc0eb4	-0.09182492
99	0xbd8b0c12	-0.067894116
100	0x3ccb3aa0	0.024808228
101	0xbab99d00	-0.001416117
102	0xbdd297d6	-0.10282867
103	0xbcdc25c8	-0.026873484
104	0x3d64a114	0.05581768
105	0xbcaa4300	-0.020783901
106	0xbcd1e4d8	-0.025621817
107	0xbde33510	-0.11094105
108	0xbdfe19c6	-0.1240726
109	0x3d255870	0.040367544
110	0xbca44138	-0.02005063
111	0xbb43ea00	-0.0029894114
112	0x3de96298	0.113957584
113	0xbc0c93e0	-0.008580178
114	0x3df1a086	0.117981955
115	0x3d7732e8	0.060351282
116	0x3d91dd04	0.071222335
117	0x3de25c8a	0.11052807
118	0x3d2d6488	0.042332202
119	0x3da14ff6	0.078765795
120	0xbde17cca	-0.1101013
121	0xbd8a9ed8	-0.06768578
122	0x3db230d2	0.08700718
123	0xbc106240	-0.008812487
124	0x3d28ec88	0.0412412
125	0xbb9f71a0	-0.00486584
126	0x3d8d54e2	0.06900956
127	0x3df3998c	0.11894521
128	0x3d9ae5fc	0.07563397
129	0x3d87535a	0.06607695
130	0x3d78ac84	0.0607114
131	0x3de769de	0.112994894
132	0xbdaa4906	-0.08314709
133	0xbd80b072	-0.06283654
134	0x3dc96c90	0.0983516
135	0xbc9f9bc8	-0.019483462
136	0x3c7b63e0	0.015343636
137	0x3c86e8a8	0.016468361
138	0x3dee28de	0.116288885
139	0xbc348630	-0.011018321
140	0x3decea38	0.11568111
141	0x3dd4fabc	0.10399386
142	0xbdb3b976	-0.08775608
143	0xbd973c3c	-0.07384536
144	0x3d64387c	0.05571793
145	0x3d899ed8	0.0671975
146	0xbd611ba4	-0.054958
147	0x3ca16d00	0.019705296
148	0x3d35c494	0.044376925
149	0xbcd806c0	-0.026370406
150	0xbd8deb40	-0.06929636
151	0xbc0f9550	-0.008763626
152	0x3ca5d5e8	0.0202436
153	0x3d024784	0.031806484
154	0x3de24296	0.110478565
155	0xbddba014	-0.10723892
156	0x3dd0d468	0.10196763
157	0x3c847840	0.01617062
158	0xbd30dbc4	-0.043178335
159	0xbd042184	-0.032258525
160	0xbd8ca2b0	-0.06866968
161	0xbd8c5242	-0.06851627
162	0xbdc2bff2	-0.09509267
163	0xbd0ce730	-0.034400165
164	0xbd0f54bc	-0.03499292
165	0x3d7e9d54	0.06216176
166	0xbceae490	-0.02867344
167	0xbd87f422	-0.066383615
168	0xbd816c36	-0.06319468
169	0x3ce24658	0.027621433
170	0xbd6bb05c	-0.057541236
171	0xbde24eb6	-0.11050169
172	0xbd767dc0	-0.06017852
173	0x3d70b18c	0.058763072
174	0x3d90720e	0.07053004
175	0xbd9ec0c8	-0.07751614
176	0x3d95f9ae	0.07323013
177	0xbd355cd8	-0.044277996
178	0xbdde364c	-0.108502
179	0x3cba5390	0.022744924
180	0xbdce98e4	-0.10087755
181	0x3dff8820	0.12477136
182	0x3c834f10	0.01602891
183	0xbd926174	-0.07147494
184	0x3c7709a0	0.015077978
185	0x3de7a24e	0.11310254
186	0x3d62f864	0.055412665
187	0x3d85f120	0.065401316
188	0x3d64ebd4	0.055888966
189	0xbdecacfe	-0.11556433
190	0xbdd5e700	-0.104444504
191	0x3d7e09c8	0.062021047
192	0x3da839b6	0.082141325
193	0x3dc0eafe	0.09419821
194	0xbdbb7576	-0.09153263
195	0xbd0251bc	-0.03181623
196	0xbdd85aaa	-0.10564168
197	0x3dda43cc	0.106574625
198	0xbda0abf0	-0.078452945
199	0x3d92cf7c	0.07168481
200	0xbd47c7b0	-0.04877442
201	0xbd495220	-0.049150586
202	0x3c3c0740	0.011476338
203	0x3da54dea	0.080715016
204	0xbb7ea2c0	-0.003885433
205	0xbdb30b78	-0.08742422
206	0xbc9855b0	-0.018595546
207	0x3ddee57a	0.10883613
208	0xbc6451d0	-0.013935521
209	0x3d989062	0.07449414
210	0xbc7316f0	-0.014837012
211	0x3c8c54c0	0.017130256
212	0xbdeed2c6	-0.116612956
213	0x3ce0d490	0.027445108
214	0x3d765430	0.06013888
215	0x3dc48df8	0.09597391
216	0x3c2decf0	0.010615572
217	0xbce50f08	-0.027961269
218	0x3d1d3614	0.03838165
219	0x3d8db58e	0.069193944
220	0x3d80dc24	0.062919885
221	0xbd8584a4	-0.0651944
222	0xbda3c946	-0.07997374
223	0x3d485040	0.048904657
224	0xbda6a4da	-0.08136912
225	0xbdc8aea8	-0.09798938
226	0xbd2809e4	-0.041025057
227	0xbd1bbbfc	-0.038021073
228	0x3d055b8c	0.03255801
229	0x3d37a5f4	0.044836
230	0xbbd436c0	-0.0064762533
231	0xbddc9f06	-0.10772519
232	0xbd5d6f24	-0.05406107
233	0xbd61e3a0	-0.05514872
234	0xbdde8422	-0.10865046
235	0x3c014bc0	0.007891595
236	0x3cd57e40	0.026061177
237	0x3d992e26	0.07479505
238	0xbd48fa90	-0.04906708
239	0xbbe07d40	-0.0068508685
240	0xbcaf1e60	-0.021376789
241	0x3dc41cc4	0.09575799
242	0x3d393b70	0.0452227
243	0x3d25fe64	0.04052581
244	0x3db8f848	0.09031731
245	0x3c207380	0.009793162
246	0xbcc035a0	-0.02346307
247	0x3ce5a768	0.028033927
248	0x3bd69e40	0.0065496266
249	0x3c9247f0	0.017856568
250	0xbb19e200	-0.0023480654
251	0x3df88d54	0.12136331
252	0xbcb8b2a8	-0.022546127
253	0xbda52f3e	-0.08065651
254	0xbd02d43c	-0.031940684
255	0xbca0c778	-0.019626364
